DigitRecognition/ai_resources/trained_ai_models/neural_network_1HL.pth (torch, 475854 bytes, 6 tensors)

hidden_layer.weight f4 [128, 784]
0.032591093 0.018895216 0.008245542 0.016605327 0.011024148 0.02804001 0.02898488 0.009602751
-0.0058883554 0.019549761 -0.016452799 -0.014414671 0.016431214 -0.012697498 0.016837783 -0.011074732
-0.026330044 -0.014766897 -0.019469015 -0.014903214 0.0008112129 -0.011607734 0.0066195726 0.00032748294
0.02015734 0.03854683 -0.00920667 0.015830645 0.034349684 0.022036375 -0.02664547 -0.01319256
-0.004342688 0.005697238 0.024524175 -0.011572159 0.014460926 0.020165954 -0.01751637 0.04137412
-0.004756885 0.03353736 0.03494802 0.0141304275 0.02899701 0.026424158 0.012807454 -0.00027566473
-0.008067864 0.010140874 0.04165727 -0.018509379 0.04048924 -0.026912447 -0.027071385 0.01778656
-0.00051918766 0.018711703 -0.0032022186 -0.010824679 0.010986502 -0.0016712047 0.03249835 -0.013124487
-0.010566077 0.031883895 0.0037050815 -0.004590941 0.029790515 0.001158483 0.022380572 0.023180835
-0.017541995 0.016355587 0.023963884 -0.022293352 0.029345319 -0.004180333 -0.0020058304 0.020473734
-0.00034334103 -0.024623182 0.0304167 0.01475539 0.033125747 -0.0011576173 0.0010443528 -0.023725297
-0.01490834 -0.022052096 0.03494979 0.0027303286 -0.021185122 -0.002472254 0.021904632 -0.013612361
-0.0030664331 0.0025461828 -0.009402736 0.016883126 0.041877497 0.03441678 -0.009276064 0.02747324
0.037328742 0.01829495 0.032426022 0.0314919 0.012004503 0.028701864 0.0032072593 0.0023332597
0.00748699 -0.013956892 0.026306938 0.03710255 -0.004035969 0.043346412 -0.020721976 -0.009401188
0.028362453 -0.002863002 0.0037889136 -0.007869442 0.0077311764 0.008108205 0.0011384235 -0.0035898439
0.007920915 0.02498389 -0.026527349 -0.025077673 0.026050927 0.018864518 0.022903461 -0.00985619
0.016842995 -0.012330069 0.04319458 0.030589651 0.010413154 -0.0052013737 0.029298559 -0.023662385
0.019367127 0.019380921 -0.027724553 -0.013474548 -0.0004296625 -0.035469897 -0.03243497 0.029423008
0.021275776 0.014903922 -0.020547306 0.016688285 -0.021632904 -0.031553883 -0.010074947 0.029954158
-0.014458031 0.024730857 -0.019924778 0.0012168526 -0.027303321 0.038941905 -0.011987948 -0.015167392
0.032124545 0.025936669 0.0031723739 -0.008118975 0.030029967 0.0015808046 0.012078598 -0.019144388
-0.037783716 0.014926548 0.025632981 0.02496834 0.04098806 -0.0033161093 0.03826956 0.0057082963
0.032347202 0.008822512 -0.01232481 0.0048363116 -0.0131944865 0.025969692 -0.02289253 0.004454131
-0.021768942 -0.000362739 -0.014348692 0.043257862 0.0055800257 -0.0010052416 0.02177558 -0.023830868
0.028395653 0.033183582 0.02506344 0.0024033242 -0.014843456 -0.0061815265 -0.0008211393 0.010544928
0.031040624 -0.0059465426 -0.022417763 0.003053891 0.028009456 0.0063531394 -0.013537229 -0.005488782
-0.010242684 0.04005437 0.027922986 -0.028253343 -0.019142583 -0.024781 0.024866657 0.028642286
0.02700579 -0.020709017 0.00023316334 0.017572911 -0.015326983 -0.022260988 -0.00080389425 0.0067931893
-0.038213916 -0.011454601 -0.024866352 -0.01818425 0.03277919 -0.028808815 0.042190988 0.0063251713
-0.027576357 0.022763168 0.014361143 -0.03030054 0.024464827 0.014768055 0.022223512 0.01877332
0.04096681 -0.0056589977 0.008370705 -0.018190384 0.021902226 0.01636096 0.02804868 -0.005232262
00000000: 3d7e 053d 24ca 9a3c 4f18 073c e507 883c
00000010: a19e 343c 2ab4 e53c b371 ed3c db54 1d3c
00000020: 1bf3 c0bb d226 a03c 05c8 86bc 832b 6cbc
00000030: c19a 863c 2b09 50bc 64ef 893c cb72 35bc
00000040: 1bb2 d7bc dbf0 71bc 7c7d 9fbc 9c2c 74bc
00000050: 94a7 543a 5d2e 3ebc 00e9 d83b 04b2 ab39
00000060: 0221 a53c 48e3 1d3d 93d7 16bc 45af 813c
00000070: 41b2 0c3d a185 b43c 9a47 dabc 9b25 58bc
00000080: 1b4d 8ebb e5af ba3b ece6 c83c 2799 3dbc
00000090: 85ed 6c3c 1233 a53c 7e7e 8fbc e977 293d
000000a0: a5df 9bbb 795e 093d a825 0f3d 4f83 673c
000000b0: 238b ed3c 7a77 d83c 5bd6 513c 1887 90b9
000000c0: 132f 04bc e925 263c d0a0 2a3d fba0 97bc
000000d0: 0cd8 253d 7e77 dcbc cfc4 ddbc 1fb5 913c
000000e0: 181a 08ba 4949 993c 50dc 51bb ff59 31bc
000000f0: bb00 343c 530c dbba fd1c 053d 1708 57bc
00000100: 571d 2dbc b098 023d f4d0 723b 9b6f 96bb
00000110: 3d0b f43c 3dd8 973a 7657 b73c bce5 bd3c
00000120: 3bb4 8fbc 27fc 853c e84f c43c 8ca0 b6bc
00000130: 9865 f03c 2dfb 88bb 4074 03bb 88b8 a73c
00000140: 7402 b4b9 8eb6 c9bc 712c f93c 97c0 713c
00000150: ddae 073d 31bb 97ba aae2 883a 8e5b c2bc
00000160: 1c42 74bc 99a6 b4bc 8327 0f3d 50ef 323b
00000170: 6c8c adbc 8a05 22bb 5871 b33c 6106 5fbc
00000180: 36f6 48bb dcdd 263b ef0d 1abc 7b4e 8a3c
00000190: bd87 2b3d 9cf8 0c3d a2fa 17bc 8f0f e13c
000001a0: 06e6 183d 4adf 953c 26d1 043d a7fd 003d
000001b0: 89ae 443c 2c20 eb3c e230 523b 9ae9 183b
000001c0: 6d55 f53b 73ab 64bc a681 d73c d8f8 173d
000001d0: 2940 84bb 028c 313d 22c1 a9bc 7107 1abc
000001e0: 6058 e83c 34a1 3bbb 6c4f 783b d5ee 00bc
000001f0: cf55 fd3b 47d8 043c 2737 953a 9643 6bbb
00000200: bac6 013c 04ab cc3c e24f d9bc b16f cdbc
00000210: c168 d53c c389 9a3c 0aa0 bb3c db7b 21bc
00000220: 52fa 893c 0f04 4abc cdec 303d 2697 fa3c
00000230: ef9b 2a3c 4970 aabb 8803 f03c 9ed7 c1bc
00000240: cfa7 9e3c bdc4 9e3c 9a1e e3bc 5ac4 5cbc
00000250: 5344 e1b9 e248 11bd 88da 04bd 8508 f13c
00000260: 894a ae3c 942f 743c d352 a8bc dfb5 883c
00000270: 7d37 b1bc a53e 01bd 6411 25bc 6c62 f53c
00000280: 61e1 6cbc 5e98 ca3c 4a39 a3bc cc7e 9f3a
00000290: 37ab dfbc 8c81 1f3d 1969 44bc a780 78bc
000002a0: 0795 033d 2379 d43c 9ae7 4f3b 7305 05bc
000002b0: 6801 f63c 0033 cf3a 50e5 453c b1d4 9cbc
000002c0: 19c3 1abd 7b8e 743c 42fc d13c 678a cc3c
000002d0: 19e3 273d 1553 59bb 8bc0 1c3d a90c bb3b
000002e0: 807e 043d 4c8c 103c 00ee 49bc ec79 9e3b
000002f0: b02d 58bc 64be d43c 1d89 bbbc f5f3 913b
00000300: c854 b2bc 012e beb9 c716 6bbc 282f 313d
00000310: a6d8 b63b 50c2 83ba b362 b23c f438 c3bc
00000320: 009e e83c 82eb 073d d851 cd3c 1781 1d3b
00000330: f831 73bc 678e cabb ba41 57ba a2c4 2c3c
00000340: e848 fe3c 37db c2bb 75a5 b7bc ca23 483b
00000350: 1674 e53c ff2d d03b 41cb 5dbc 3edb b3bb
00000360: eed0 27bc 0d10 243d bfbe e43c 8e73 e7bc
00000370: e8d0 9cbc 8601 cbbc 29b5 cb3c 3aa3 ea3c
00000380: 3f3b dd3c f5a5 a9bc 4f7d 7439 11f5 8f3c
00000390: 071e 7bbc ad5c b6bc 6ebc 52ba 6799 de3b
000003a0: 3286 1cbd 14ac 3bbc 85b4 cbbc 23f7 94bc
000003b0: 7943 063d 7700 ecbc 75d0 2c3d 6243 cf3b
000003c0: d0e7 e1bc d379 ba3c 004b 6b3c d738 f8bc
000003d0: 766a c83c b6f5 713c 150e b63c 81ca 993c
000003e0: d0cc 273d 1d6f b9bb 4825 093c 0004 95bc
000003f0: 4c6c b33c 6c07 863c 58c6 e53c 6573 abbb

hidden_layer.bias f4 [128]
0.012070534 0.027732182 -0.03017239 0.02316955 -0.044868276 0.012718644 -0.055657607 -0.043531816
-0.0012317427 0.004558093 -0.03847384 -0.011881732 -0.014855901 -0.00077166856 0.00996393 0.0055535887
-0.019274864 -0.005488749 -0.045185957 0.02381423 0.0062436927 0.04948818 -0.007371738 -0.0273702
0.006958883 0.0041771242 -0.034834735 0.035917163 1.3422315e-05 0.023835177 -0.004748748 -0.013175066
0.0693437 -0.0054984884 -0.01683641 -0.03762541 0.05253992 -0.011362715 -0.031203348 0.029366467
0.0022382857 0.041312426 -0.02447048 -0.010354207 0.0016268191 0.016495416 -0.0014514863 0.018863013
0.001318777 0.023578672 0.013614272 -0.01728922 -0.037979897 -0.041213624 -0.040412355 -0.004547018
-0.0012873593 -0.021364482 -0.019018741 -0.025722152 0.02064133 -0.018195827 -0.008178261 -0.020826561
-0.016888285 -0.03304754 -0.038424004 0.02517662 -0.018101277 0.01879279 0.00897019 0.0029052258
0.008287392 0.027074693 -0.03882242 -0.0023179231 -0.017739126 0.0061893994 0.016071202 0.008432582
0.01789497 -0.0044542807 0.025297964 -0.018422777 -0.019566542 -0.028397633 0.0074460227 0.015540347
-0.033584867 -0.020387907 -0.008243382 0.016298765 -0.042008843 -0.024625685 0.008145547 0.014189113
-0.045174357 0.016707879 -0.006510002 -0.02464275 0.037132777 0.02071667 0.0007751073 0.004053984
-0.016268326 -0.010712919 0.033494517 0.025560707 0.016743265 -0.026181636 -0.0028811507 -0.009484425
-0.0018548418 -0.012989065 0.014045826 -0.02357715 -0.020844117 0.025762716 -0.032027055 0.032504994
-0.022123478 0.0046640183 -0.0022187459 -0.010883814 -0.05061905 -0.0039396025 -0.011657877 -0.008325305
00000000: 7dc3 453c 9a2e e33c 172c f7bc 11ce bd3c
00000010: ccc7 37bd dc61 503c 3bf9 63bd 6b4e 32bd
00000020: 6d72 a1ba 0e5c 953b bf96 1dbd 99ab 42bc
00000030: 2a66 73bc cd49 4aba c03f 233c e1fa b53b
00000040: 52e6 9dbc f7da b3bb e914 39bd 0f16 c33c
00000050: e497 cc3b 1eb4 4a3d 9f8e f1bb 7837 e0bc
00000060: 5707 e43b 42e0 883b deae 0ebd e01d 133d
00000070: 6730 6137 fd41 c33c 639b 9bbb 3bdc 57bc
00000080: 1204 8e3d aa2c b4bb 83ec 89bc 1a1d 1abd
00000090: 1934 573d ae2a 3abc 2a9e ffbc f291 f03c
000000a0: 34b0 123b 3837 293d 5176 c8bc b1a4 29bc
000000b0: fe3a d53a 6521 873c cc3f beba 9b86 9a3c
000000c0: d0da ac3a 0f28 c13c 650e 5f3c 1fa2 8dbc
000000d0: cf90 1bbd 9ecf 28bd 6d87 25bd 27ff 94bb
000000e0: 9cbc a8ba 9104 afbc 31cd 9bbc 43b7 d2bc
000000f0: 0218 a93c 6a0f 95bc 1dfe 05bc 779c aabc
00000100: 4d59 8abc db5c 07bd 7d62 1dbd 333f ce3c
00000110: 2149 94bc 56f3 993c b4f7 123c 9a65 3e3b
00000120: d7c7 073c bfcb dd3c 4204 1fbd 4ce8 17bb
00000130: a551 91bc 72d0 ca3b c1a7 833c d028 0a3c
00000140: 7998 923c 37f5 91bb ad3d cf3c 5deb 96bc
00000150: 034a a0bc 27a2 e8bc c4fd f33b f19c 7e3c
00000160: 4990 09bd 8a04 a7bc 400f 07bc fd84 853c
00000170: 7711 2cbd cebb c9bc e674 053c 7479 683c
00000180: bf08 39bd f6de 883c db51 d5bb 98df c9bc
00000190: 8a18 183d 02b6 a93c 9230 4b3a 48d7 843b
000001a0: 2745 85bc 3d85 2fbc 8c31 093d b064 d13c
000001b0: 2c29 893c df7a d6bc b0d1 3cbb 9064 1bbc
000001c0: 2a1e f3ba 16d0 54bc 7720 663c de24 c1bc
000001d0: 48c1 aabc 550c d33c cd2e 03bd f523 053d
000001e0: 4c3c b5bc 9fd4 983b 6168 11bb 0652 32bc
000001f0: ec55 4fbd c817 81bb ae00 3fbc dc66 08bc

hidden_layer2.weight f4 [128, 128]
0.08756533 0.045502126 0.042898726 -0.07721361 -0.082126856 -0.042590875 0.071444534 0.078158066
-0.055295274 0.059573896 -0.023709098 -0.07065293 0.061104733 -0.045671545 -0.058513165 0.016149977
0.0402226 0.031459462 0.04230331 0.014401462 0.075954966 -0.06739113 -0.00078702916 0.0033196858
-0.08525954 -0.008278083 0.082489766 -0.083355054 -0.0466685 0.05704718 0.08446698 0.015963962
0.027917577 -0.008226991 0.028902138 -0.0514138 0.041162446 0.025382202 0.043289617 -0.05397242
0.0028301082 -0.07757735 -0.016974032 0.060320243 -0.0057636234 0.087278746 -0.027411731 0.043129195
0.01756257 0.038541354 -0.078989275 -0.08063727 -0.0029458117 0.049915977 -0.017225586 0.0637216
0.0074391398 0.019074999 -0.026142562 0.087315455 0.05959481 -0.022812445 -0.06629233 -4.6804074e-05
0.05506314 0.03749802 0.04565689 -0.04608094 0.039181333 7.027987e-05 0.055266645 0.0052038818
0.007405496 0.054457195 0.033590857 0.009149659 -0.04641785 0.037052874 -0.074056804 0.021771133
0.036826957 -0.07665025 -0.059972025 0.047173418 -0.063152984 -0.00735826 -0.06573101 0.03131633
-0.07005636 0.011030915 -0.051887207 -0.06699852 -0.044931334 -0.03318864 0.016370606 -0.08669612
0.012624225 -0.026816987 -0.0022155228 0.021499328 -0.08317916 -0.05133677 -0.023694348 0.00472443
-0.0854844 -0.042446733 0.03414312 0.029581934 -0.065121956 -0.03518975 -0.08278584 -0.08685379
-0.041114893 0.0006621586 0.045857012 -0.044486146 -0.0372385 -0.04829939 -0.06097614 0.04119809
0.034799505 0.077206664 -0.0072775595 0.010410577 0.035705186 0.06410777 -0.012954518 0.025131322
0.009198202 -0.051185586 -0.030692019 -0.036853448 0.07969892 -0.08664585 0.082085274 0.08339163
-0.051640835 -0.007855119 -0.067740425 -0.047753368 0.05000378 -0.003000529 -0.012593194 -0.019555189
-0.038262922 -0.06659066 -0.0111671025 0.0059630834 0.03590457 0.03079667 0.016252352 0.026569922
-0.0051444233 -0.005732003 -0.028420188 -0.025455948 -0.07543437 0.075503886 -0.07116704 0.003377722
-0.049852956 0.020774655 0.06179951 -0.037378658 0.05842315 -0.03337419 0.06374452 0.03975138
-0.0073687653 -0.000327186 0.034768347 0.0087853 -0.055046722 0.056971423 0.07683685 -0.08032888
-0.03531986 0.0051711444 0.018014837 0.049945902 -0.028324073 0.062367134 0.08673369 -0.046013664
0.028143369 -0.07442278 -0.006213868 0.0028691678 -0.008797448 -0.042193018 -0.03977946 0.02478339
0.031171745 -0.037382167 0.009164969 0.0054071243 -0.058427468 -0.0027496077 0.053183675 -0.08413694
-0.03820246 0.08281117 0.033922754 -0.0044804206 -0.07055322 -0.042605225 -0.08818138 0.040003806
-0.078132585 0.026179524 0.01316186 0.02082658 0.06814632 0.022635808 -0.03620396 0.070660815
0.037379533 -0.054713424 0.019324467 -0.019059427 -0.04917141 0.03469576 0.028288258 -0.00043609343
0.0063357777 -0.010490677 -0.049394537 -0.0748197 -0.045855455 0.05869781 -0.0044921376 -0.03418078
0.08008871 -0.009473189 -0.06589622 -0.040981278 -0.06279287 -0.045692906 -0.017199613 -0.08492024
0.0014162922 0.047273125 -0.059188895 0.085796475 -0.044109046 -0.033683233 0.052353866 -0.008198521
-0.038891952 -0.043504905 0.040855035 -0.08442749 0.028862678 -0.007149949 0.027347382 0.030164562
00000000: 7455 b33d 7060 3a3d 93b6 2f3d 2b22 9ebd
00000010: 2032 a8bd c573 2ebd 8351 923d 5611 a03d
00000020: 4c7d 62bd c203 743d 9539 c2bc 7cb2 90bd
00000030: f548 7a3d 1612 3bbd 80ab 6fbd f54c 843c
00000040: 74c0 243d a3db 003d 3c46 2d3d 1cf4 6b3c
00000050: 478e 9b3d 5c04 8abd a250 4eba 168f 593b
00000060: 8e9c aebd cca0 07bc 65f0 a83d 0eb6 aabd
00000070: 7827 3fbd 4eaa 693d 06fd ac3d dbc6 823c
00000080: 67b3 e43c 80ca 06bc 2dc4 ec3c 4797 52bd
00000090: f499 283d 56ee cf3c 7450 313d 2f12 5dbd
000000a0: 5679 393b e0e0 9ebd 200d 8bbc 5c12 773d
000000b0: c7dc bcbb 33bf b23d 918e e0bc 3da8 303d
000000c0: 61df 8f3c 8add 1d3d 21c5 a1bd 2725 a5bd
000000d0: 850e 41bb b274 4c3d ac1c 8dbc 7880 823d
000000e0: 07c4 f33b 2c43 9c3c ed28 d6bc 72d2 b23d
000000f0: b019 743d 2ae1 babc 46c4 87bd 7e4f 44b8
00000100: e389 613d 8697 193d b802 3b3d 5ebf 3cbd
00000110: 9b7c 203d 3863 9338 475f 623d 5385 aa3b
00000120: cea9 f23b 820e 5f3d 9196 093d 74e8 153c
00000130: a520 3ebd c1c4 173d 18ab 97bd 6059 b23c
00000140: ddd7 163d cefa 9cbd 3aa5 75bd ea38 413d
00000150: 5a56 81bd 8f1d f1bb fb9d 86bd 8d45 003d
00000160: b579 8fbd 03bb 343c ae87 54bd 8536 89bd
00000170: eb09 38bd d0f0 07bd a61b 863c bc8d b1bd
00000180: d6d5 4e3c 4caf dbbc 4e32 11bb 5c1f b03c
00000190: d659 aabd 8146 52bd a61a c2bc 64cf 9a3b
000001a0: 7212 afbd a0dc 2dbd a8d9 0b3d d055 f23c
000001b0: a95e 85bd 2123 10bd 9f8b a9bd 66e0 b1bd
000001c0: 1768 28bd b694 2d3a 90d4 3b3d 1b37 36bd
000001d0: 6687 18bd 95d5 45bd 1ec2 79bd 54bf 283d
000001e0: ed89 0e3d 871e 9e3d 9878 eebb 2091 2a3c
000001f0: 9a3f 123d ef4a 833d 303f 54bc 34e0 cd3c
00000200: 0eb4 163c faa7 51bd d46d fbbc a4f3 16bd
00000210: 3039 a33d 6173 b1bd 531c a83d 3bc9 aa3d
00000220: 5785 53bd c2b2 00bc 7ebb 8abd 0999 43bd
00000230: c3d0 4c3d 86a4 44bb af53 4ebc 3432 a0bc
00000240: 95b9 1cbd af60 88bd 39f6 36bc f865 c33b
00000250: ac10 133d 4c49 fc3c a723 853c 2aa9 d93c
00000260: 8d92 a8bb 87d3 bbbb 74d1 e8bc fe88 d0bc
00000270: 567d 9abd c8a1 9a3d 06c0 91bd c65c 5d3b
00000280: 9d32 4cbd 9c2f aa3c 7c21 7d3d 5d1a 19bd
00000290: 1d4d 6f3d 60b3 08bd 7d8c 823d 58d2 223d
000002a0: af75 f1bb 298a abb9 4169 0e3d 38f0 0f3c
000002b0: ac78 61bd de5a 693d a35c 9d3d 7883 a4bd
000002c0: 8fab 10bd b472 a93b da93 933c 1394 4c3d
000002d0: e307 e8bc ae74 7f3d 6fa1 b13d d378 3cbd
000002e0: ec8c e63c f86a 98bd b49d cbbb a608 3c3b
000002f0: 2c23 10bc 96d2 2cbd c9ef 22bd 8906 cb3c
00000300: e35b ff3c 0b1e 19bd ab28 163c 3f2e b13b
00000310: a451 6fbd c332 34bb 20d7 593d fd4f acbd
00000320: 2f7a 1cbd e798 a93d 96f2 0a3d 7ed0 92bb
00000330: 357e 90bd d182 2ebd 7098 b4bd 08db 233d
00000340: fa03 a0bd 7176 d63c d8a4 573c 819c aa3c
00000350: 4c90 8b3d bb6e b93c 9b4a 14bd 9eb6 903d
00000360: 481b 193d 2f1b 60bd 584e 9e3c 8422 9cbc
00000370: f667 49bd 241d 0e3d c7bc e73c 78a3 e4b9
00000380: 5b9c cf3b 17e1 2bbc ed51 4abd 123b 99bd
00000390: eed2 3bbd 1d6d 703d c832 93bb 2501 0cbd
000003a0: 8d05 a43d 6f35 1bbc 99f4 86bd fcdb 27bd
000003b0: 8c99 80bd 7c28 3bbd 34e6 8cbc aaea adbd
000003c0: e1a2 b93a 77a1 413d 0e70 72bd 10b6 af3d
000003d0: b0ab 34bd 6ef7 09bd 0271 563d 1753 06bc
000003e0: 2b4d 1fbd 3332 32bd 9c57 273d 52e8 acbd
000003f0: 6c71 ec3c 1f4a eabb 9e07 e03c ac1b f73c

hidden_layer2.bias f4 [128]
0.08652832 0.059744295 -0.026777536 -0.08754804 -0.060656764 -0.060205307 -0.07270439 -0.06653804
0.068192706 -0.0018082684 0.008926017 0.080492154 -0.013595899 0.08473658 -0.0750167 0.08728787
0.061700173 0.020541668 -0.08223321 0.046351366 0.017474705 0.04380851 0.0005091234 0.029924188
0.010250335 0.0019631265 0.038709298 0.0019556663 0.03872204 -0.067513496 -0.082650155 0.078910574
-0.010524837 0.024316192 -0.030368954 0.07504432 -0.002446793 -0.058023185 0.05901722 0.051881317
-0.07344199 -0.061472736 -0.019970052 0.0007496133 0.075283915 0.021513974 0.008683051 0.07057984
-0.018941889 0.022224803 -0.058159646 -0.00817967 0.069660775 -0.051768024 -0.015687995 0.06906013
-0.08007513 -0.03147274 -0.06874908 -0.06473372 -0.08447437 0.043259207 0.02856688 -0.0822235
-0.081699006 -0.003876783 0.06994797 0.07404917 0.016703164 -0.08046985 -0.047742516 0.076583445
-0.08316826 -0.041084368 0.01249967 0.0058622896 0.012521386 -0.028912095 -0.04333952 0.07242153
0.017716069 0.08644659 -0.025639582 0.024647877 -0.057665706 0.07682997 -0.08474676 0.032208
-0.05115363 0.068434775 0.054138247 -0.050769545 0.074872114 -0.061094817 -0.08814898 0.041622784
0.06424961 0.059168454 -0.058608375 0.02197683 -0.0278181 0.077922255 0.032395057 0.0022121405
0.05629502 0.008210459 -0.074057005 0.08771717 -0.025519652 0.083355814 -0.015629958 0.07752685
-0.059530273 0.06818182 0.015935143 0.06261011 -0.006241611 0.065562464 -0.08282411 -0.05806978
0.0075634522 0.06949783 -0.045462497 0.06625238 -0.04509129 -0.07628249 -0.054594625 0.021445675
00000000: c335 b13d 6fb6 743d 905c dbbc 634c b3bd
00000010: 3a73 78bd d799 76bd 0ae6 94bd 1945 88bd
00000020: 9ea8 8b3d 6b03 edba 6e3e 123c 12d9 a43d
00000030: 55c1 5ebc 5f8a ad3d 5ba2 99bd fcc3 b23d
00000040: 52b9 7c3d 0047 a83c e369 a8bd eeda 3d3d
00000050: 1d27 8f3c 8d70 333d b176 053a 9223 f53c
00000060: 05f1 273c cca7 003b a48d 1e3d a32a 003b
00000070: 009b 1e3d 8444 8abd 7c44 a9bd de9b a13d
00000080: 5e70 2cbc c032 c73c 50c8 f8bc d6b0 993d
00000090: 605a 20bb b8a9 6dbd 0abc 713d 8181 543d
000000a0: c168 96bd d6ca 7bbd 3c98 a3bc b281 443a
000000b0: 742e 9a3d 133e b03c 5b43 0e3c 2a8c 903d
000000c0: 052c 9bbc ca10 b63c cf38 6ebd 0604 06bc
000000d0: 4faa 8e3d b50a 54bd 1c84 80bc 666f 8d3d
000000e0: 6efe a3bd 8fe9 00bd 51cc 8cbd 1d93 84bd
000000f0: e600 adbd 9130 313d 1705 ea3c cb64 a8bd
00000100: cf51 a7bd a011 7ebb e240 8f3d 17a7 973d
00000110: 13d5 883c 60cd a4bd a88d 43bd c8d7 9c3d
00000120: 1f54 aabd 1548 28bd 6acb 4c3c 7318 c03b
00000130: 8026 4d3c 0fd9 ecbc c884 31bd bd51 943d
00000140: 4a21 913c e90a b13d 1a0a d2bc 58ea c93c
00000150: e032 6cbd 0859 9d3d b68f adbd 89ec 033d
00000160: 7886 51bd 8827 8c3d 11c0 5d3d baf3 4fbd
00000170: 8d56 993d 8f3e 7abd 7487 b4bd a77c 2a3d
00000180: 4d95 833d 9f5a 723d 560f 70bd c108 b43c
00000190: c9e2 e3bc b495 9f3d aeb0 043d 8ff9 103b
000001a0: 9b95 663d 2985 063c 33ab 97bd 0fa5 b33d
000001b0: 970e d1bc 74b6 aa3d 660a 80bc 66c6 9e3d
000001c0: 04d6 73bd e9a2 8b3d 6b8a 823c bb39 803d
000001d0: 6e86 ccbb 9d45 863d b09f a9bd 94da 6dbd
000001e0: d6d6 f73b e154 8e3d e236 3abd 54af 873d
000001f0: a5b1 38bd fe39 9cbd 9d9e 5fbd d7ae af3c

output_layer.weight f4 [10, 128]
0.04524445 0.02333099 0.017301999 -0.05046936 -0.05437469 0.2437642 -0.32922366 -0.45567
-0.06988328 0.20734392 -0.02373179 0.21447156 0.05305051 -0.06576598 0.016608646 -0.5529165
-0.5705672 0.18769692 0.08848076 0.054613784 0.040994793 -0.18599986 -0.06224288 0.2565464
-0.027229374 0.014603271 0.07263199 0.012048728 -0.051953882 -0.2637066 0.016216706 0.18647105
-0.12834515 -0.052207533 -0.13374841 0.09212919 0.12831904 0.083407596 -0.3544224 0.13513967
0.061333463 -0.24728534 0.016262524 0.1903787 0.0097791 0.03426944 -0.46687633 -0.3326139
-0.06869872 -0.11136837 0.1533018 -0.1531116 0.10759539 -0.6368359 -0.44492778 0.1460476
-0.4092638 -0.30180237 -0.017439183 0.22490963 -0.02131509 0.040401913 -0.02995832 0.13711491
-0.07180837 0.06069449 -0.06415522 0.031129083 0.06353858 -0.032298565 0.20204861 -0.07007788
0.21206829 0.02085449 -0.06877461 -0.19315627 -0.012359203 0.06831866 0.18344769 -0.10329831
0.06210316 0.06922109 0.21930318 0.021173006 0.05560055 -0.0011797199 0.004811379 0.20508693
0.07130991 0.05496839 -0.074205376 0.093626775 -0.06444437 0.08851592 0.13436323 0.0029118739
-0.31120953 -0.0893406 0.20059715 -0.29259846 0.057928745 0.09158758 0.04535604 -0.020259736
-0.07091014 -0.053286936 0.16719653 -0.45087728 0.1224951 -0.057873555 0.095272936 -0.28636056
-0.0020125208 0.01675893 -0.03381957 -0.16689438 -0.031030936 0.1208519 -0.53911066 -0.16722395
-0.21414213 -0.22125222 0.019491896 0.034267377 -0.33991015 0.21436712 -0.058723208 -0.0022371935
-0.015111389 -0.031579483 0.041033633 -0.023834007 0.089746274 0.18942997 0.07781791 0.03986523
0.033261966 0.26064098 -0.040293407 -0.12526388 0.0141150495 -0.015518551 0.06519912 0.23705405
0.027858218 -0.49246955 0.141111 -0.067720175 0.14957245 0.07688221 -0.09340319 0.05866197
-0.061927605 0.016242923 -0.15032518 -0.42207554 -0.047000345 0.12256145 0.0052012214 0.028670756
0.038558803 -0.019799622 -0.10498584 -0.00044505848 -0.45358646 0.15681203 -0.040315703 0.29698572
-0.3471929 0.06443533 -0.0730431 -0.51901066 -0.2537599 -0.06308788 -0.093261994 -0.372567
0.029286591 0.0063494737 0.35023955 -0.17237845 0.08718074 0.028379003 0.04526341 -0.24432346
0.20132373 0.09965222 -0.0016660675 0.044430077 -0.0527737 -0.07613903 -0.07593049 0.061614353
-0.012384524 -0.22194842 -0.054939665 -0.29885802 0.0018092219 0.041561965 -0.32720494 0.044268236
-0.2063332 -0.06471875 0.0068168035 -0.098675795 -0.08198572 0.04962238 -0.50415814 -0.035920594
-0.035068333 -0.2308241 0.08529299 0.0024359461 0.05152772 -0.5575115 -0.017723491 -0.13590395
-0.0485323 0.038778998 0.025984837 0.06850335 0.084460676 0.13278623 -0.3148475 0.04698984
0.17227034 0.0618789 0.12014215 0.58343714 0.014123577 0.057081804 0.06768179 0.038700197
0.05184292 -0.0060448395 0.29332194 -0.025412379 0.011612072 -0.06022271 -0.5463642 0.057577122
0.10500364 -0.026037462 0.089139774 0.03312153 0.07367424 -0.112176284 0.0045186174 -0.05823021
0.0084447935 0.022268808 -0.16243371 0.07444485 0.15976484 -0.14755943 0.014175347 -0.0130120125
00000000: 3f52 393d a220 bf3c ecbc 8d3c f6b8 4ebd
00000010: ffb7 5ebd 539d 793e 0190 a8be 944d e9be
00000020: f71e 8fbd f751 543e 2c69 c2bc 6f9e 5b3e
00000030: 7e4b 593d 50b0 86bd db0e 883c f08b 0dbf
00000040: b110 12bf 9f33 403e 6735 b53d b4b2 5f3d
00000050: 28ea 273d bf76 3ebe 64f2 7ebd 0d5a 833e
00000060: 2310 dfbc 8f42 6f3c 15c0 943d 0768 453c
00000070: 98cd 54bd 8d04 87be e6d8 843c 44f2 3e3e
00000080: e96c 03be 91d7 55bd 58f5 08be 3bae bc3d
00000090: 1166 033e 9ad1 aa3d da76 b5be 0e62 0a3e
000000a0: cc38 7b3d 5e38 7dbe fc38 853c a2f2 423e
000000b0: 8538 203c 1d5e 0c3d 6a0a efbe 5e4c aabe
000000c0: eab1 8cbd 1a15 e4bd 26fb 1c3e 4ac9 1cbe
000000d0: f95a dc3d ad07 23bf 93cd e3be 818d 153e
000000e0: 068b d1be d785 9abe 9edc 8ebc b64e 663e
000000f0: fc9c aebc 7a7c 253d 276b f5bc da67 0c3e
00000100: 4410 93bd c99a 783d d063 83bd 6b02 ff3c
00000110: 8420 823d 804b 04bd d5e5 4e3e fe84 8fbd
00000120: 6e28 593e 09d7 aa3c b4d9 8cbd c2ca 45be
00000130: 417e 4abc a7ea 8b3d b6d9 3b3e 108e d3bd
00000140: e25f 7e3d c9c3 8d3d 0391 603e 0373 ad3c
00000150: 67bd 633d d5a0 9aba c6a8 9d3b 4f02 523e
00000160: ee0a 923d 8926 613d fdf8 97bd 65bf bf3d
00000170: 69fb 83bd d647 b53d 8496 093e 23d5 3e3b
00000180: db56 9fbe 34f8 b6bd 5769 4d3e 77cf 95be
00000190: b146 6d3d 4592 bb3d 41c7 393d bff7 a5bc
000001a0: 5639 91bd 6743 5abd 9135 2b3e 63d9 e6be
000001b0: b6de fa3d d20c 6dbd 751e c33d da9d 92be
000001c0: 7fe4 03bb 064a 893c 6486 0abd 5ce6 2abe
000001d0: 9734 febc 3381 f73d 2803 0abf c13c 2bbe
000001e0: 1348 5bbe f18f 62be 78ad 9f3c f35b 0c3d
000001f0: b408 aebe 0e83 5b3e bf87 70bd e19d 12bb
00000200: c295 77bc 7d59 01bd e212 283d 893f c3bc
00000210: e5cc b73d eef9 413e ff5e 9f3d b949 233d
00000220: b33d 083d bc72 853e b30a 25bd 2d45 00be
00000230: cf42 673c 8541 7ebc 1e87 853d 4cbe 723e
00000240: eb36 e43c f824 fcbe 677f 103e e0b0 8abd
00000250: 8529 193e 6c74 9d3d 2c4a bfbd 8947 703d
00000260: cda7 7dbd e10f 853c d8ee 19be 491a d8be
00000270: 6f83 40bd 7f01 fb3d 026f aa3b efde ea3c
00000280: d6ef 1d3d d132 a2bc d102 d7bd bd56 e9b9
00000290: 7c3c e8be 5593 203e 1422 25bd 830e 983e
000002a0: 45c3 b1be acf6 833d 9f97 95bd e2dd 04bf
000002b0: d1ec 81be 3834 81bd 2500 bfbd 1ac1 bebe
000002c0: 6fea ef3c 3f0f d03b 9952 b33e fa83 30be
000002d0: d18b b23d 157b e83c 2066 393d ee2f 7abe
000002e0: cf27 4e3e 7716 cc3d f35f daba 50fc 353d
000002f0: 3c29 58bd c8ee 9bbd 7281 9bbd 555f 7c3d
00000300: 75e8 4abc 7246 63be 6a08 61bd eb03 99be
00000310: 6a23 ed3a e13c 2a3d 6887 a7be 9c52 353d
00000320: 0349 53be 448b 84bd 7e5f df3b 8916 cabd
00000330: 21e8 a7bd d640 4b3d 8210 01bf 7921 13bd
00000340: d0a3 0fbd 275d 6cbe 17ae ae3d 65a4 1f3b
00000350: bb0e 533d 13b9 0ebf db30 91bc 682a 0bbe
00000360: cec9 46bd bad6 1e3d 27de d43c 7c4b 8c3d
00000370: b8f9 ac3d 1df9 073e b133 a1be 6b78 403d
00000380: a367 303e bb74 7d3d 160d f63d 235c 153f
00000390: 9366 673c 9cce 693d c09c 8a3d 1984 1e3d
000003a0: 3e59 543d ca13 c6bb 4b2e 963e 9f2d d0bc
000003b0: 8f40 3e3c 17ac 76bd 86de 0bbf fdd5 6b3d
000003c0: 260c d73d 844c d5bc ea8e b63d 71aa 073d
000003d0: 85e2 963d aebc e5bd e910 943b cd82 6ebd
000003e0: 085c 0a3c 136d b63c 0655 26be 8b76 983d
000003f0: 6599 233e d219 17be b73f 683c 5630 55bc

output_layer.bias f4 [10]
0.043371074 -0.06650498 -0.08000361 -0.041358806 -0.005163849 -0.03749693 0.0055991625 -0.13583514
0.18757075 0.056840774
00000000: dea5 313d c333 88bd efd8 a3bd da67 29bd
00000010: 8135 a9bb 6296 19bd 2e79 b73b 5e18 0bbe
00000020: 8c12 403e dfd1 683d
