DigitRecognition/ai_resources/trained_ai_models/nueral_network/neural_network_3HL.pth (torch, 475854 bytes, 6 tensors)

hidden_layer.weight f4 [128, 784]
-0.022200158 -0.020913588 -0.020192867 -0.014385907 -0.004499399 -0.035908896 0.0073191547 -0.042947624
-0.00086613826 0.023638962 -0.025587568 -0.010623159 0.008947885 -0.034363065 -0.040314075 0.011315586
-0.031785347 0.006723972 0.018372832 -0.03545242 -0.041664686 -0.008705355 -0.018736338 0.01240498
-0.03173465 -0.015277395 -0.04140715 0.009882921 -0.018713066 0.014752994 -0.033253793 0.017097889
0.005734234 -0.03176213 -0.025281271 -0.053066935 -0.04809158 -0.025976058 -0.025943356 0.0049181273
-0.04805621 -0.039948586 -0.024332825 -0.041267477 -0.047175102 -0.010579968 0.015462946 0.00920751
-0.041782938 -0.0099217035 -0.024656132 -0.032626092 -0.021286549 -0.014970792 -0.04437389 -0.034324642
-0.027616682 0.015172074 -0.029488867 0.022653056 -0.019082306 -0.04266351 -0.0021507177 -0.046845615
-0.04799273 -0.035972226 -0.041695945 -0.02010757 -0.05508956 0.011706616 0.024776572 0.0037553576
0.002376061 -0.015741413 -0.05105347 -0.03179953 -0.008394285 -0.059683055 -0.06683892 -0.024614977
-0.042480927 0.0007380993 0.007244523 0.0067431564 -0.014579102 -0.021470567 -0.0074581783 0.024111
-0.04038638 0.007337275 -0.008959882 -0.023442114 -0.020121546 -0.04540824 0.035727967 0.05073501
0.06131796 0.045649204 0.066664115 0.0730541 0.036245745 0.013740619 -0.058695428 -0.041821644
-0.023908123 -0.042938296 -0.09419131 -0.062613465 -0.03258879 0.0029432024 0.0018930784 -0.00263012
-0.028194992 -0.021832677 0.0125097465 0.022089476 -0.04189341 -0.021190777 -0.04820155 -0.046604082
0.016937524 -0.020982573 -0.0027826256 0.13106076 0.098687254 0.11967838 0.107667826 0.09763874
0.060983106 0.060692597 -0.017141802 -0.048601355 -0.08283837 -0.023514485 -0.023735767 0.028792286
-0.0030776486 0.020716788 -0.034302928 -0.032287214 -0.014915671 -0.018004479 -0.03658293 0.012576673
0.018872557 0.0002516923 -0.023504289 -0.017298082 0.050131176 0.03268736 0.10663849 0.028574703
-1.0360047e-05 -0.056500837 -0.08510642 -0.049970318 0.038104065 0.12270075 0.15563238 0.14364646
0.121021725 0.09403751 0.057695627 0.07178508 0.03733602 0.017816033 0.020954316 -0.01768466
-0.015214728 -0.00044148418 0.013726979 -0.04368191 -0.061824292 0.008755913 -0.039040137 0.002581148
0.0063094026 0.12842873 0.07291416 -0.12005259 -0.23243317 -0.303488 -0.33689228 -0.27950713
-0.080523536 0.107552335 0.2808961 0.22971062 0.18512562 0.15249823 0.115951546 0.10106772
0.05273246 0.037609957 0.028584292 0.016760308 -0.0045172106 -0.020067802 -0.0067877322 -0.006071451
0.005998082 -0.0054003345 0.013254237 -0.032448143 -0.05103423 0.07523858 -0.058510885 -0.090507835
-0.21034734 -0.16007195 -0.21462734 -0.2202097 -0.068140574 0.15934716 0.28318655 0.24561575
0.16338673 0.1396297 0.14710252 0.05908454 0.07248435 0.054626435 0.036342468 -0.018709552
0.01960661 -0.03874406 0.023557743 -0.03207106 0.0022574684 -0.04244779 -0.06356817 -0.123174064
-0.04109743 0.1063262 -0.047339514 -0.08740648 -0.13977334 -0.12092522 -0.085354 -0.045075137
0.05674952 0.16027652 0.12708846 0.07257808 -0.004008351 -0.01514961 0.060772948 0.12991373
0.0028958975 0.04521973 -0.01530725 -0.029886877 0.01163353 -0.005734314 -0.0034870934 -0.04926882
00000000: 1bdd b5bc f952 abbc 836b a5bc deb2 6bbc
00000010: b26f 93bb 3515 13bd 85d5 ef3b d9e9 2fbd
00000020: 8e0d 63ba 7fa6 c13c 059d d1bc c20c 2ebc
00000030: 269a 123c 49c0 0cbd 5f20 25bd 0265 393c
00000040: 5a31 02bd c454 dc3b 9f82 963c 8f36 11bd
00000050: 97a8 2abd e8a0 0ebc f37c 99bc 423e 4b3c
00000060: 31fc 01bd 0a4e 7abc 8b9a 29bd faeb 213c
00000070: 254c 99bc 8bb6 713c 2135 08bd df10 8c3c
00000080: 3ee6 bb3b 0219 02bd ab1a cfbc b75c 59bd
00000090: adfb 44bd becb d4bc 2987 d4bc 3e28 a13b
000000a0: 97d6 44bd 21a1 23bd a255 c7bc 1608 29bd
000000b0: ae3a 41bd 9a57 2dbc 4c58 7d3c 19db 163c
000000c0: 9624 2bbd a48e 22bc a8fb c9bc f0a2 05bd
000000d0: 2161 aebc 0e48 75bc 65c1 35bd ff97 0cbd
000000e0: 613c e2bc 4a94 783c a392 f1bc e792 b93c
000000f0: 7f52 9cbc efbf 2ebd 0ef3 0cbb 30e1 3fbd
00000100: 0694 44bd 9d57 13bd 5ec9 2abd a1b8 a4bc
00000110: 97a5 61bd 1bcd 3f3c 3df8 ca3c 721c 763b
00000120: b0b7 1b3b 23f4 80bc 711d 51bd 3940 02bd
00000130: 2f88 09bc 3876 74bd d8e2 88bd 59a5 c9bc
00000140: 7b00 2ebd 017d 413a 7763 ed3b b2f5 dc3b
00000150: 30dd 6ebc 0be3 afbc bc63 f4bb 6f84 c53c
00000160: 306c 25bd 866d f03b 78cc 12bc ad09 c0bc
00000170: f1d5 a4bc fefd 39bd 7d57 123d 84cf 4f3d
00000180: 8b28 7b3d a9fa 3a3d 3287 883d 639d 953d
00000190: 6b76 143d 5520 613c 9e6a 70bd 2c4d 2bbd
000001a0: f8da c3bc 11e0 2fbd 60e7 c0bd 7d3b 80bd
000001b0: d37b 05bd bee2 403b 2c21 f83a 175e 2cbb
000001c0: 2ff9 e6bc 71da b2bc aef5 4c3c fdf4 b43c
000001d0: 6d98 2bbd 4898 adbc fd6e 45bd ece3 3ebd
000001e0: 90c0 8a3c a5e3 abbc b65c 36bb cb34 063e
000001f0: 8b1c ca3d f019 f53d f380 dc3d d2f6 c73d
00000200: 6cc9 793d cd98 783d f76c 8cbc 3712 47bd
00000210: 2aa7 a9bd 73a1 c0bc 8371 c2bc cddd eb3c
00000220: 60b2 49bb 41b6 a93c 3a81 0cbd 993f 04bd
00000230: dc60 74bc 217e 93bc fbd7 15bd 640e 4e3c
00000240: 9f9a 9a3c 92f5 8339 118c c0bc b5b4 8dbc
00000250: 5956 4d3d 2ee3 053d 4865 da3d 7f15 ea3c
00000260: 10d0 2db7 6c6d 67bd 464c aebd adad 4cbd
00000270: 0213 1c3d 884a fb3d 185e 1f3e 0f18 133e
00000280: 3dda f73d bd96 c03d 4052 6c3d 0e04 933d
00000290: a8ed 183d eef2 913c 63a8 ab3c 6cdf 90bc
000002a0: 3247 79bc 0177 e7b9 1fe7 603c cdeb 32bd
000002b0: 783b 7dbd f674 0f3c 8de8 1fbd 7a28 293b
000002c0: 1bbf ce3b d282 033e 0554 953d 22de f5bd
000002d0: f602 6ebe c762 9bbe 257d acbe 8f1b 8fbe
000002e0: 86e9 a4bd 6644 dc3d 9dd1 8f3e 4339 6b3e
000002f0: 9291 3d3e 7f28 1c3e 0178 ed3d 98fc ce3d
00000300: fefd 573d e60c 1a3d 9b29 ea3c ea4c 893c
00000310: 1c05 94bb 3b65 a4bc a06b debb 06f3 c6bb
00000320: 8f8b c43b 4af5 b0bb 4d28 593c 58e8 04bd
00000330: 4509 51bd af16 9a3d 1ca9 6fbd 2c5c b9bd
00000340: 4b65 57be e7e9 23be 45c7 5bbe a77e 61be
00000350: 498d 8bbd e72b 233e d4fd 903e b282 7b3e
00000360: da4e 273e 17fb 0e3e 0ba2 163e a102 723d
00000370: ad72 943d f8bf 5f3d d7db 143d c644 99bc
00000380: 0b9e a03c 17b2 1ebd 2bfc c03c f25c 03bd
00000390: 09f2 133b bcdd 2dbd 0730 82bd af42 fcbd
000003a0: c755 28bd 8dc1 d93d 14e7 41bd 2b02 b3bd
000003b0: be20 0fbe a4a7 f7bd 14ce aebd b5a0 38bd
000003c0: 2f72 683d 871f 243e 7a23 023e d1a3 943d
000003d0: 7c58 83bb 1236 78bc 0eed 783d 1b08 053e
000003e0: 19c9 3d3b 5338 393d 43cb 7abc 53d5 f4bc
000003f0: 909a 3e3c eae6 bbbb b887 64bb 1ace 49bd

hidden_layer.bias f4 [128]
0.038095035 0.023336569 0.015557752 0.014060979 -0.001085805 -0.016640827 -0.023060031 0.015275162
0.027403839 -0.011763359 -0.0061619473 -0.021808228 -0.016229047 0.008252683 0.020381926 -0.017118227
0.011479516 -0.0006797085 -0.040927798 0.010085349 0.004907411 0.015396857 -0.0067998287 0.009946141
-0.028816886 -0.055771828 -0.0063078604 -0.014568137 -0.028515292 -0.013228995 0.026644843 0.010657399
-0.024124464 -0.009249074 -0.0037280263 -0.028076254 0.022022782 -0.037694156 -0.06943491 0.000752718
-0.004816735 -0.017437521 -0.037702847 -0.015428354 0.020215861 -0.031432986 -0.020231117 -0.007324267
-0.034614153 0.00654016 0.008091406 0.0064635496 -0.015883297 -0.031502973 -0.024689732 -0.012442977
-0.026992079 0.032625493 0.020813446 -0.039192315 -0.035750344 0.019043092 0.0212575 -0.01923269
0.010896796 -0.015590262 0.0035768028 0.0069512674 -0.015683806 -0.02456695 0.027803784 -6.952444e-05
0.025722157 0.012820062 0.023127615 0.03913218 -0.039099924 0.022527067 -0.02631557 0.0017712762
0.02161034 0.002171269 0.00030179427 0.021957045 0.012165582 0.025612207 0.0606408 -0.021214392
0.023652 -0.04162239 -0.021563 0.0253558 0.0146473395 0.049454782 0.00062960346 -0.058695797
-0.021434298 -0.008176758 0.0067306794 0.0066836146 -0.045228764 -0.049260788 -0.0339818 -0.039677788
-0.03301368 0.010631227 -0.018252673 -0.028399551 -0.022310771 0.0075743506 0.0084932 0.012297728
-0.008706171 -0.016440637 0.032702576 0.0043982826 -0.010376685 0.014855921 -0.032432508 0.00015246373
0.005328555 0.028873453 -0.030620206 -0.02474396 0.0037590822 0.026499448 -0.0009931491 -0.007517018
00000000: 8a09 1c3d 552c bf3c f1e5 7e3c 0560 663c
00000010: 9251 8eba 5852 88bc 64e8 bcbc ac44 7a3c
00000020: 047e e03c 1bbb 40bc 29ea c9bb 2ba7 b2bc
00000030: c7f2 84bc 4336 073c fff7 a63c 863b 8cbc
00000040: 9414 3c3c 772e 32ba e8a3 27bd 053d 253c
00000050: 59ce a03b 1943 7c3c 19d1 debb 24f5 223c
00000060: 6411 ecbc 0071 64bd 2bb2 cebb 32af 6ebc
00000070: e798 e9bc 6dbe 58bc 4946 da3c 5f9c 2e3c
00000080: aba0 c5bc 6e89 17bc e751 74bb 2c00 e6bc
00000090: 1f69 b43c 3065 1abd e433 8ebd 0d52 453a
000000a0: b4d5 9dbb 22d9 8ebc 4d6e 1abd 35c7 7cbc
000000b0: bc9b a53c e0bf 00bd babb a5bc 6800 f0bb
000000c0: 92c7 0dbd d74e d63b d191 043c 2fcc d33b
000000d0: b01d 82bc 4309 01bd 1f42 cabc a1dd 4bbc
000000e0: 7e1e ddbc 4fa2 053d f680 aa3c 1f88 20bd
000000f0: f46e 12bd 4200 9c3c 3524 ae3c e08d 9dbc
00000100: 7a88 323c 4c6e 7fbc cb68 6a3b 75c7 e33b
00000110: 537b 80bc a140 c9bc c3c4 e33c a6cd 91b8
00000120: 46b7 d23c 3d0b 523c 2076 bd3c 1149 203d
00000130: 3e27 20bd af8a b83c c093 d7bc 2b2a e83a
00000140: 2b08 b13c d94b 0e3b 243a 9e39 43df b33c
00000150: 2652 473c b1d0 d13c 7d62 783d cec9 adbc
00000160: d7c1 c13c 3d7c 2abd e3a4 b0bc f7b6 cf3c
00000170: 65fb 6f3c 1991 4a3d f90b 253a 016b 70bd
00000180: fb96 afbc cff7 05bc 088d dc3b 3902 db3b
00000190: cc41 39bd aec5 49bd 8030 0bbd 2d85 22bd
000001a0: 5a39 07bd 992e 2e3c a186 95bc 2da6 e8bc
000001b0: 14c5 b6bc 4232 f83b 1027 0b3c 697c 493c
000001c0: 54a4 0ebc 84ae 86bc 23f3 053d 781f 903b
000001d0: f902 2abc 4066 733c f3d7 04bd acde 1f39
000001e0: 299b ae3b 0588 ec3c 3ad7 fabc d8b3 cabc
000001f0: ef5a 763b 5f15 d93c 8e2c 82ba 5151 f6bb

hidden_layer2.weight f4 [128, 128]
-0.0011866705 1.3352206e-05 -0.23106712 -0.090733394 -0.025718942 0.054850467 -0.022596022 -0.011897254
0.030669589 0.04491278 0.04331613 -0.03980526 -0.2077587 -0.021853626 0.041858733 0.13108388
0.1303795 0.12724985 0.06929429 -0.0094131 0.066114195 0.12890534 -0.12466522 0.07833605
-0.08220095 -0.056325417 0.10389307 0.07731475 -0.15348665 -0.075758666 -0.0051646447 -0.06402499
0.0053800414 0.003017246 -0.14901988 0.008598033 0.10041927 0.02080074 0.13278961 -0.09753253
0.017131202 -0.04824212 0.051098235 -0.10121521 0.1152968 -0.15244739 -0.0071222414 0.07279681
-0.08217647 0.1073436 -0.12600094 -0.26219827 0.14949603 -0.12840508 0.033667784 0.032785047
0.040386826 0.042046364 0.119983695 -0.20748489 -0.16760284 0.0030037486 0.02285156 0.11816511
-0.16005239 -0.10917721 0.037189186 0.039014503 0.316574 -0.36636916 0.14595531 0.04872212
-0.2585764 0.015300654 -0.058625046 -0.059759002 0.05329915 -0.008739308 0.10683811 -0.08258308
0.15261856 -0.17916614 0.13648863 0.12922403 -0.18686682 -0.024067847 0.17297855 0.044788737
0.22273973 0.25711432 0.13916859 -0.011239254 -0.19379532 0.19748162 -0.048479397 -0.10069189
0.09080516 0.1357463 0.10794067 0.031672325 -0.09607453 0.15242226 0.12521818 -0.057090916
-0.1724967 -0.04161449 -0.16381568 -0.115079604 0.27326548 -0.22530486 -0.016228314 0.20312883
-0.009719135 -0.21774898 -0.15920936 -0.09230113 -0.03532984 -0.13826627 0.08367653 -0.021989297
0.005923119 0.04568544 -0.05778298 0.20653947 0.0584811 -0.009163364 0.047313586 0.116886154
-0.022849502 -0.12270708 -0.23620442 0.118726015 -0.06384027 0.05250891 -0.108305894 -0.08782924
-0.04239507 -0.09870451 -0.10736392 0.13206644 -0.017812729 -0.111108415 -0.032196 -0.0038067664
0.11819889 0.04436627 0.064595096 0.02041498 0.12765254 -0.17502236 -0.09227807 -0.0067017023
0.07036094 -0.054940544 -0.17561899 0.053141017 -0.24913399 0.097318746 -0.23260342 0.34419802
-0.08247878 0.20561273 -0.098705135 -0.15051086 0.043226335 0.3108175 0.0858069 -0.09594378
0.032045197 -0.15570779 -0.26464415 -0.2605377 0.2316141 -0.059833366 0.030490905 0.104828365
-0.07247203 0.19501106 0.099371865 0.119634226 -0.0014420018 0.12921786 -0.09543618 0.05589914
0.11942074 0.08468939 0.075420216 -0.033418223 0.024972687 0.10923859 -0.00745513 0.09291616
-0.2404134 -0.22367111 0.26077008 -0.020777646 0.0704289 -0.16545686 -0.2638221 0.06485354
0.074782744 0.090074375 -0.24223024 0.09307703 0.033509895 -0.016885795 -0.04153225 0.0054914937
0.20145205 0.05054338 0.059974637 0.049596064 -0.06429921 0.3526604 0.020194484 -0.036216237
0.09303546 0.0666285 0.038229976 0.06951336 -0.094189875 -0.01439846 -0.009307431 -0.010634538
0.11326151 0.050176144 0.13657293 0.03423804 -0.013769776 -0.052254025 -0.0003589757 0.052231424
-0.064163096 0.03748887 -0.0796468 -0.13268344 0.02419662 -0.04654373 -0.076698735 0.10466765
-0.013516287 -0.0049439333 -0.07107234 0.02809081 -0.060601424 -0.017792126 -0.009986622 0.051340774
-0.019926857 -0.1732096 -0.0564073 0.063590184 -0.05806955 -0.101000555 0.00076174067 -0.28270346
00000000: 0e8a 9bba 4a03 6037 dc9c 6cbe 6ed2 b9bd
00000010: 88b0 d2bc e2aa 603d 4b1b b9bc b3ec 42bc
00000020: ca3e fb3c 77f6 373d 416c 313d d70a 23bd
00000030: b2be 54be 6006 b3bc 1074 2b3d da3a 063e
00000040: 3482 053e c94d 023e 2aea 8d3d 6739 1abc
00000050: e166 873d c3ff 033e 7b50 ffbd a76e a03d
00000060: f958 a8bd 7bb5 66bd e4c5 d43d 3257 9e3d
00000070: 9b2b 1dbe 5c27 9bbd 2e3c a9bb 891f 83bd
00000080: 0f4b b03b fdbc 453b ab98 18be c4de 0c3c
00000090: 9ea8 cd3d 5066 aa3c 00fa 073e 23bf c7bd
000000a0: bc56 8c3c 8799 45bd 624c 513d ec49 cfbd
000000b0: bb20 ec3d 2b1b 1cbe b161 e9bb 7e16 953d
000000c0: 234c a8bd f6d6 db3d 6406 01be da3e 86be
000000d0: 7d15 193e 9f7c 03be 3be7 093d 9d49 063d
000000e0: a86c 253d cf38 2c3d 03ba f53d eb76 54be
000000f0: 14a0 2bbe 8ada 443b 3233 bb3c 8d00 f23d
00000100: c6e4 23be 4d98 dfbd b053 183d accd 1f3d
00000110: fd15 a23e bd94 bbbe 4f75 153e d890 473d
00000120: 2064 84be 98af 7a3c d120 70bd dbc5 74bd
00000130: 3650 5a3d 512f 0fbc f0cd da3d 5121 a9bd
00000140: 0a48 1c3e 5477 37be adc3 0b3e 4e53 043e
00000150: 045a 3fbe ef29 c5bc 4a21 313e 6574 373d
00000160: e215 643e 7da4 833e 3682 0e3e d924 38bc
00000170: 4872 46be 9f38 4a3e 5592 46bd 8d37 cebd
00000180: 0ef8 b93d 1401 0b3e ff0f dd3d d7ba 013d
00000190: b9c2 c4bd 9514 1c3e 3239 003e 2ad8 69bd
000001a0: faa2 30be f573 2abd 4cbf 27be dbae ebbd
000001b0: 74e9 8b3e 51b6 66be 3ef1 84bc 0101 503e
000001c0: 023d 1fbc 97f9 5ebe c707 23be 6008 bdbd
000001d0: 06b6 10bd ac95 0dbe 9a5e ab3d e622 b4bc
000001e0: b916 c23b a820 3b3d d9ad 6cbd 157f 533e
000001f0: e189 6f3d ef21 16bc e4cb 413d 0262 ef3d
00000200: e12e bbbc d94d fbbd 92df 71be a026 f33d
00000210: b0be 82bd 9513 573d 7bcf ddbd d1df b3bd
00000220: 74a6 2dbd 9725 cabd 9de1 dbbd 6d3c 073e
00000230: 00ec 91bc cf8c e3bd f4df 03bd f17a 79bb
00000240: 4212 f23d 68b9 353d 6f4a 843d 513d a73c
00000250: 59b7 023e 1039 33be 49fc bcbd f499 dbbb
00000260: 6619 903d 5609 61bd 77d5 33be 65aa 593d
00000270: fb1c 7fbe 0d4f c73d 972f 6ebe b93a b03e
00000280: a2ea a8bd 258c 523e eb25 cabd 851f 1abe
00000290: 190e 313d 7923 9f3e 87bb af3d 2c7e c4bd
000002a0: d341 033d dd71 1fbe 707f 87be 3365 85be
000002b0: 3f2c 6d3e d513 75bd 10c8 f93c 41b0 d63d
000002c0: 376c 94bd fbb0 473e 7a83 cb3d ca02 f53d
000002d0: 8d01 bdba b051 043e 0b74 c3bd 7ff6 643d
000002e0: dc92 f43d a271 ad3d ea75 9a3d 8ce1 08bd
000002f0: 8593 cc3c 7bb8 df3d 2a4a f4bb d44a be3d
00000300: ee2e 76be 0a0a 65be a883 853e e235 aabc
00000310: 073d 903d 866d 29be b113 87be efd1 843d
00000320: b227 993d ea78 b83d 340b 78be 2b9f be3d
00000330: ac41 093d 1454 8abc b81d 2abd fdf1 b33b
00000340: 7249 4e3e 9306 4f3d f7a7 753d 3e25 4b3d
00000350: 4eaf 83bd e78f b43e e76e a53c 7a57 14bd
00000360: 6089 be3d 8674 883d 0997 1c3d 055d 8e3d
00000370: 9fe6 c0bd 85e7 6bbc 327e 18bc 7c3c 2ebc
00000380: a7f5 e73d 8085 4d3d c6d9 0b3e 303d 0c3d
00000390: a09a 61bc 5108 56bd e734 bcb9 9ef0 553d
000003a0: f167 83bd ee8d 193d dd1d a3bd 2bde 07be
000003b0: fd37 c63c a3a4 3ebd 3a14 9dbd fe5b d63d
000003c0: 6b73 5dbc b800 a2bb 608e 91bd b31e e63c
000003d0: 3339 78bd cbc0 91bc ee9e 23bc b44a 523d
000003e0: a63d a3bc db5d 31be 570b 67bd 923b 823d
000003f0: 56da 6dbd 61d9 cebd 8daf 473a 82be 90be

hidden_layer2.bias f4 [128]
0.06952237 -0.012588675 0.06485413 0.13076709 -0.10073782 0.02164962 0.045761656 0.034343854
0.21845584 -0.08038926 -0.063340716 0.005697228 0.217348 -0.17379959 -0.119768165 -0.094450876
-0.120960064 0.030625299 0.009883078 -0.06137887 -0.046628855 -0.013843188 0.04506466 0.06695492
0.080963194 -0.081018 0.17041299 0.1134775 0.053775266 -0.10291723 0.05033868 -0.047903847
0.015883641 0.11922877 0.02582014 0.15533347 -0.034415446 -0.10817191 -0.09826888 0.056771606
0.050573055 -0.122823104 -0.024203662 0.007608892 0.011435327 0.103117555 -0.004553305 0.05561734
0.053771123 -0.07429454 -0.047374286 0.13993922 0.162195 0.09541311 -0.08982175 -0.0803319
-0.17935961 -0.049991895 -0.11584337 0.004118664 0.05939826 0.017233638 0.02546352 -0.023472639
-0.10242131 -0.020779643 -0.093906365 -0.08926797 -0.00936809 -0.047677957 -0.06527224 0.15818416
-0.034787312 -0.062047917 0.114046365 -0.07127419 -0.15961531 -0.07682248 0.008974199 0.021653999
-0.0052917665 0.15989481 0.018639179 -0.07040244 -0.099751756 -0.006207157 0.12648238 0.11430571
0.05706156 -0.0820723 0.04317518 0.1800149 0.012899214 0.048692077 0.036499064 -0.06335277
-0.018317906 0.0843055 -0.017871851 -0.021809772 -0.04684198 0.0010757335 0.03986969 -0.057634287
-0.0027926816 -0.10508614 -0.01485939 -0.105889216 -0.071481206 0.008306097 0.13931333 0.0030818167
-0.14176197 -0.017898198 -0.11476428 -0.06365791 -0.062279593 -0.12597348 0.19966236 0.022642346
0.086846456 -0.015041149 -0.012259971 0.0026668932 0.007266404 0.04496751 -0.021294873 -0.07100328
00000000: bf61 8e3d bb40 4ebc 3ed2 843d cfe7 053e
00000010: a14f cebd 8b5a b13c 9370 3b3d 24ac 0c3d
00000020: e3b2 5f3e 20a3 a4bd c7b8 81bd d0af ba3b
00000030: 7990 5e3e 85f8 31be 0349 f5bd 766f c1bd
00000040: e9b9 f7bd e8e1 fa3c a2ec 213c 6968 7bbd
00000050: e6fd 3ebd 8ace 62bc b995 383d a91f 893d
00000060: 08d0 a53d c4ec a5bd be80 2e3e e466 e83d
00000070: 7443 5c3d 45c6 d2bd ef2f 4e3d d336 44bd
00000080: 691e 823c 372e f43d c284 d33c bd0f 1f3e
00000090: 36f7 0cbd 3c89 ddbd 3241 c9bd 5889 683d
000000a0: b125 4f3d ae8a fbbd c246 c6bc 0354 f93b
000000b0: 3d5b 3b3c 4c2f d33d e433 95bb 02cf 633d
000000c0: 1c3f 5c3d bc27 98bd 8a0b 42bd 3a4c 0f3e
000000d0: 7216 263e f367 c33d 77f4 b7bd 0d85 a4bd
000000e0: 0caa 37be 4dc4 4cbd 4a3f edbd dcf5 863b
000000f0: 974b 733d 8f2d 8d3c df98 d03c b149 c0bc
00000100: 44c2 d1bd 123a aabc fb51 c0bd 20d2 b6bd
00000110: 9e7c 19bc f649 43bd 74ad 85bd 07fb 213e
00000120: 247d 0ebd f525 7ebd 2491 e93d 34f8 91bd
00000130: 3272 23be 1b55 9dbd 8508 133c ba63 b13c
00000140: 8e66 adbb 77bb 233e 31b1 983c 282f 90bd
00000150: a64a ccbd 6865 cbbb 9984 013e 1d19 ea3d
00000160: 62b9 693d 8615 a8bd 75d8 303d d355 383e
00000170: 3a57 533c 5871 473d 0b80 153d 19bf 81bd
00000180: 6f0f 96bc 5da8 ac3d fd67 92bc 68aa b2bc
00000190: 60dd 3fbd a0ff 8c3a 664e 233d ee11 6cbd
000001a0: 6c05 37bb 6737 d7bd cd74 73bc 72dc d8bd
000001b0: bd64 92bd 4c16 083c 27a8 0e3e 4ef8 493b
000001c0: 0d2a 11be 3e9f 92bc 8909 ebbd 145f 82bd
000001d0: e318 7fbd 31ff 00be 4a74 4c3e 717c b93c
000001e0: 8edc b13d 276f 76bc 0cde 48bc 0bc7 2e3b
000001f0: 041b ee3b da2f 383d 9672 aebc 2b6a 91bd

output_layer.weight f4 [10, 128]
-0.11325284 -0.06650144 0.004193416 -0.11198831 -0.016256297 -0.14143883 0.016828872 0.008511766
0.07735701 -0.10402928 -0.017546808 0.006344256 -0.41007993 -0.11659471 -0.05109888 0.14371493
-0.30074576 -0.044934906 0.16296954 -0.04550048 -0.09625708 0.08940896 0.027869742 0.06769218
0.17177907 -0.19533539 -0.1762027 0.06482376 0.0714497 0.16452213 0.1088616 -0.09367269
-0.027198795 -0.08320091 -0.09578827 -0.014832895 -0.28013304 0.11918772 -0.21177927 0.06450312
-0.24962726 -0.19133669 -0.0728469 -0.087059 0.2322847 -0.32117644 -0.15920329 -0.040093068
-0.106089704 -0.03687561 0.040543966 -0.1626087 0.053993158 0.223549 0.042446233 0.071017906
0.16514009 -0.28825292 -0.03368764 0.02527739 -0.058585312 -0.042248804 0.19752228 -0.14708951
-0.24196056 0.17150277 0.10035628 -0.3152353 -0.30053374 0.07607954 -0.09907665 -0.19382615
0.2059491 -0.17191267 -0.07567667 -0.009749599 -0.03218036 0.066247 -0.047256134 0.093368925
0.1263926 0.1578524 -0.0017222086 0.13551922 0.0658224 -0.028950281 0.12749837 0.053064287
-0.036379702 -0.094483055 0.106759 0.16315308 0.03839313 -0.2384221 -0.27068105 0.03559682
-0.23910013 -0.055636298 -0.10962699 0.0043715234 0.10488913 -0.20326735 0.17178693 -0.1738053
-0.013413453 0.07688442 -0.088948004 -0.0509441 -0.06730835 -0.017063942 0.082606405 -0.021161785
-0.18187258 -0.19885667 0.027737351 0.068033434 -0.09546668 -0.2526852 0.1133279 -0.18701673
-0.2001546 -0.038714945 0.025626108 0.10421762 -0.27990246 -0.116930045 0.12098654 -0.06534366
0.08683081 -0.19764063 -0.03614853 0.13341697 0.17705616 -0.25561625 -0.29215658 -0.26026434
-0.047853157 -0.21105044 -0.08991626 0.1338579 0.15768401 0.1577757 0.0438359 0.011017506
0.12702571 0.12455685 -0.24080834 0.06360799 0.015599562 0.05685701 -0.01727489 -0.18644014
-0.22553822 -0.050851375 -0.114538066 0.13012056 0.05475905 -0.09004222 -0.10673942 0.02876405
-0.0838542 0.10761787 -0.11633939 0.14045925 -0.09307857 0.0123895295 0.06407919 0.041644916
0.08171937 0.1514754 -0.17346121 -0.16495718 0.004764464 0.066651374 -0.3294976 0.1194986
0.08087879 -0.07168974 -0.08043027 -0.26503792 -0.17022115 -0.14783533 -0.06525071 -0.014426476
-0.28496414 0.081926614 -0.046861187 0.00032530844 0.004099338 -0.00062251696 0.14511351 -0.07564541
0.045866683 -0.26637945 -0.031055255 0.020921633 0.124985345 0.04783545 0.21254522 -0.26261547
-0.29902846 -0.0063863136 -0.28028122 -0.061278135 0.058675043 -0.03739617 0.1417927 0.020455219
-0.11206922 0.036344297 0.03938123 -0.19428816 -0.3401047 -0.34100428 -0.013067645 -0.14789371
0.09441042 0.03897104 0.06648404 -0.088241264 -0.013634436 -0.119324274 0.041201025 -0.1084914
0.09806594 -0.273172 -0.025891697 -0.0125875315 -0.33220938 -0.028352618 -0.11203988 0.1633694
0.057595074 -0.025049789 0.03764966 -0.20887029 -0.10661719 0.061536204 -0.08458539 -0.023832705
0.037548866 0.07537486 -0.15705307 -0.14255238 -0.02083928 0.17470676 -0.13271223 0.018236319
0.11263306 -0.04342391 0.025592292 -0.29859337 0.047322106 -0.27397203 -0.15030783 0.08038486
00000000: 1bf1 e7bd e831 88bd ec68 893b 215a e5bd
00000010: ed2b 85bc 57d5 10be b4dc 893c ef74 0b3c
00000020: 5a6d 9e3d 4e0d d5bd 53be 8fbc 7ae3 cf3b
00000030: fff5 d1be 35c9 eebd 0f4d 51bd 022a 133e
00000040: 59fb 99be aa0d 38bd 7de1 263e b65e 3abd
00000050: 6f22 c5bd 0b1c b73d 164f e43c 33a2 8a3d
00000060: dae6 2f3e 0006 48be 7b6e 34be 52c2 843d
00000070: 3854 923d 7d78 283e d5f2 de3d 78d7 bfbd
00000080: 02d0 debc 3d65 aabd a42c c4bd ac05 73bc
00000090: 996d 8fbe b118 f43d aadc 58be 361a 843d
000000a0: 4a9e 7fbe c4ed 43be c130 95bd fd4b b2bd
000000b0: 0adc 6d3e 3d71 a4be 3006 23be a138 24bd
000000c0: 8f45 d9bd e10a 17bd 6e11 263d e582 26be
000000d0: ee27 5d3d 07ea 643e 1adc 2d3d d671 913d
000000e0: 7c1a 293e e395 93be 0dfc 09bd 8712 cf3c
000000f0: 27f7 6fbd 150d 2dbd 4843 4a3e a29e 16be
00000100: 82c4 77be 6c9e 2f3e 9887 cd3d 8566 a1be
00000110: 8fdf 99be 97cf 9b3d b3e8 cabd 5d7a 46be
00000120: 52e4 523e e009 30be 5ffc 9abd c8bc 1fbc
00000130: 8ecf 03bd 82ac 873d a68f 41bd 3538 bf3d
00000140: 106d 013e 0fa4 213e bbbb e1ba 8dc5 0a3e
00000150: e5cd 863d 2429 edbc ef8e 023e f059 593d
00000160: e202 15bd 5580 c1bd 76a4 da3d 9a11 273e
00000170: 1d42 1d3d ec24 74be b596 8abe f9cd 113d
00000180: aad6 74be e3e2 63bd 1e84 e0bd ff3e 8f3b
00000190: 1dd0 d63d 5125 50be eae8 2f3e 04fa 31be
000001a0: 19c4 5bbc 9475 9d3d 5f2a b6bd c3aa 50bd
000001b0: f6d8 89bd aec9 8bbc 8c2d a93d 7b5b adbc
000001c0: ce3c 3abe 15a1 4bbe 7139 e33c 1d55 8b3d
000001d0: 0984 c3bd f45f 81be 7518 e83d 5081 3fbe
000001e0: 54f5 4cbe 9093 1ebd d8ed d13c 0c70 d53d
000001f0: 604f 8fbe 0579 efbd cbc7 f73d e6d2 85bd
00000200: 5ad4 b13d 4e62 4abe 7b10 14bd 759e 083e
00000210: 364e 353e 22e0 82be 8c95 95be 5e41 85be
00000220: ac01 44bd 9b1d 58be 0426 b8bd 0c12 093e
00000230: eb77 213e f48f 213e 468d 333d c582 343c
00000240: 0713 023e a917 ff3d 7696 76be e844 823d
00000250: 4e95 7f3c e5e2 683d 1284 8dbc 2aea 3ebe
00000260: 7ef3 66be 8849 50bd ef92 eabd 533e 053e
00000270: 074b 603d 0e68 b8bd 329a dabd 96a2 eb3c
00000280: c0bb abbd c266 dc3d 5943 eebd 8dd4 0f3e
00000290: fa9f bebd 74fd 4a3c f33b 833d dc93 2a3d
000002a0: 7c5c a73d 5e1c 1b3e d19f 31be 89ea 28be
000002b0: 391f 9c3b 8480 883d e9b3 a8be afbb f43d
000002c0: c7a3 a53d 12d2 92bd a0b8 a4bd 0db3 87be
000002d0: 744e 2ebe 2562 17be 2aa2 85bd 075d 6cbc
000002e0: d2e6 91be 24c9 a73d 84f1 3fbd 298e aa39
000002f0: bd53 863b 6830 23ba a398 143e fbeb 9abd
00000300: b4de 3b3d e362 88be 9767 febc d863 ab3c
00000310: 51f8 ff3d 1bef 433d 74a5 593e 8975 86be
00000320: 421a 99be 4844 d1bb 0581 8fbe c8fe 7abd
00000330: 3e55 703d ba2c 19bd 1b32 113e b491 a73c
00000340: 8c84 e5bd c2dd 143d 364e 213d 7af3 46be
00000350: 3422 aebe 1d98 aebe ad19 56bc 7371 17be
00000360: 405a c13d 19a0 1f3d c928 883d d6b7 b4bd
00000370: f862 5fbc 4960 f4bd 68c2 283d bd30 debd
00000380: ccd6 c83d 33dd 8bbe d31a d4bc ef3b 4ebc
00000390: 5917 aabe c043 e8bc 2a75 e5bd 4f4a 273e
000003a0: d0e8 6b3d 3735 cdbc 8836 1a3d 18e2 55be
000003b0: 1d5a dabd 630d 7c3d 1b3b adbd ce3c c3bc
000003c0: d7cc 193d 225e 9a3d 85d2 20be 40f9 11be
000003d0: 23b7 aabc 54e6 323e b7e5 07be 5564 953c
000003e0: 29ac e63d 45dd 31bd eda6 d13c 3be1 98be
000003f0: d3d4 413d 1046 8cbe 4cea 19be d1a0 a43d

output_layer.bias f4 [10]
-0.01869991 0.023825329 -0.09719966 -0.00769306 0.03252139 0.024965577 -0.05740091 -0.06991799
0.26981458 0.13859338
00000000: 8e30 99bc 562d c33c 9e10 c7bd 1116 fcbb
00000010: 2635 053d 9c84 cc3c 371d 6bbd 2a31 8fbd
00000020: 2325 8a3e 6ceb 0d3e
