DeepLearning/nn_models/trained_models/neural_network.pth (torch, 409288 bytes, 4 tensors)

hidden_layer.weight f4 [128, 784]
00000000: 9f83 da3c a4e8 35bc 717e 79bb 30a2 1a3d
00000010: 913a 683b 0ea8 f63b 86b2 bd3c 140a 0cbc
00000020: 8cec 163d 7035 cbbc 0c43 4a3c 601a 03bb
00000030: 94f1 92bc b420 9dbc 2b59 b3bc 11e8 e43c
00000040: e41a f53c 76dc 763c c917 a1bc 1663 b33c
00000050: 5e0a c0bc 396a 93bc bd7d 9b3b 5a5b ecbc
00000060: d499 86bc 34d1 293c b4f6 bbbc 815b 8c3a
00000070: 149b e1bb 30a3 a0bc 4f9f 1f3c 3b6c 81bc
00000080: 6a68 8d3c b85e e23c 3484 2e3c 2c7a 543c
00000090: 1bf0 053c 85d6 a93b 1167 eb3c 0ee0 963b
000000a0: 045e a03c bfd3 f53c 722e 70bc 1696 643c
000000b0: b3c6 203c e01a 95bc 6092 56bc a27f 243c
000000c0: 1995 823c 5c22 0b3c 3a61 503c 144a 4d3c
000000d0: c17d a53c 94ae 9f3c 71d8 b43c cba0 903c
000000e0: 148e 69bc 6aba 233c 2a27 123c af94 d53c
000000f0: e8ad 5dbc ccb8 07bc a490 95ba ed03 86bc
00000100: 9e76 503c 590e 573b bdc2 d23c 80e8 fd3a
00000110: d5d6 803c ca5e cf39 379d cdbc 2cae 7b3c
00000120: 0825 a93c fb7f 2a3d 014d bd3c c8b6 fe3c
00000130: 2247 463c 1515 5d3a 3420 253d dc02 80b8
00000140: 1cd6 0d3c b830 e33c d18a 0f3a 2b12 103d
00000150: 5411 503c 317a ce3c 0d0e af3c 68ee 02bc
00000160: 92ac 4ebc eb67 293d 7b7c 91bc 8da4 a13c
00000170: 99c2 b3bc eea0 073d fa8a b63c 061d 40bc
00000180: 10d4 d0bc acf8 e238 34e8 e6bc 2428 2ebc
00000190: 6629 c5bb 0d09 c23c 4870 2fbc fd16 ddbc
000001a0: 9148 ce3c 8b85 88bc 6147 113c 694a 233d
000001b0: b15c c53c 6751 283d 0b90 a1bc a84b d93c
000001c0: e942 233d 90cc 04bc a2bc 3fbc eb05 f43c
000001d0: cee8 c8bb 33da bd3b 57f7 8c3c a35e 093d
000001e0: ee09 38bc f676 5e3c da35 4b3c ff2a b93c
000001f0: 8d49 14bc cef6 d2bb b406 003d 6233 9a3c
00000200: f473 64bc 4582 623c 372d 9cbc b063 47bc
00000210: 7509 f7bb a0c9 8e3b 764d 873c 158f d93c
00000220: 2812 003d 6bbc 8d3b df03 b1bb c29d 99bc
00000230: 1b54 f0bb ae00 b4bc 9732 7abc e8ff f139
00000240: bb04 13b9 05c6 0d3d 83d7 06ba 4839 603b
00000250: 73d0 073d be0c c9bc 0c78 0cbc 8406 8ebc
00000260: ce5e 10bc 0aa4 98bc d749 bebb 7103 4b3c
00000270: 43aa 303c fafb 273c 8b7c 273d ac10 253d
00000280: fb1f ba3c 94a1 2939 1142 e6bb 1ff3 c83c
00000290: 6df2 c73c 01d5 ce3c a642 cd3a 2f47 a63c
000002a0: 6e81 173d dda4 d83c d4b7 133d acd6 1fbc
000002b0: 1d40 013d d82d b83c 4d4e 2a3d b4d9 f33c
000002c0: 7d41 313b 94bb e93c fca0 a53b dbda 88bc
000002d0: ed9e 343c 6598 02bb dc88 61bc 4fdd 76bc
000002e0: 9fea 0c3d 5784 b83c 02a6 1f3c 9898 2a3d
000002f0: 9b22 ab3c 1d0f 98bc 1c31 a9bc 586a 98bc
00000300: 8670 5bbb 79fd b8bc cb61 233d 4aa0 d1bc
00000310: 1793 b63b 0efa d23b e2e6 b0bc 9f19 c13c
00000320: 9f31 f3bc 506f 99bc e3fc 8d3c 10c1 483c
00000330: a228 86bb 9d45 b63c b851 edbb 9a45 a2bc
00000340: a11d ea3c ef9e 543b e677 f2bc 3f56 023c
00000350: c965 bdbc 13c4 4c3c f03f 43bc 53d3 5fb9
00000360: a121 0d3d 9ead c03c 9008 63bb 4763 9cbc
00000370: 7099 92bc 04a4 bdbc 4b8b 9fbc ab12 eabc
00000380: c73c 96bc 168e 7fbc 81cc 113c ae4f 283d
00000390: 0e2b c9bb de14 763c b878 1d3d d734 d43b
000003a0: 21d7 993b 0a13 1f3c 1ecb c33c ebf3 92bc
000003b0: ee93 20bc 571b e13b 382d b33c 257a 083d
000003c0: a378 acbc f077 babb 1183 753c e64b 9dbc
000003d0: 850c 533c ac0a 9bbc 067a 253d 0f9c 6abb
000003e0: 4913 74bc 8606 4cbb a0da beba 4ada 0e3c
000003f0: 5a95 123d 9403 fbbb 8958 093d a0a7 bcba
0.02667409 -0.011102829 -0.003806975 0.03775233 0.00354353 0.007527358 0.023156416 -0.008547325
0.036846682 -0.024805754 0.012345087 -0.0020004734 -0.017937459 -0.019180633 -0.021893105 0.02794269
0.029920049 0.01506721 -0.019664662 0.021897834 -0.023442443 -0.017994987 0.004745214 -0.028852154
-0.016430773 0.010364819 -0.022944786 0.0010708423 -0.006884942 -0.019609064 0.009742572 -0.015798679
0.017261703 0.027633056 0.010651637 0.012968581 0.008174921 0.0051830434 0.02873567 0.004604346
0.01957608 0.030008195 -0.014659511 0.013951799 0.009812999 -0.018201292 -0.013096422 0.010040196
0.015940236 0.008492079 0.012718493 0.012529869 0.020201566 0.019492425 0.022075864 0.017654797
-0.0142550655 0.009993175 0.00892047 0.026071874 -0.013530232 -0.008283805 -0.0011410904 -0.016359294
0.012723593 0.0032814948 0.025727624 0.0019371659 0.01572744 0.0003955274 -0.02509938 0.01536135
0.02064754 0.041625958 0.023108007 0.031093016 0.01210192 0.00084336224 0.040313914 -6.104048e-05
0.008657005 0.027733192 0.00054757023 0.035173576 0.012699444 0.02520475 0.021369005 -0.007991411
-0.012614386 0.04135887 -0.017759552 0.019731784 -0.021943377 0.03311246 0.022283066 -0.01172567
-0.025491744 0.000108228385 -0.028186895 -0.010629687 -0.006016898 0.023685956 -0.010707922 -0.0269885
0.025181087 -0.01666524 0.008867116 0.039865885 0.02409205 0.041093256 -0.019722005 0.026525334
0.039858732 -0.008105412 -0.011702688 0.029787978 -0.006131268 0.0057938336 0.017207785 0.03353752
-0.011232836 0.013578167 0.012402976 0.02260351 -0.009050739 -0.006438113 0.031256393 0.01882333
-0.013943661 0.013825004 -0.019064529 -0.012169763 -0.007538969 0.0043575317 0.016516428 0.026557485
0.031267315 0.0043254397 -0.005402073 -0.018751983 -0.007334245 -0.02197298 -0.015270851 0.00046157767
-0.00014020775 0.034612674 -0.0005143808 0.003421383 0.033157777 -0.024542209 -0.008573543 -0.017337091
-0.008811666 -0.018632907 -0.0058071422 0.012390957 0.010782781 0.010252947 0.040890258 0.040299103
0.022720328 0.00016177288 -0.0070269187 0.024529992 0.02440759 0.025248053 0.0015660122 0.020297615
0.03698867 0.0264458 0.036063984 -0.009755772 0.031555284 0.022482798 0.04157858 0.029766895
0.002704709 0.028531827 0.005054591 -0.01670592 0.011024219 -0.001992726 -0.01376554 -0.0150674125
0.03440344 0.022524042 0.009744169 0.04164943 0.020890525 -0.018561894 -0.0206533 -0.018605396
-0.0033483817 -0.022581803 0.039888185 -0.025589127 0.0055717337 0.0064385002 -0.021594469 0.023571787
-0.029686747 -0.018729836 0.0173325 0.012253061 -0.0040941993 0.022249991 -0.0072424076 -0.01980858
0.028578581 0.0032443365 -0.029598188 0.007955133 -0.023119824 0.01249792 -0.011917099 -0.00021345662
0.0344559 0.023520287 -0.0034642555 -0.019090308 -0.01789543 -0.023149498 -0.0194756 -0.028573355
-0.018339528 -0.015597841 0.008898855 0.041091613 -0.0061391657 0.015019624 0.038445204 0.0064760256
0.004694835 0.009709129 0.023900565 -0.017938575 -0.009800894 0.0068697142 0.021872148 0.03331961
-0.021053618 -0.005690567 0.014984862 -0.01920123 0.012881403 -0.018925987 0.040399574 -0.0035798585
-0.014897176 -0.0031131818 -0.0014561005 0.008719036 0.035786964 -0.0076603387 0.0335317 -0.0014393218

hidden_layer.bias f4 [128]
00000000: 56be babc 2f41 833c 985a 323d bcb5 9bbc
00000010: 7414 9abb ae0c 153c d99c be3c 7fd0 1abb
00000020: 2092 80ba 5d5b 973b d647 9d3b 89f8 55bc
00000030: eb91 f83c 15c5 8cbc d27c 92bc 27ea 0dbc
00000040: 5e1b ddba 5e35 af3c e8b7 e7bb b29f 0abc
00000050: a667 11bd 7ee8 bd3b fba0 e73c cc47 3f39
00000060: 1dce c33c c4ba 42bc 4837 dabc 164a 133c
00000070: 60ad cc3c 6c8b c53c 694e 1a3a 5c49 e03b
00000080: 0953 f23c 832c a6bc a2c9 b73c 670c 9e3c
00000090: a7ae 0f3d f4e3 0a3d 062a 633b be7a 333a
000000a0: bf99 fbbc a4e1 ed3c 08ee 6f3c e775 233d
000000b0: 1f12 893a 16a9 393d 0457 17bc e400 1a3b
000000c0: 724f 5e3c 2c5b 1e3d 397e 22bb c3d5 b8bb
000000d0: 942e 45bd ebef a4bc 6b76 22bb d40b c2bc
000000e0: 1d8a c33c be7d 96bc 71c2 0dbb c46f 813c
000000f0: fbdf 21bc 677b 06bd 6ccc d73c 21e8 76bc
00000100: e20d 233c a677 aebc 922d 033c 57bb a638
00000110: ebf2 ce3c 068a 9e3c 9bd0 09bd 2552 a43c
00000120: ed0c cabc cf78 003c fe3d 03bc 8a60 b2bc
00000130: 91f4 8a3c 0fd9 433d 3cd4 443c 9a0c 7ebc
00000140: 5e73 4a3d a6ba b9ba 4516 febc 79b4 adbc
00000150: 251c 41bc a3b0 74bc 3224 9bbc b3ab 993c
00000160: 869c c63b 0dae 04bd 7d61 3bbc 31fc 9c3c
00000170: 805d d53c d835 12bd ca23 06bc bc5f 583c
00000180: e7b0 b53c ee44 a23c c876 bd3c f7ab 12bc
00000190: fc85 4ebc 2cde 58bc f250 03bd 60dd 78bc
000001a0: fd97 803c 5ccc 543c bab7 013c 359e 1dbd
000001b0: 8f07 9f3c eeba 8d3c 3e8f a03c 8b47 7f3c
000001c0: f6d4 b4b9 6aa8 93bb 4c32 5bbc a20f eebb
000001d0: 80b2 cabc 6778 2dbc 7fa4 f0bc 24d8 583c
000001e0: 585c a7bc dbce d7bc da5b 0cbd 252d 67bc
000001f0: deda a9bc de13 233b bab4 df3c 6edc 883c
-0.022795837 0.016022293 0.04354343 -0.019007556 -0.0047021452 0.009097261 0.02326815 -0.0023622809
-0.0009809174 0.0046190456 0.0047998233 -0.013059744 0.030343017 -0.01718382 -0.017881785 -0.008661783
-0.0016869118 0.021387752 -0.007071484 -0.008460926 -0.035499237 0.0057955375 0.028275004 0.00018241926
0.023901993 -0.011885349 -0.026637688 0.008989831 0.024985015 0.024114333 0.0005886318 0.0068446826
0.02958061 -0.020284897 0.022435013 0.019293023 0.03507867 0.0339088 0.00346625 0.0006846598
-0.03071296 0.029038258 0.014644153 0.039907362 0.0010457671 0.04532727 -0.009237055 0.0023499066
0.013568746 0.038661167 -0.0024794473 -0.0056407168 -0.048140123 -0.020133933 -0.002478982 -0.02368728
0.023869568 -0.018370505 -0.0021630789 0.015800364 -0.009880061 -0.03283253 0.026342593 -0.015069992
0.00995204 -0.021297287 0.00800647 7.9503916e-05 0.025262317 0.019352924 -0.033646207 0.0200587
-0.024664367 0.007841303 -0.008010386 -0.021774549 0.016962321 0.047814425 0.012013491 -0.015505934
0.04942643 -0.0014170005 -0.031016478 -0.02120422 -0.011786495 -0.014934692 -0.018938158 0.01875863
0.0060611395 -0.03239255 -0.011436817 0.019163223 0.02604556 -0.03569588 -0.008187244 0.013206419
0.02217908 0.019808259 0.023127928 -0.008952132 -0.012605187 -0.013236564 -0.032059617 -0.015189499
0.015697474 0.012988176 0.007917339 -0.038480956 0.019412784 0.01730105 0.019599553 0.015581022
-0.00034490944 -0.0045061605 -0.013378691 -0.007265047 -0.024743319 -0.010587788 -0.029375313 0.013235126
-0.020429775 -0.026343754 -0.034267284 -0.014109884 -0.020734247 0.0024883668 0.027307857 0.016706672

output_layer.weight f4 [10, 128]
00000000: 3132 443d fb61 53bd 6f25 cf3d 6d07 bdbc
00000010: e608 163e 4f0b 153d 4650 3d3e 0e19 d53c
00000020: ce4a cf3d 4571 82be 827c 69be 132d 7b3d
00000030: 510d d2bd 0d05 813d c87d aa3d 7c81 7dbe
00000040: c868 8ebb 13fd 87be e0bf a7be d9ca bcbe
00000050: dc71 81bc 3ee9 0dbe 0f5d 4c3c ccdc 8d3a
00000060: c034 273e bb39 173e 2100 38bd de1e a83c
00000070: f276 873d 45c3 09be 7d2b 85be 3e8e d1bd
00000080: 7bfd 20bd 5817 383e f43f 303e 0d53 bebc
00000090: 8229 cb3c 8db0 183e 0012 9f3e dfca 83bd
000000a0: 3c97 e8bd 695c 1c3e 3ee8 7d3c 24ba d93c
000000b0: 99ac 553d 7221 a43d 3b54 b73d 455f 1b3e
000000c0: 21cc 84bd 5785 cdbe c48d 043e 65c1 1ebd
000000d0: 5283 27bd 785d 4cbd a2ac 173b 82ca b7bd
000000e0: e8f3 ff3d d4c9 473b 4ceb 4fbe cde4 733d
000000f0: 683e f5bc 1a9c 8e3d 3677 ca3c ff83 72bd
00000100: 7ea4 acbe f8c5 5c3e 2eee 843d d6e0 95bd
00000110: d10a 4e3d a884 10bc d0a1 86bd 30cf 9e3d
00000120: 7083 3bbe e152 913d 40b9 7ebe 3c6d 67be
00000130: 2e20 1d3d a4da e63d 5c7c 07bd a32c 1bbd
00000140: 151f bf3d 111e 52be e01c 5ebd 29c5 7b3d
00000150: eba9 973d 451b 33be c1e7 0a3e 9ee6 203d
00000160: 9a28 bcbd 8209 143e e486 9a3d ac63 16be
00000170: 7523 4d3e 2c84 f13c 2559 d43d 08bf 5f3d
00000180: d90e 8dbe 0616 203e 7bd0 d23d cc30 a73c
00000190: 56ca 1e3e 050a a2be f6a6 08bd b641 bf3d
000001a0: 0330 b3bd 0756 83bd ca2e 2f3e 0864 74bd
000001b0: 1d14 db3c a34c 1abd f899 3c3d 006c 4ebd
000001c0: d300 003d 062c c33c 43e0 4fbd f2d5 52bd
000001d0: b73c 84bc 2006 2a3b d580 8bbe 83a4 e13d
000001e0: e0c0 4ebc 1a53 163d 7c79 cf3b d926 a7bd
000001f0: 8a77 783c 3df8 a1bd 8cbc d43c 92fb 903d
00000200: 76d3 a4bd a572 ea3c dd5b e9be 8b60 763d
00000210: 8be6 9ebe 33a4 ed3c bc44 a7be 9613 13bd
00000220: b6b5 42bc 0eb5 183e fc8c d13d 7b11 163c
00000230: 5bb4 eebd 813a 9dbe d900 6e3d 91bf 163e
00000240: 11ee 81bd db17 f33c 75bc a9bc e4d7 ac3d
00000250: 19bf 843d 3eae 653c e642 59bd 975f 0a3d
00000260: cc41 493e 7c15 95be ccb6 36bd f77b 98bd
00000270: 4033 15be f7db dc3d 3420 3abd f8ff c63d
00000280: 573e 58bd 7b2f 41be bc95 44be 7e54 a73d
00000290: e7f7 14be 1e06 afbe 06c0 b3be 643f d1bb
000002a0: f338 f93c a431 323a f485 f6bc 14ce b53d
000002b0: f8ee 713d ddd2 6ebe dcd9 45bd dd70 e53c
000002c0: 0ce7 7c3d da4d 133e ea8d 56be ac03 1abc
000002d0: 93f0 c13d 340f fc3b 76fc 4d3d 4839 89bd
000002e0: dddc 203e f61d 883d 82fd e03a 7767 27be
000002f0: ab37 8e3d e560 0b3d 87e0 7bbd 9374 7abd
00000300: 0355 ce3d a330 b0be 5473 e4bc 74ac 823d
00000310: d9a5 4bbd d55a de3c cb9a 013d 4a35 bfbc
00000320: 70e9 c93d 0c73 c4bc d31f 89bd 89fd c0bb
00000330: 0ee9 07bc 8519 db3d f45a 02bd 7d1a 3d3d
00000340: c780 9d3d bee1 a23c 83d5 483e d860 babe
00000350: bc45 273d b5e4 fc3b 747a d43d b96d dbbc
00000360: fa05 e93d 7aa3 a73c 9655 c13c 7f4b f73d
00000370: 0d0d 0e3c 697c 66bd 7d29 4ebc 3280 f43d
00000380: 7fb1 5abe 12d9 26be 9ac4 8cbd d416 d23c
00000390: 62bc 26be 2acc 81bc b783 043c 428d c8be
000003a0: ec23 c13d 153a 053c e4be 17be fe07 05bc
000003b0: 766f bcbe 4928 82bc 408b 3bbe 5010 f7bc
000003c0: f224 a0bd af3a f53d c76d 5b3d a2b3 77bd
000003d0: 8ccb 1cbe 48ea 6abc d399 b3be 8a78 05be
000003e0: 958f b1bd 61c6 15be 1e73 54bd e1da 22bd
000003f0: 3065 90bd 64f5 85bd 521e 843d bb31 e1bc
0.04789943 -0.051607113 0.10114562 -0.02307483 0.14651832 0.036387738 0.18487653 0.026012924
0.1012169 -0.25477043 -0.22801402 0.061322283 -0.10256446 0.062997915 0.08324772 -0.24756426
-0.004345987 -0.26560268 -0.32763577 -0.3687351 -0.015801363 -0.13858506 0.012473359 0.0010823249
0.16328716 0.14768116 -0.044921998 0.020522531 0.06614484 -0.13453396 -0.2600974 -0.10232209
-0.039304238 0.17977655 0.17211896 -0.023232961 0.024800066 0.14911099 0.3106842 -0.06435179
-0.11356971 0.15269627 0.015497265 0.026578017 0.052166555 0.08014192 0.089516126 0.15173061
-0.06484247 -0.40140793 0.12944704 -0.038758654 -0.04089672 -0.049893826 0.0023143669 -0.08974172
0.12497693 0.003048529 -0.20304602 0.059544373 -0.029936984 0.06963368 0.024715047 -0.059207913
-0.33719248 0.21559894 0.06490742 -0.07318275 0.050303284 -0.00882069 -0.06573832 0.07754362
-0.18311858 0.07095886 -0.24875355 -0.22600263 0.038360767 0.11272171 -0.033077583 -0.037884366
0.093321 -0.20519282 -0.054226756 0.061467323 0.07405456 -0.17490871 0.1356497 0.039282434
-0.09187432 0.14456752 0.075452596 -0.1468646 0.20033057 0.02948197 0.103685655 0.05462554
-0.2755039 0.15633401 0.10293671 0.02040901 0.15506873 -0.3164827 -0.03336235 0.09338705
-0.08749392 -0.06412893 0.17107692 -0.05966571 0.02674299 -0.037670743 0.046045274 -0.050395966
0.031250786 0.023824703 -0.050750982 -0.051473565 -0.016142232 0.0025943592 -0.2724673 0.11017706
-0.012619227 0.036700346 0.0063316207 -0.081617065 0.015165219 -0.07908676 0.025968812 0.07079233
-0.080481455 0.02861912 -0.455779 0.060150664 -0.31035265 0.02900896 -0.32669628 -0.03590735
-0.011884144 0.14912817 0.10231969 0.009159441 -0.11655494 -0.30708697 0.058106277 0.14721514
-0.06344236 0.029674461 -0.020719746 0.08439615 0.064817615 0.014018593 -0.053042315 0.033782568
0.19654006 -0.29117954 -0.044607922 -0.074455194 -0.14570332 0.107841425 -0.045440868 0.09716791
-0.052793827 -0.18865769 -0.19197744 0.081704125 -0.14547692 -0.34184355 -0.3510744 -0.0063857306
0.030422663 0.0006797558 -0.03009317 0.08877197 0.05906579 -0.23322625 -0.04830347 0.028007919
0.06174378 0.14385167 -0.20952573 -0.0094002895 0.09469714 0.007692242 0.050289594 -0.06700379
0.15709253 0.066463396 0.0017165395 -0.16348062 0.069442116 0.034027953 -0.061493423 -0.06114633
0.100748084 -0.34412107 -0.027887024 0.06380549 -0.04971871 0.027142921 0.031641763 -0.02334084
0.09858978 -0.02398064 -0.06695523 -0.0058895987 -0.008295311 0.10698227 -0.03182502 0.04616784
0.07690578 0.019883033 0.19612698 -0.3640201 0.04083799 0.0077176937 0.103749186 -0.026785718
0.11378093 0.020463694 0.02360038 0.120749466 0.008670104 -0.05627099 -0.012583134 0.11938514
-0.21356772 -0.16293743 -0.06873436 0.02564565 -0.162828 -0.015844423 0.008088044 -0.3917027
0.0943068 0.008131524 -0.14818913 -0.008119581 -0.36803788 -0.01588835 -0.18314838 -0.030159146
-0.07819547 0.11974084 0.05357149 -0.060474046 -0.15312022 -0.014338084 -0.35078296 -0.13034263
-0.08669964 -0.14626457 -0.051867597 -0.03975952 -0.0705055 -0.06540945 0.06451096 -0.027489534

output_layer.bias f4 [10]
00000000: 52f3 ffbc 3b3e 783d cf27 0fbd 9f5f b43d
00000010: 4d28 1a3c 7704 9ebd 12b0 ba3d c569 983c
00000020: 87d0 673d 2fb4 503d
-0.031243954 0.060606223 -0.034950074 0.08807301 0.0094090225 -0.07715695 0.09115614 0.018605122
0.05659535 0.050953086
