DeepLearning/nn_models/trained_models/neural_network.pth (torch, 475854 bytes, 6 tensors)

hidden_layer.weight f4 [128, 784]
0	0xbd6be202	-0.057588585
1	0xbd69aafc	-0.05704783
2	0xbca41a02	-0.020031933
3	0xbb5ba89d	-0.003351725
4	0xbd08f34d	-0.033435155
5	0xbc44c3cb	-0.012009571
6	0xbd0a8e3d	-0.033827055
7	0xbd5bad92	-0.053632326
8	0x3ba52cc4	0.005040737
9	0xbd4d3992	-0.05010373
10	0xbc2f4863	-0.010698411
11	0xbd056574	-0.032567456
12	0xbd182f78	-0.037154645
13	0xb91ce377	-0.00014962057
14	0xbce2ecae	-0.027700748
15	0xbb527d47	-0.0032118128
16	0x3c35fff3	0.011108386
17	0xbc4bc20d	-0.012436402
18	0xbd660d23	-0.056164872
19	0xbd44c520	-0.048039556
20	0xbc85a633	-0.016314602
21	0x3ba2d62c	0.004969379
22	0xbd371d64	-0.044705763
23	0xbd4f0186	-0.050538562
24	0xbd27f0aa	-0.041001
25	0xbd28c51e	-0.04120361
26	0xbd354512	-0.044255324
27	0xbcc80646	-0.024417054
28	0xba293dcd	-0.00064560474
29	0xbce96502	-0.028490547
30	0xbc67b253	-0.014141637
31	0xbc8e2838	-0.017353162
32	0xbd233c56	-0.039852463
33	0xbc830c48	-0.015997067
34	0xbcd4c844	-0.0259744
35	0xbd007387	-0.031360175
36	0xbd694a73	-0.056955766
37	0xbd0cd768	-0.034385115
38	0xbc3ecf81	-0.0116461525
39	0x3a73cfcf	0.000930068
40	0xbc9a7e1e	-0.018858965
41	0xbc890f41	-0.016730906
42	0x3c098598	0.008393668
43	0xbc1a1eb3	-0.009406733
44	0x3c4452bc	0.011982616
45	0xbd295860	-0.041344047
46	0xbd74add2	-0.05973608
47	0x3c02f931	0.007993982
48	0x3be6b228	0.007040281
49	0xbd10a144	-0.035310045
50	0x3c2a89e1	0.010408849
51	0x3c11f9b1	0.008909629
52	0x3c0e07e5	0.008668874
53	0xbb2e8890	-0.002663169
54	0xbd126388	-0.03573945
55	0xbca0205d	-0.019546682
56	0xbbf151c2	-0.0073644826
57	0x3bfc437f	0.007698476
58	0x3ba9c336	0.0051807417
59	0xbca499b8	-0.02009283
60	0xbd105419	-0.03523645
61	0xbcc1c71a	-0.02365451
62	0xbd62f39a	-0.055408098
63	0xbc5ffb73	-0.01367079
64	0x3b5d483f	0.0033764986
65	0xbc954713	-0.018222367
66	0xbbe8e166	-0.0071069477
67	0xbd5c422c	-0.053774044
68	0xbd04f24d	-0.03245764
69	0x3bfb20bd	0.007663815
70	0xbc87ffbd	-0.016601438
71	0xbd8bedb1	-0.068324454
72	0xbc958c37	-0.018255336
73	0xbca6d419	-0.020364808
74	0xbcbbdf2b	-0.022933563
75	0xbc4bf3eb	-0.012448291
76	0xbbb2c1ff	-0.005455255
77	0xbd3a5171	-0.045487825
78	0xbd43a362	-0.047763236
79	0xbd35d87d	-0.044395912
80	0xbcfaa2a7	-0.030595137
81	0xbc1fc2fa	-0.009751076
82	0x3c0cbb17	0.008589528
83	0x3b5fcf3c	0.003415062
84	0xbc0b2efb	-0.008495088
85	0xbc046789	-0.008081325
86	0xbd621e7b	-0.05520485
87	0xbd079e29	-0.033109818
88	0xbd4d1c88	-0.050076038
89	0xbcf4d1b9	-0.02988516
90	0xbc851846	-0.016246926
91	0xbd2acd77	-0.041699853
92	0x3cc71f48	0.024306908
93	0x3c98abc8	0.0186366
94	0xbb49fcfb	-0.0030820954
95	0x3c82c099	0.015960978
96	0x3d272dce	0.040815167
97	0xbb2e6866	-0.002661252
98	0xbc870b02	-0.016484741
99	0xbcc5a166	-0.024124812
100	0x3a1ccdf8	0.00059816195
101	0xbd2f5425	-0.042804856
102	0xbda8bdc4	-0.0823932
103	0xbd937b41	-0.07201243
104	0xbcf8864d	-0.030337477
105	0xbd4bbc55	-0.049740154
106	0xbd109b10	-0.03530413
107	0xbd8883f5	-0.06665794
108	0x3b6e87fe	0.0036396976
109	0xbd70157e	-0.058614247
110	0xbd34350a	-0.043995894
111	0xba98cc8d	-0.001165764
112	0x3b556a50	0.0032564588
113	0xbbadb1ca	-0.005300735
114	0xbaaa8190	-0.0013008583
115	0xbd6171ca	-0.05504016
116	0xbd0fea0c	-0.035135314
117	0xbd34286f	-0.043983873
118	0xbc4eaf15	-0.012614985
119	0x3bf9e541	0.007626206
120	0x3d51ec3b	0.051250678
121	0x3db2f832	0.08738746
122	0x3df55e60	0.11980891
123	0x3ddea594	0.10871425
124	0x3dfffa8a	0.124989584
125	0x3e139d4b	0.14415471
126	0x3e036dcd	0.12834854
127	0x3dc8cd9c	0.09804842
128	0x3d9c166e	0.076214656
129	0x3d464af5	0.04841133
130	0x3b8712ef	0.00412213
131	0xbc062d14	-0.008189458
132	0xbd1b5840	-0.03792596
133	0xbdddb8b5	-0.10826246
134	0xbd93bbba	-0.072135404
135	0xbdb03651	-0.0860411
136	0xbd4f6646	-0.050634645
137	0xbc457596	-0.01205196
138	0x3b18eb83	0.0023333735
139	0x3c4a306b	0.012340645
140	0xbc301b3b	-0.01074868
141	0x3c04070d	0.008058322
142	0xbd496688	-0.049170047
143	0xbd2f4c44	-0.042797342
144	0xbd22d793	-0.03975637
145	0xbb605b35	-0.003423405
146	0xbcb775b4	-0.022394992
147	0x3c2d5684	0.010579709
148	0x3dcf11e1	0.10110832
149	0x3da0aa19	0.078449436
150	0x3ddfab17	0.10921305
151	0x3e2acba1	0.16679241
152	0x3e40b808	0.18820202
153	0x3e62588b	0.22104089
154	0x3e6c1e5e	0.23058459
155	0x3e791910	0.24325967
156	0x3e94898c	0.2901119
157	0x3e794bb5	0.24345286
158	0x3e46b981	0.19406702
159	0x3da39a45	0.07988409
160	0x3d1f72fd	0.03892802
161	0xbd09b352	-0.03361828
162	0xbdaa13aa	-0.08304532
163	0xbddc7323	-0.10764148
164	0xbd2859d0	-0.041101277
165	0xbcdac190	-0.026703626
166	0xbd1fe1f7	-0.039033856
167	0xbd2bc1a4	-0.041932717
168	0xbd0c140e	-0.034198813
169	0xbd4de73a	-0.050269343
170	0xba0403ca	-0.0005035965
171	0xbd4c0eb4	-0.04981871
172	0xbc9d052b	-0.019167503
173	0xbc576927	-0.013147629
174	0x3cc04662	0.023471061
175	0x3d327704	0.043570533
176	0x3d94b730	0.07261503
177	0x3dcc8bf6	0.09987633
178	0x3deb909d	0.11502192
179	0x3e2e8385	0.17042358
180	0x3e76765a	0.24068585
181	0x3eb9e025	0.3630382
182	0x3eaab828	0.33343625
183	0x3ed9e7a7	0.4255955
184	0x3ebfa332	0.37429196
185	0x3e6c5702	0.23080066
186	0x3e8435ba	0.2582224
187	0x3e67a3e8	0.22621119
188	0x3e1a2ea9	0.15056862
189	0x3df76460	0.12079692
190	0x3d49edf2	0.049299188
191	0xbd91d374	-0.071204096
192	0xbd3434ba	-0.043995596
193	0xbd37d100	-0.044877052
194	0xbd675984	-0.056481853
195	0xbd663cb2	-0.056210227
196	0x3b77e6f0	0.0037826858
197	0xbd2553ca	-0.04036311
198	0xbd5c22ff	-0.053744312
199	0xbb1ee97c	-0.0024248054
200	0xbb47698a	-0.0030427896
201	0xba18480e	-0.0005809077
202	0xbba0f19e	-0.0049116155
203	0x3d652d61	0.05595148
204	0x3dbaca63	0.091206335
205	0x3d8e4d94	0.069483906
206	0x3e02b5b8	0.12764633
207	0x3e3fe314	0.18738967
208	0x3e74c578	0.23903453
209	0x3e7be9b7	0.24600874
210	0x3e989144	0.2979833
211	0x3ebf574e	0.37371296
212	0x3e8b1ead	0.2717184
213	0x3d878780	0.066176414
214	0x3dfd2bfb	0.12361904
215	0x3e2e7675	0.17037375
216	0x3deaf995	0.11473385
217	0x3e11d7df	0.14242505
218	0x3d43a97e	0.047769062
219	0xbcd321c7	-0.025772942
220	0xbd0cbe3b	-0.034361105
221	0xbd5b4bb0	-0.053538978
222	0xbd4d0891	-0.050056998
223	0xbc8dd44e	-0.017313149
224	0xbc3e4f43	-0.011615577
225	0xbb1563c3	-0.0022795058
226	0xba89c10c	-0.0010509803
227	0xbd3a1705	-0.04543211
228	0xbd0d5be5	-0.034511466
229	0xbc2e08ce	-0.010622216
230	0x3d64cc9c	0.055859193
231	0x3df5d480	0.12003422
232	0x3d27a176	0.040925466
233	0x3de9f840	0.11424303
234	0x3e1c7db2	0.15282324
235	0x3da9562b	0.08268388
236	0x3e03ad1d	0.12859006
237	0x3e07eab5	0.13273127
238	0x3e02e1c0	0.1278143
239	0x3e7c59bf	0.2464361
240	0x3e7a0f9a	0.24420014
241	0x3e1c1cf7	0.15245424
242	0x3ddf6ab0	0.10909021
243	0x3d7a8d17	0.06116971
244	0x3d17a85c	0.037025794
245	0x3d3b64a7	0.045750286
246	0x3db42bcd	0.08797417
247	0x3c75568d	0.014974249
248	0xbd5884be	-0.052860968
249	0xbd60e927	-0.05490985
250	0xbcfce73f	-0.030871985
251	0xbd23f013	-0.040023874
252	0xbc9d5b0a	-0.01920845
253	0xbd3d0cb1	-0.04615468
254	0xbd62b2a5	-0.05534615
255	0xbcc5cd74	-0.02414582

hidden_layer.bias f4 [128]
0	0x3d21aefd	0.039473522
1	0x3cc82122	0.024429861
2	0xb9c36c04	-0.00037273776
3	0x3c403713	0.011731881
4	0x3cf788da	0.030216623
5	0xbd3847ed	-0.04499047
6	0x3c12a8c9	0.008951374
7	0xbd76d4f3	-0.060261678
8	0xbbfd95b8	-0.007738795
9	0xbc6c73e0	-0.014431924
10	0x3d361e4f	0.0444625
11	0x3af0422d	0.0018330269
12	0x3c59342a	0.013257066
13	0xbd052806	-0.032508872
14	0x3d2577f6	0.040397607
15	0x3a8aa2c9	0.0010577078
16	0x3b906886	0.0044069914
17	0xbd40893f	-0.047005888
18	0xbc0766c9	-0.008264252
19	0x3cc86690	0.024462968
20	0x3ca395e2	0.01996893
21	0xbcbf36f4	-0.023341633
22	0xbcc13eac	-0.023589455
23	0xbcbe98a0	-0.023266137
24	0x3d052b56	0.03251203
25	0xbcae3b3e	-0.021268483
26	0xbce3b2c1	-0.027795197
27	0xbbbf4f52	-0.005838313
28	0xbc55a4e1	-0.0130397985
29	0x3c9c7a7a	0.01910137
30	0x3c297367	0.0103424555
31	0xbc5f9c8f	-0.013648166
32	0xbd2cd199	-0.042192075
33	0xbb575ab8	-0.003286047
34	0xbd29f754	-0.041495636
35	0x3c5ec6d1	0.013597206
36	0x3c19d5ff	0.0093894
37	0x3cddc45f	0.027071176
38	0xbc59937c	-0.013279792
39	0x3cb84802	0.022495274
40	0xbcd5aad7	-0.02608244
41	0xbd0018f7	-0.03127381
42	0xbae58d7b	-0.0017513478
43	0xbca031d3	-0.019555008
44	0x3cd1559a	0.025553513
45	0x3c0f626e	0.008751495
46	0x3bd1c725	0.0064019137
47	0xbc244164	-0.010025356
48	0x3cfcf976	0.030880671
49	0xbcb0857a	-0.021548022
50	0x3d038a25	0.032114167
51	0xbd124d4d	-0.03571825
52	0xbcd31922	-0.02576882
53	0xbcf232dc	-0.029565267
54	0x3a92ff42	0.0011214989
55	0xbd0a34e6	-0.033741854
56	0x3d3f3a93	0.04668672
57	0xbd1f5f66	-0.03890934
58	0x3c66ea02	0.014093878
59	0xbce5788f	-0.028011588
60	0x3cf96c71	0.030447217
61	0xbbeb3bfd	-0.007178782
62	0x3cc95dc2	0.02458084
63	0x3a2372d4	0.0006235067
64	0x3cc1efec	0.023673974
65	0x3c4316e4	0.011907313
66	0xbc6698a2	-0.014074476
67	0xbb28a02a	-0.002573023
68	0x3d19f64f	0.037588414
69	0xbcfad35b	-0.03061836
70	0xbd8fae34	-0.070156485
71	0xbc9ec127	-0.019379212
72	0xba6ff338	-0.0009153369
73	0xbcfe2a42	-0.03102601
74	0xbd35e22f	-0.04440516
75	0xbce91341	-0.028451564
76	0xbb144eca	-0.002262997
77	0xbca61133	-0.020271873
78	0xbcc36cf6	-0.023855668
79	0xbd2bddd0	-0.041959584
80	0xba07c479	-0.0005179118
81	0x3cd79bae	0.026319351
82	0x3ab59d89	0.0013856153
83	0xbc4958b8	-0.012289219
84	0x3a86ff55	0.0010299484
85	0x3ad3fe66	0.0016173839
86	0xbd0b6ebb	-0.034041148
87	0x3c204529	0.009782114
88	0xbc3da936	-0.011575988
89	0xbafef5ca	-0.0019451913
90	0xbcc57cf2	-0.02410743
91	0xbcad8706	-0.021182548
92	0xbc873957	-0.016506834
93	0xbc01ef66	-0.007930612
94	0x3a5ef22b	0.0008504714
95	0xbcc16b2e	-0.023610678
96	0x3baf23be	0.005344837
97	0x3cb85368	0.022500709
98	0x3c27594e	0.010214163
99	0x3a941c84	0.0011300002
100	0x3cd819b3	0.026379442
101	0xbca693da	-0.020334173
102	0x3c162609	0.009164342
103	0x3c8343f8	0.016023621
104	0x3d02f064	0.031967536
105	0x3c513b80	0.012770534
106	0x3cc63576	0.024195414
107	0x3ae812cc	0.0017705797
108	0xbc9e456e	-0.019320216
109	0x3ca78948	0.020451203
110	0x3990c535	0.0002761275
111	0xbaafbc84	-0.0013407622
112	0xbb77de14	-0.0037821578
113	0x3c9a2eb6	0.018821102
114	0x3cc6f05e	0.024284538
115	0xbcb25325	-0.021768162
116	0xbb460c05	-0.0030219567
117	0x3c71f616	0.014768144
118	0xbd04f3f9	-0.032459233
119	0x3b72444e	0.0036966982
120	0x3c9b7b06	0.01897956
121	0x3cb91cd9	0.022596763
122	0x3ccbfa2c	0.024899565
123	0xbd1e97e7	-0.038719084
124	0x3b0b3332	0.0021240232
125	0xbd29adc0	-0.041425467
126	0x3b08b0ab	0.0020857255
127	0xbbec97ec	-0.007220259

hidden_layer2.weight f4 [128, 128]
0	0xbc4b7fc1	-0.012420596
1	0x3e0abdf4	0.13549024
2	0x3d92fd21	0.07177187
3	0xbd425e23	-0.047453057
4	0x3c223e2d	0.009902519
5	0x3d165b4a	0.036708154
6	0xbe43d5f6	-0.19124588
7	0xbe391e1a	-0.18077889
8	0xbe0a9eb8	-0.13537109
9	0x3cb58865	0.022159765
10	0xbd93ac59	-0.07210607
11	0xbdad45ff	-0.08460616
12	0x3e2cc5c4	0.16872317
13	0x3df228f7	0.1182422
14	0xbd9c7469	-0.07639391
15	0xbd27f066	-0.041000746
16	0x3d85c572	0.065318
17	0xbdcf1f15	-0.1011335
18	0x3d8882b3	0.06665554
19	0x3d58b90a	0.052910842
20	0xbdd3532c	-0.10318598
21	0x3d1b9a68	0.03798905
22	0x3c5d337e	0.013501046
23	0xbdfe9da1	-0.12432409
24	0x3e488ac6	0.19584188
25	0xbdcbbdd3	-0.099483155
26	0xbe2ea755	-0.1705602
27	0x3dd4f332	0.10397948
28	0x3e35c0c9	0.17749323
29	0x3de8c2ab	0.11365255
30	0xbd3e281a	-0.046424963
31	0x3d6943e4	0.05694951
32	0xbccb2703	-0.024798876
33	0xbe58826e	-0.21143505
34	0x3db2ec6f	0.087365024
35	0x3e5b8d61	0.2144065
36	0xbc64f7d4	-0.013975102
37	0x3de5001f	0.11181664
38	0x3ca4b764	0.020106979
39	0x3d818e97	0.06326025
40	0xbd773ccc	-0.060360715
41	0xbdbfaf57	-0.09359615
42	0xbd9b184b	-0.07572993
43	0x3d0c4b52	0.03425152
44	0x3dcd5446	0.100258395
45	0x3e031827	0.12802182
46	0xbd970a9b	-0.0737507
47	0x3d95337a	0.07285209
48	0x3e58c765	0.21169813
49	0xbd9cd024	-0.07656887
50	0xbde8aa69	-0.11360628
51	0xbccb02fb	-0.024781695
52	0x3e6b96c4	0.23006731
53	0xbe1460f7	-0.14490114
54	0x3e6356aa	0.22201028
55	0x3d9c1366	0.076208875
56	0xbc57b3e4	-0.013165448
57	0x3e386b36	0.18009648
58	0x3e03da74	0.12876302
59	0xbe5c3920	-0.21506166
60	0x3cf81225	0.03028209
61	0xbc8b8f1c	-0.017036013
62	0x3cc6b8d6	0.024258059
63	0x3e3ce717	0.18447529
64	0x3d1dcab0	0.038523376
65	0x3e0beb5f	0.13664006
66	0xbe1e5705	-0.15462883
67	0xbd56b6e3	-0.052420508
68	0x3dc1d3b9	0.09464211
69	0x3d7a7afd	0.061152447
70	0x3e049927	0.12949048
71	0x3d2884b4	0.04114218
72	0x3dc9e5f1	0.09858311
73	0xba6bf90a	-0.0009001648
74	0x3db8543b	0.09000441
75	0xbd5f6a88	-0.054544955
76	0xbd4661cd	-0.048433114
77	0xbd8e5607	-0.06950002
78	0x3da3a1b5	0.079898275
79	0xbdf1d3e5	-0.11807994
80	0x3dc0a242	0.09405948
81	0xbc35130d	-0.011051905
82	0x3d0d331e	0.034472577
83	0x3dcb2f93	0.099211834
84	0xbc8edbaf	-0.017438738
85	0xbeadaddb	-0.33921704
86	0x3e2c8708	0.16848385
87	0x3e0537c3	0.13009553
88	0xbe0d48d2	-0.1379731
89	0xbca623ba	-0.020280708
90	0x3e897e69	0.26854256
91	0x3c2712a2	0.0101973135
92	0xbe30b92b	-0.17258136
93	0xbce580db	-0.028015545
94	0x3d102e86	0.03520062
95	0xbda9355d	-0.08262131
96	0xbda69ddb	-0.08135577
97	0xbd977c77	-0.07396787
98	0x3dffa0eb	0.124818645
99	0x3cf465d3	0.02983371
100	0x3dd900ae	0.10595833
101	0xbc84b82a	-0.016201098
102	0x3e692d85	0.2277127
103	0x3dac62ba	0.08417268
104	0xbe8009e0	-0.25007534
105	0x3e0f9dad	0.14024992
106	0xbde24c5b	-0.1104972
107	0xbd9d7f32	-0.07690276
108	0x3d9940ba	0.07483049
109	0x3de0fcad	0.10985694
110	0x3d85fa50	0.06541884
111	0xbe35fab9	-0.17771424
112	0x3d7f094d	0.06226473
113	0xbb734fc2	-0.0037126397
114	0xbe2d53a6	-0.1692644
115	0xbd161c27	-0.036647942
116	0x3ddf2e22	0.10897471
117	0x3bca59ca	0.0061752545
118	0xbde6ae0d	-0.11263666
119	0x3dd9d4dc	0.10636303
120	0x3d8c085f	0.06837534
121	0x3dab7a5f	0.0837295
122	0x3e3ba451	0.183244
123	0x3d34682a	0.04404465
124	0x3dd70709	0.10499389
125	0x3de0871b	0.10963269
126	0xbbafa17f	-0.005359828
127	0xbd540328	-0.051760823
128	0x3e228b3e	0.15873429
129	0x3dc48dfa	0.095973924
130	0xbe015506	-0.1263009
131	0x3e0bd6fa	0.13656226
132	0xbdddd875	-0.108323015
133	0x3d53dbd6	0.051723324
134	0x3d37ab52	0.04484112
135	0x3d2df47b	0.042469483
136	0x3daef76b	0.08543285
137	0x3cd9084a	0.02649321
138	0x3e5da676	0.21645531
139	0x3e631641	0.22176458
140	0xbd154449	-0.036442075
141	0x3d831d4c	0.06402072
142	0x3e60dc28	0.21958983
143	0xbe024c9d	-0.12724538
144	0x3c6f5682	0.014608027
145	0xbb807322	-0.003919975
146	0x3db0e424	0.08637264
147	0xbd8ddcd6	-0.06926887
148	0x3e0be5be	0.13661858
149	0x3da7ce0a	0.08193596
150	0x3dd674ec	0.1047152
151	0xbd8c0a68	-0.06837922
152	0xbd579cbb	-0.052639704
153	0x3e6a27ac	0.22866696
154	0x3dd2be18	0.10290164
155	0x3d4a7ad2	0.049433537
156	0xbbd45735	-0.0064801225
157	0x3ea2f9f0	0.31831312
158	0x3ba18d9c	0.004930211
159	0xbdd88b82	-0.10573484
160	0x3de9abdc	0.11409733
161	0x3e017823	0.12643485
162	0xbda0c262	-0.078495756
163	0xbee01f80	-0.43774033
164	0x3c17c932	0.009264277
165	0xbd47953d	-0.04872631
166	0xbdd2faff	-0.1030178
167	0x3cb26fad	0.021781767
168	0x3d458c5b	0.048229557
169	0x3e1960c4	0.1497832
170	0xbd803aac	-0.06261191
171	0xbd368bd3	-0.04456694
172	0xbb10541c	-0.002202279
173	0xbd6fb26d	-0.05851977
174	0x3bfffc5e	0.007812067
175	0xbdcf1842	-0.10112049
176	0xbdd77f1b	-0.1052229
177	0xbd87cda9	-0.066310234
178	0xbd35e5c7	-0.044408586
179	0x3d32d824	0.04366316
180	0x3d997dd0	0.074947
181	0xba95295c	-0.0011380124
182	0x3dac5d7f	0.084162705
183	0xbe282e14	-0.16423827
184	0x3c92271e	0.017840918
185	0x3d19afc1	0.037521128
186	0x3d0b2790	0.033973277
187	0xbd193b20	-0.0374099
188	0x3db151f9	0.08658213
189	0x3dbe3356	0.09287135
190	0xbcc628c5	-0.024189362
191	0x3d53b417	0.05168542
192	0x3ed06d93	0.40708598
193	0xbe0f4c57	-0.13993965
194	0x3e2641eb	0.16236083
195	0xbe15db7e	-0.14634511
196	0x3d76089d	0.060066808
197	0x3e8dc61e	0.27690214
198	0xbddbee6c	-0.10738835
199	0xbda06af5	-0.078329004
200	0x3db8bf47	0.09020858
201	0xbe3fa87d	-0.18716617
202	0xbd889dbe	-0.06670712
203	0x3e4e2b9a	0.2013382
204	0xbd4d4e26	-0.050123356
205	0x3db052e2	0.08609559
206	0xbd2b81b8	-0.041871756
207	0xbd05f8ab	-0.03270785
208	0xbd9d5b54	-0.07683435
209	0xbddb80e1	-0.10717941
210	0xbd64a996	-0.055825792
211	0xbdb822b7	-0.08990996
212	0x3d04fb0e	0.032465987
213	0x3ec9c5bf	0.3940868
214	0xbe111db4	-0.14171487
215	0xbd062dec	-0.03275864
216	0x3e63621b	0.22205393
217	0x39b308d8	0.0003414813
218	0xbde9fe6d	-0.11425481
219	0x3da7f554	0.082010895
220	0xbdbd1b2a	-0.09233697
221	0x3c0bce5e	0.0085330885
222	0x3df78f95	0.12087933
223	0x3c68ffdf	0.014221161
224	0x3dd0e042	0.10199024
225	0x3d905819	0.07048053
226	0x3cd81865	0.02637882
227	0x3dd85d0d	0.10564623
228	0x3e64b675	0.22335227
229	0xbde8b8f8	-0.11363405
230	0xbe328dda	-0.17436925
231	0xba47d7f6	-0.0007623428
232	0x3e9efec2	0.3105374
233	0xbefe427e	-0.49660105
234	0x3dac31c7	0.08407932
235	0x3c9703d0	0.018434435
236	0x3cf2542d	0.029581154
237	0x3bf6f0c6	0.0075360266
238	0x3e22d743	0.15902428
239	0xbe50911a	-0.20367852
240	0xbdc73827	-0.09727507
241	0x3d6f8fde	0.05848681
242	0x3c6fcc1e	0.014636068
243	0x3d640848	0.05567196
244	0xbe0e414c	-0.13892096
245	0xbdac03f1	-0.08399189
246	0xbe02a996	-0.12760004
247	0xba6f987a	-0.0009139847
248	0x3d7c523e	0.06160187
249	0x3d8c5b48	0.06853348
250	0xbdf4b866	-0.11949234
251	0x3e260a6d	0.16214915
252	0xbd9beb27	-0.07613211
253	0xbdad8dc0	-0.08474302
254	0xbd9ac3a6	-0.07556848
255	0x3d1b1388	0.037860423

hidden_layer2.bias f4 [128]
0	0x3db0e7b7	0.08637946
1	0x3e03f3c0	0.12885952
2	0xbbb8dcd3	-0.0056415587
3	0xbd97f40f	-0.07419597
4	0xbd998c51	-0.07497466
5	0xbd9fa5fb	-0.0779533
6	0xbdd2ffc8	-0.10302693
7	0xbd4a8506	-0.049443267
8	0x3df4950d	0.11942492
9	0x3d5c6186	0.053803943
10	0x3c881938	0.016613588
11	0x3e25e586	0.16200837
12	0x3cc346ac	0.02383741
13	0xbd9c5d2b	-0.07634958
14	0x3cc7f9e0	0.024411142
15	0xbb7f4815	-0.0038952876
16	0x3deba5dc	0.115062445
17	0x3bbf54c4	0.0058389623
18	0xbc8d1e02	-0.017226223
19	0x3c09ddde	0.008414714
20	0xbd0a3a3d	-0.033746947
21	0xbaa22735	-0.0012371304
22	0x3d7ca8ae	0.061684303
23	0xbdc5fa01	-0.09666825
24	0xbd274b11	-0.040843073
25	0xbce7b300	-0.028283596
26	0xbd2ab1fd	-0.04167365
27	0x3e2348f8	0.15945804
28	0xbd8330c5	-0.064057864
29	0xbe0a10f9	-0.13483037
30	0xbc8635a6	-0.016383003
31	0xbc739fa0	-0.014869601
32	0x3dc8d3bc	0.0980601
33	0x3ce1b4ae	0.027551975
34	0xbcba643e	-0.022752877
35	0x3e0d2711	0.13784434
36	0xbd856f1b	-0.06515332
37	0xbd847af6	-0.064687654
38	0xbdd70abe	-0.10500096
39	0x3e68cf7c	0.22735399
40	0x3b433aed	0.0029789761
41	0xbe0d84a8	-0.13820136
42	0xbc01b47b	-0.007916565
43	0x3d95c957	0.07313793
44	0x3e01cf49	0.1267673
45	0xbd13b292	-0.03605897
46	0x3c54a57e	0.01297891
47	0xbcd8bc44	-0.02645696
48	0x3d94091d	0.07228301
49	0xbce2e25c	-0.027695827
50	0xbda71841	-0.08158923
51	0xbd9c53a1	-0.076331384
52	0x3d7b35c3	0.061330568
53	0xbb266a2b	-0.002539287
54	0xbdc5731e	-0.096410975
55	0xbdae72fb	-0.085180245
56	0xbc434299	-0.011917734
57	0xbd70ddae	-0.05880516
58	0x3e27833b	0.16358654
59	0xbdcebaf4	-0.10094252
60	0x3d8115fe	0.06303023
61	0xbc939877	-0.018017037
62	0x3e1e8b8a	0.15482917
63	0xbce0e48f	-0.027452735
64	0xbda45dff	-0.08025741
65	0x3d1b84be	0.03796839
66	0x3e12d9d7	0.14340912
67	0xbda977f1	-0.0827483
68	0xbe0fb874	-0.14035207
69	0x3d98d497	0.07462423
70	0xbd16bbd1	-0.03680021
71	0x3d032e4f	0.032026585
72	0x3ce8d697	0.028422637
73	0x3cbe6c39	0.023244964
74	0x3da97736	0.08274691
75	0xbd057a7d	-0.032587517
76	0x3cfb2757	0.030658407
77	0xbe3f499e	-0.18680426
78	0xbdb1c02e	-0.086792335
79	0x3d1e3a23	0.038629662
80	0xbe0395c8	-0.12850106
81	0x3d72a95b	0.05924354
82	0x3d9c60db	0.07635661
83	0xbd87b440	-0.06626177
84	0x3cef8f40	0.029243112
85	0x3d5cfdda	0.05395303
86	0x3d5b79f3	0.053583097
87	0x3d2c156f	0.04201263
88	0x3e0f0d49	0.13969912
89	0xbc031409	-0.008000382
90	0x3d5cfe90	0.053953707
91	0xbc0f377d	-0.008741257
92	0xbba3b736	-0.0049962057
93	0xb9f08ef6	-0.0004588288
94	0x3e1e6848	0.15469468
95	0xbcc2ec5a	-0.023794342
96	0xbe175786	-0.14779481
97	0xbd89b0e9	-0.06723196
98	0x3da6490e	0.08119403
99	0xbd00f079	-0.031479333
100	0xbd7c12da	-0.061541416
101	0x3d1d35cc	0.038381383
102	0x3d5382c6	0.051638387
103	0xbd5f50e0	-0.054520488
104	0x3e6cc295	0.23121102
105	0x3d09de52	0.033659287
106	0xbc84943f	-0.01618397
107	0x3e154acc	0.14579314
108	0xbde6f43b	-0.11277052
109	0x3bdf0c71	0.006806903
110	0x3d998146	0.0749536
111	0xbb4a4abc	-0.00308673
112	0xbc027d23	-0.007964405
113	0xbc5d0802	-0.013490679
114	0x3d8a5d62	0.067560926
115	0xbd8ec016	-0.06970231
116	0xbd9096d6	-0.0706002
117	0x3d5cd862	0.053917296
118	0x3e13ceea	0.144344
119	0xbe07f322	-0.13276342
120	0x3c296a17	0.010340235
121	0xbdafa4cf	-0.085763566
122	0xbdb5dd3f	-0.0888009
123	0xba586e70	-0.00082562026
124	0xbcdf120d	-0.027230287
125	0xbd7cc0c7	-0.061707284
126	0xbcddb104	-0.027061947
127	0xbdee3450	-0.116310716

output_layer.weight f4 [10, 128]
0	0xbddd7dab	-0.10814985
1	0x3d5904d5	0.052983124
2	0xbe6477d6	-0.22311339
3	0xbe7f1b9f	-0.2491288
4	0x3dc879cd	0.09788857
5	0xbe857da9	-0.26072434
6	0xbd1b297e	-0.037881367
7	0x3e04757f	0.12935446
8	0xbe428f55	-0.1899999
9	0x3d78aa35	0.060709197
10	0x3d843458	0.06455296
11	0xbe6f4680	-0.23366737
12	0xbce23ee1	-0.027617874
13	0x3d1b9ccf	0.03799134
14	0x3dc6bda4	0.0970414
15	0xbdd1b49e	-0.10239528
16	0x3e0fa7fd	0.14028926
17	0xbd4bdf21	-0.04977334
18	0xbe8a99f7	-0.2707059
19	0xbd6cb4f7	-0.05778977
20	0xbe8686b2	-0.2627464
21	0x3c1e25a7	0.009652532
22	0x3e38498c	0.17996806
23	0x3d8ace34	0.067776114
24	0xbe98090a	-0.29694396
25	0xbc01d320	-0.007923871
26	0x3ab54139	0.0013828642
27	0x3caf6522	0.021410529
28	0xba8bea6e	-0.0010674724
29	0x3d91c4de	0.071176276
30	0x3e775dfe	0.24156949
31	0x3d62d162	0.055375464
32	0x3e35a2f5	0.17737944
33	0xbe5e02f0	-0.21680808
34	0xbda960e7	-0.08270436
35	0x3dc01b2f	0.09380185
36	0x3c9e1973	0.019299245
37	0x3dc67800	0.09690857
38	0xbd696fec	-0.056991503
39	0x3c8b3fea	0.01699825
40	0x3de8dda9	0.11370403
41	0x3e722804	0.23648077
42	0xbed71d3a	-0.42014486
43	0x3da85e5c	0.082211226
44	0x3e07a760	0.13247442
45	0x3cf79f7f	0.03022742
46	0xbe91789c	-0.2841233
47	0xbdf423dd	-0.11920903
48	0xbd89ee0d	-0.06734858
49	0x3d7fb377	0.06242701
50	0xbd20d670	-0.039267004
51	0x3e084f4d	0.13311501
52	0xbdb4c4b1	-0.088265784
53	0xbdd19bb0	-0.10234773
54	0xbdb6ebc4	-0.089316875
55	0xbec77627	-0.3895733
56	0x3e0b6b58	0.13615167
57	0x3e3fa297	0.18714367
58	0xbe8d556f	-0.27604243
59	0x3e165cdd	0.14683862
60	0xbced489b	-0.028965285
61	0xbeae3099	-0.34021452
62	0xbd61b8ae	-0.055107765
63	0xbe064a77	-0.13114344
64	0x3ddc96a7	0.10770922
65	0x3aa75c71	0.0012768639
66	0xbf05688c	-0.5211265
67	0xbec0a377	-0.37624714
68	0x3e44f621	0.19234516
69	0xbe78ec49	-0.24308886
70	0xbea6a895	-0.32550493
71	0x3da070d0	0.07834017
72	0x3de65b54	0.11247888
73	0xbe6f12f8	-0.2334708
74	0xbeab7ae2	-0.3349219
75	0xbe5f50fe	-0.2180824
76	0x3d1187ee	0.035530023
77	0xbeb8cee9	-0.3609536
78	0xbcac86eb	-0.021060428
79	0x3e009ad6	0.12559065
80	0xbe24ea4f	-0.16105007
81	0x3e744eb0	0.23858142
82	0x3d3052af	0.043047603
83	0x3dffad56	0.12484233
84	0x3e49d474	0.1970995
85	0xbe1a7b84	-0.1508618
86	0xbc91d275	-0.017800549
87	0xbe3ea214	-0.18616515
88	0x3d84256c	0.0645245
89	0x3d8a7d7a	0.06762214
90	0xbe385711	-0.18001963
91	0xbdf8add1	-0.12142528
92	0x3c72f589	0.014829048
93	0xbcc3acf1	-0.023886176
94	0x3dfa15b6	0.12211172
95	0xbc53ceec	-0.012927752
96	0xbe166520	-0.14687014
97	0x3d99b44b	0.07505091
98	0xbbea9529	-0.0071588946
99	0xbdbce146	-0.09222655
100	0xbe0e8ce0	-0.13920927
101	0x3d457fee	0.048217706
102	0xbda8b7de	-0.08238195
103	0xbd5cc4bd	-0.05389856
104	0xbc78e8f9	-0.015192264
105	0xbb53d342	-0.0032321964
106	0x3df29194	0.11844173
107	0x3d8aba7f	0.067738526
108	0x3dcf3865	0.10118178
109	0xbd08a3ff	-0.033359524
110	0x3d564ff1	0.05232233
111	0xbdd4a757	-0.1038348
112	0x3de5da77	0.112233095
113	0x3db95ec4	0.09051278
114	0xbe169c6f	-0.14708112
115	0x3d757979	0.0599303
116	0xbe47ba2f	-0.19504617
117	0x3db1d471	0.08683098
118	0x3d7d34eb	0.061818045
119	0x3ddc99fe	0.10771559
120	0x3df96ee3	0.12179353
121	0xbd94287f	-0.072342865
122	0xbe762625	-0.24037988
123	0xbe7f820f	-0.24951957
124	0xbb657c7a	-0.003501682
125	0xbe63881f	-0.22219895
126	0x3e156bb9	0.14591874
127	0x3c35ee39	0.01110416
128	0xbe85b3c0	-0.261137
129	0xbeab1c44	-0.33420002
130	0xbe5bfafa	-0.21482459
131	0xbe7f044e	-0.24903986
132	0xbde33517	-0.110941105
133	0x3cd71220	0.02625376
134	0xbd34d84b	-0.044151586
135	0x3dd4e8d9	0.10395975
136	0xbe429c87	-0.19005023
137	0xbe47f348	-0.19526398
138	0xbe733b3b	-0.23753063
139	0xbe142d28	-0.1447035
140	0x3cec86e4	0.028872915
141	0xbd59b4ad	-0.05315082
142	0xbe8db13f	-0.2767429
143	0x3d55f7df	0.05223834
144	0xbe17559a	-0.14778748
145	0xbea402f1	-0.32033494
146	0xbe74d7e6	-0.23910484
147	0x3e57e7f0	0.21084571
148	0x3d99f289	0.07516963
149	0x3d741bd6	0.05959686
150	0xbe66c404	-0.22535712
151	0xbe5970e6	-0.21234474
152	0x3dbed44e	0.09317838
153	0xbea01cf4	-0.3127209
154	0x3d10f31e	0.035388105
155	0xbe421113	-0.18951826
156	0xbd8f9278	-0.070103586
157	0xbd79e294	-0.061007097
158	0xbded7dc6	-0.11596255
159	0xbe330184	-0.17481047
160	0x3d843665	0.064556874
161	0xbe5afa9d	-0.21384664
162	0x3bc67106	0.006055954
163	0xbe81af05	-0.25328842
164	0xbe47b669	-0.19503178
165	0x3da5ef8a	0.08102329
166	0x3c1b4ba5	0.009478484
167	0x3d25f9a9	0.040521298
168	0xbc2459b6	-0.010031154
169	0x36152163	2.2222164e-06
170	0x3de95c4f	0.113945596
171	0x3dc4a276	0.096012995
172	0xbcc0890c	-0.023502849
173	0x3d83469d	0.06409953
174	0xbe729fec	-0.23693818
175	0xbda6bd56	-0.08141582
176	0xbe7dedc2	-0.24797729
177	0xbeddb549	-0.43302372
178	0xbe51b94c	-0.20480841
179	0x3d3dda7f	0.046350952
180	0x3e222315	0.15833695
181	0xbdb41e94	-0.08794895
182	0x3ce0558c	0.027384542
183	0x3e2d85a6	0.16945514
184	0xbe018370	-0.12647796
185	0xbc9d8307	-0.019227518
186	0x3d751ff7	0.059844937
187	0xbcc3d9ac	-0.023907505
188	0x3c4b4088	0.012405522
189	0x3cf0f5d5	0.029414097
190	0xbc378d27	-0.011203087
191	0x3d09f0b8	0.033676833
192	0x3cc4047f	0.023927925
193	0x3ddd34b5	0.10801069
194	0x3e15bbd7	0.14622436
195	0x3d3cf9cb	0.04613666
196	0xbd6ede56	-0.058317505
197	0x3da4117a	0.08011146
198	0x3d93047a	0.07178588
199	0x3dfa6dbb	0.12227961
200	0xbdfba437	-0.12287181
201	0x3dbcd3fa	0.09220119
202	0x3e069033	0.13140945
203	0x3dc594b0	0.096475005
204	0xbeabf1e3	-0.33582982
205	0x3bb06666	0.0053833006
206	0x3c398bc4	0.011324827
207	0xbe75c46c	-0.2400071
208	0x3e2305f4	0.1592024
209	0xbe49dd09	-0.19713224
210	0xbe922850	-0.2854638
211	0xbe751659	-0.23934306
212	0x3c58b721	0.013227255
213	0x3d1801ac	0.03711097
214	0x3d3abbce	0.04558926
215	0xbe77a3ad	-0.24183531
216	0xbced0b5e	-0.028936084
217	0x3d9bdb6d	0.076102115
218	0xbe59e1ce	-0.21277544
219	0x3e642395	0.22279198
220	0x3d9400f6	0.07226746
221	0xbec90b7f	-0.39266583
222	0x3a8632e4	0.0010238555
223	0x3ab720e4	0.0013971594
224	0xbd80e0f7	-0.06292909
225	0x3d7bc1dc	0.061464176
226	0xbb86abc1	-0.00410983
227	0x3d956eb1	0.07296503
228	0x3de03906	0.10948376
229	0x3ddbf4d5	0.107400574
230	0x3dc8a89f	0.09797787
231	0x3deb185d	0.11479256
232	0xbe52a8c0	-0.20572186
233	0x3dfc508f	0.12320053
234	0x3dc678d8	0.09691018
235	0xbdd564e8	-0.10419637
236	0xbe8af8ae	-0.27142853
237	0x3dab8de6	0.08376674
238	0x3e1f5787	0.15560733
239	0xbcf42b1c	-0.029805712
240	0xbebe8250	-0.37208796
241	0xbed223c9	-0.41042927
242	0x3cbf8f5d	0.02338379
243	0xbdb49dcb	-0.08819159
244	0xbc436dc2	-0.011928024
245	0xbebeaa3b	-0.3723925
246	0xbeaa0c8c	-0.33212698
247	0xbc5d676c	-0.013513427
248	0xbe3ed302	-0.1863518
249	0x3c1878f5	0.009306182
250	0x3e401648	0.187585
251	0xbe86b53e	-0.26310152
252	0xbde9f59c	-0.114237994
253	0x3df01c92	0.11724199
254	0xbe524a97	-0.20536266
255	0x3e0afda6	0.13573322

output_layer.bias f4 [10]
0	0xbb31d23e	-0.002713337
1	0x3cc8c8f3	0.024509883
2	0xbcfad389	-0.030618446
3	0xbc885658	-0.016642734
4	0x3ca5d7b4	0.020244457
5	0xbc9a8edc	-0.018866949
6	0x3d179f4f	0.037017163
7	0xbdd63082	-0.10458471
8	0x3e42be28	0.19017851
9	0x3ca5e2e8	0.020249799
