DigitRecognition/ai_resources/trained_ai_models/mnist_cnn/cnn_for_mnist.pth (torch, 216844 bytes, 10 tensors)

conv1.weight f4 [6, 1, 5, 5]
0.18063593 0.05635111 0.2571811 0.07108485 0.0034701647 0.33490297 0.13474831 -0.09776019
-0.4050655 0.18286753 -0.12453562 -0.35559994 -0.49782223 -0.23263727 0.39979184 -0.23592556
-0.39480847 -0.297833 0.52324164 0.42688197 0.20507908 0.2896101 0.47550222 0.09197497
-0.2661328 0.30185285 0.18038476 0.20098872 0.15572335 0.14489089 -0.015964018 0.39347163
0.016275218 -0.1072663 -0.25690848 -0.097836755 0.48421225 0.12760858 -0.10129476 -0.24851395
-0.06303995 0.504989 -0.0178529 -0.3135301 -0.15737008 0.078703284 0.38449448 0.066506
-0.16228211 -0.2398605 -0.22105588 0.061711114 0.1253385 0.53005326 0.39281487 0.13817693
0.06609342 0.052842483 0.17599912 0.23514745 0.19923282 -0.23845077 -0.2258983 -0.24024312
0.019468002 -0.18175307 -0.1757733 0.016147763 -0.12930353 -0.12594184 -0.14516464 -0.062864944
0.0010026179 0.088249035 0.06615796 -0.032174215 0.07148482 0.10805319 -0.0861183 -0.22191545
-0.038842265 -0.080793045 -0.071418 -0.20370232 -0.14064637 -0.10876363 -0.07793675 -0.2503255
-0.18152913 -0.2327057 0.037225246 -0.20432387 -0.15173411 -0.21692073 -0.18749245 0.11618797
0.24645081 -0.01879892 0.050474633 -0.004467761 0.3167427 0.047082257 0.2927273 0.4514794
-0.14183119 0.2844086 0.1613595 0.0021510317 0.42225906 0.4987084 -0.16605626 -0.037907314
-0.11797946 -0.14701846 0.42930403 -0.27245325 -0.2500719 -0.2599337 -0.19096461 -0.19340628
0.043793827 -0.0874785 -0.18985297 -0.46732962 -0.39082557 0.22154383 0.0727401 0.24054721
-0.12000571 -0.15741152 0.276249 0.2772891 -0.06918001 -0.12498715 -0.07572462 0.3555095
-0.07470297 -0.26572612 -0.321515 0.04299829 0.0639948 -0.114535 -0.36312371 -0.16794074
0.032772113 0.1584028 -0.11089203 -0.15948458 -0.18479441 0.033587523
00000000: a0f8 383e 6cd0 663d 3ead 833e ef94 913d
00000010: b46b 633b 6778 ab3e 76fb 093e 7f36 c8bd
00000020: bf64 cfbe a041 3b3e 880c ffbd 3211 b6be
00000030: 8ee2 febe 7738 6ebe 84b1 cc3e 7896 71be
00000040: 5624 cabe 917d 98be 2af3 053f 4690 da3e
00000050: 4000 523e c647 943e 0775 f33e 605d bc3d
00000060: 8f42 88be 758c 9a3e c8b6 383e fdcf 4d3e
00000070: f175 1f3e 475e 143e f9c6 82bc 1d75 c93e
00000080: 9b53 853c 6fae dbbd 8289 83be a35e c8bd
00000090: abea f73e d3ab 023e a173 cfbd 717a 7ebe
000000a0: 171b 81bd f646 013f 3f40 92bc 0487 a0be
000000b0: 9f25 21be 302f a13d 76dc c43e 4c34 883d
000000c0: 482d 26be fe9d 75be 795c 62be cbc4 7c3d
000000d0: bc58 003e 92b1 073f 081f c93e 417e 0d3e
000000e0: fd5b 873d 5c71 583d 1d39 343e 7eca 703e
000000f0: b003 4c3e 702c 74be e251 67be 4b02 76be
00000100: 5c7b 9f3c 7a1d 3abe eafd 33be 5048 843c
00000110: 2568 04be e6f6 00be 0aa6 14be 56bf 80bd
00000120: 466a 833a e9bb b43d d37d 873d 1cc9 03bd
00000130: a266 923d fe4a dd3d cb5e b0bd ce3d 63be
00000140: 1119 1fbd d376 a5bd 9a43 92bd 5797 50be
00000150: 9a05 10be 77bf debd 4e9d 9fbd aa2a 80be
00000160: c6e2 39be 674a 6ebe 8079 183d 473a 51be
00000170: 3060 1bbe 7820 5ebe 05fe 3fbe f5f3 ed3d
00000180: 9a5d 7c3e 3100 9abc 7dbe 4e3d 4c66 92bb
00000190: 192c a23e 53d9 403d 5ae0 953e 4f28 e73e
000001a0: 323c 11be 019e 913e 6d3b 253e 53f8 0c3b
000001b0: 5732 d83e b556 ff3e a70a 2abe b344 1bbd
000001c0: 379f f1bd 028c 16be bdcd db3e fe7e 8bbe
000001d0: 6d09 80be 0816 85be 3a8c 43be 4c0c 46be
000001e0: 2861 333d ee27 b3bd d168 42be d445 efbe
000001f0: 4a1a c8be 63dc 623e c3f8 943d 0252 763e
00000200: 8ec5 f5bd 7c30 21be 8270 8d3e d6f8 8d3e
00000210: 40ae 8dbd 43f9 ffbd 8215 9bbd 5705 b63e
00000220: dffd 98bd 410d 88be 9d9d a4be fa1e 303d
00000230: b50f 833d 5391 eabd 5aeb b9be a8f8 2bbe
00000240: 0d3c 063d 5834 223e 5c1b e3bd ed4f 23be
00000250: bf3a 3dbe 1293 093d

conv1.bias f4 [6]
0.15331466 0.15541537 0.30872932 -0.33810106 0.11549681 0.0025727218
00000000: 85fe 1c3e 3525 1f3e c511 9e3e 951b adbe
00000010: 9789 ec3d 1c9b 283b

conv2.weight f4 [16, 6, 5, 5]
-0.4065622 0.14254744 -0.19785228 -0.39962265 -0.39725226 -0.22876853 -0.0033414352 -0.094271585
-0.39171472 -0.4099986 -0.13060968 0.15434167 -0.09323051 -0.62659615 0.015154552 -0.051833563
0.08796424 -0.19907618 -0.05981802 0.10867361 -0.19560738 -0.11014412 -0.059945915 0.13896868
0.16150875 0.108653024 -0.07495269 0.07577092 0.26683992 0.0044341343 0.11940421 -0.2594682
0.19422366 0.2737128 0.10896861 0.16920163 -0.26455358 0.11747246 0.27540693 0.1062617
-0.074402824 -0.050549623 0.08611931 0.057516873 -0.08974907 -0.10479041 -0.075808756 0.07420919
-0.019062249 -0.05070478 -0.15294912 -0.1572411 -0.06586082 -0.18989132 -0.22787794 -0.29671738
0.035301823 0.0874536 0.008613459 -0.18394604 -0.18516742 -0.032555062 0.14354876 -0.10372636
-0.05609383 -0.12957777 0.03529511 0.15972458 -0.04969875 -0.093491755 -0.071430616 -0.035998683
-0.11996331 -0.32560164 -0.019176228 0.11112162 -0.07029122 -0.1423406 -0.07786114 -0.020781476
0.119445585 -0.09258843 -0.13425094 0.0032140731 -0.074083164 0.0021801675 -0.020863123 -0.018064173
-0.0020491334 0.0037557445 0.12316619 -0.0135522485 0.08575024 0.075433664 -0.03295863 0.08698067
0.06252064 0.1333746 -0.0018095695 -0.010251515 -0.09979432 -0.2794081 -0.35418072 -0.12734665
-0.108255334 -0.12990858 -0.25996783 -0.093335345 0.032352123 -0.054551113 -0.035178013 0.015416849
0.10386372 -0.010977745 -0.010076353 0.12905732 0.052976627 0.05443165 -0.048512183 0.06974817
-0.08887744 -0.20706807 -0.14271969 -0.10591185 -0.09829544 0.048890408 -0.013394554 -0.15832236
0.07938341 -0.038087368 0.08321383 -0.015841244 -0.1307102 0.04267293 0.13571717 0.035324246
0.01412456 -0.09889606 0.087210335 0.03060227 0.13709326 0.0064408607 0.051617444 0.12149899
0.06390149 0.080732174 0.06966972 0.02563176 0.07743524 -0.04121994 0.040166136 0.10939474
-0.078940265 0.032502852 -0.14278883 -0.13395466 0.1005272 0.060954463 -0.29712597 -0.025184706
-0.25413948 0.114477254 0.12473824 -0.33699557 0.052652355 -0.22244835 0.2225677 0.037625242
-0.27976415 -0.114522085 -0.14829797 0.23037213 0.15263727 -0.1900392 -0.17710264 -0.1499296
-0.021485416 0.1897725 0.12691562 0.1003862 -0.031364042 -0.009535561 0.15278389 0.29126933
0.10164086 -0.13207473 -0.13807468 0.03768799 0.3228722 0.0075130523 -0.14159109 -0.19575676
-0.12282587 0.28911373 0.10851323 -0.11446124 -0.13973475 -0.12277623 0.06582849 0.1968545
0.03250384 0.099692814 -0.034764655 -0.013924853 -0.05060963 0.18480048 0.123425655 0.052240912
0.12770618 0.023200888 -0.10389798 -0.13133281 0.11034694 0.008146983 -0.05568522 -0.103056185
-0.042800784 0.15981673 0.05242741 0.16602543 -0.18036802 -0.053296346 0.107800126 0.08794171
0.026030304 -0.05383865 -0.13422415 -0.11578481 -0.13612689 0.030119956 0.045931805 0.046623584
-0.12852828 -0.09582293 -0.080616795 0.13226098 0.25932863 -0.2131914 -0.13591497 -0.10354595
0.22161509 0.17726164 -0.26715153 -0.12747753 0.01448978 0.2158849 0.117307745 0.0060779583
-0.2989131 0.017833948 0.03509055 -0.013107342 -0.33865207 -0.022235068 -0.120930515 0.103066556
00000000: ec28 d0be f5f7 113e ca99 4abe 579b ccbe
00000010: a664 cbbe 4c42 6abe fbfb 5abb 7611 c1bd
00000020: d58e c8be 56eb d1be 8bbe 05be be0b 1e3e
00000030: a3ef bebd 9b68 20bf cc4a 783c 6e4f 54bd
00000040: 9826 b43d a0da 4bbe bd03 75bd 4590 de3d
00000050: 4d4d 48be 3e93 e1bd d989 75bd ce4d 0e3e
00000060: 8d62 253e 7a85 de3d cc80 99bd c92d 9b3d
00000070: 3e9f 883e 374c 913b 328a f43d 04d9 84be
00000080: 91e2 463e 1624 8c3e ef2a df3d 3143 2d3e
00000090: 9173 87be 6795 f03d 2302 8d3e bc9f d93d
000000a0: 8260 98bd 1f0d 4fbd 525f b03d d096 6b3d
000000b0: 5cce b7bd 5b9c d6bd 9f41 9bbd fdfa 973d
000000c0: 6f28 9cbc d1af 4fbd b29e 1cbe d003 21be
000000d0: 0ae2 86bd df72 42be d658 69be 57eb 97be
000000e0: a598 103d df1a b33d 771f 0d3c 5a5c 3cbe
000000f0: 879c 3dbe 7558 05bd 72fe 123e 7c6e d4bd
00000100: a5c2 65bd 09b0 04be 9b91 103d d78e 233e
00000110: eb90 4bbd 9b78 bfbd 374a 92bd 5b73 13bd
00000120: 53af f5bd 42b5 a6be 7717 9dbc bb93 e33d
00000130: d8f4 8fbd bcc1 11be a975 9fbd ea3d aabc
00000140: e39f f43d 019f bdbd 1479 09be 33a3 523b
00000150: eab8 97bd 24e1 0e3b 24e9 aabc 51fb 93bc
00000160: c14a 06bb f022 763b 8e3e fc3d 400a 5ebc
00000170: d29d af3d f77c 9a3d a1ff 06bd ec22 b23d
00000180: d20a 803d 5a93 083e 142f edba f8f5 27bc
00000190: f760 ccbd 940e 8fbe 2d57 b5be 2967 02be
000001a0: f9b4 ddbd c106 05be 811a 85be 9a26 bfbd
000001b0: a983 043d fd70 5fbd d216 10bd f496 7c3c
000001c0: 81b6 d43d 00dc 33bc 4a17 25bc 9a27 043e
000001d0: 05fe 583d b9f3 5e3d b6b4 46bd 21d8 8e3d
000001e0: 6005 b6bd a709 54be 1c25 12be 50e8 d8bd
000001f0: 1f4f c9bd 4f41 483d d574 5bbc 421f 22be
00000200: c593 a23d 8001 1cbd 036c aa3d 7fc5 81bc
00000210: e5d8 05be cfc9 2e3d 71f9 0a3e 28b0 103d
00000220: b36a 673c 048a cabd 559b b23d 9db1 fa3c
00000230: 2d62 0c3e db0d d33b d06c 533d 76d4 f83d
00000240: c9de 823d e956 a53d 00af 8e3d b2f9 d13c
00000250: 5e96 9e3d 3dd6 28bd 3f85 243d 590a e03d
00000260: 6fab a1bd b621 053d 3c37 12be 692b 09be
00000270: 34e1 cd3d 63ab 793d e520 98be 2850 cebc
00000280: 921e 82be 0d73 ea3d c376 ff3d af8a acbe
00000290: ffa9 573d 80c9 63be cae8 633e ed1c 1a3d
000002a0: 3f3d 8fbe 8e8a eabd 6cdb 17be ace6 6b3e
000002b0: f24c 1c3e a399 42be 655a 35be 2587 19be
000002c0: 2f02 b0bc b953 423e 2bf6 013e 4897 cd3d
000002d0: 9577 00bd 0b3b 1cbc 6173 1c3e 4121 953e
000002e0: 1529 d03d 993e 07be 7363 0dbe b95e 1a3d
000002f0: 814f a53e 0d30 f63b 41fd 10be 7674 48be
00000300: 218c fbbd b706 943e 2f3c de3d a86a eabd
00000310: a016 0fbe 1b72 fbbd 16d1 863d 3a94 493e
00000320: bf22 053d bf2b cc3d 6265 0ebd 1125 64bc
00000330: 0b4c 4fbd 563c 3d3e 97c6 fc3d 91fa 553d
00000340: 69c5 023e ca0f be3c 77c8 d4bd 1c7c 06be
00000350: 94fd e13d ec7a 053c 2f16 64bd 1f0f d3bd
00000360: e04f 2fbd ffa6 233e 20be 563d 9202 2a3e
00000370: 65b2 38be 454d 5abd 50c6 dc3d c91a b43d
00000380: 813d d53c eb85 5cbd 0e72 09be 9620 edbd
00000390: d964 0bbe 20be f63c fd22 3c3d 5ff8 3e3d
000003a0: eb9c 03be d03e c4bd 6b1a a5bd 6c6f 073e
000003b0: b9c6 843e d94e 5abe 4b2d 0bbe e60f d4bd
000003c0: 11ef 623e 1384 353e 16c8 88be 7889 02be
000003d0: 8b66 6d3c ee10 5d3e 0b3f f03d 9c29 c73b
000003e0: 230b 99be 8018 923c 1cbb 0f3d 2dc0 56bc
000003f0: ce63 adbe 5126 b6bc 6baa f7bd 8f14 d33d

conv2.bias f4 [16]
0.02164858 0.105087645 0.0055883992 0.008696904 0.028392069 0.014023666 -0.037862558 -0.043089513
-0.068118684 -0.029645612 0.07518505 -0.109511375 0.017026095 0.014758707 0.011809939 -0.052823678
00000000: 5d58 b13c 3138 d73d e41e b73b 767d 0e3c
00000010: 7c96 e83c 85c3 653c c515 1bbd a17e 30bd
00000020: cf81 8bbd 5bdb f2bc 9ffa 993d 8047 e0bd
00000030: 4f7a 8b3c 81ce 713c 797e 413c a45d 58bd

fc1.weight f4 [128, 256]
0.11142262 0.25319833 0.05274995 -0.014832105 0.057794016 0.05689592 -0.08875428 0.023649115
0.09380586 0.044578686 -0.13773505 0.10346045 -0.11130279 0.01376722 -0.026548283 0.11057194
0.26492897 0.05760967 -0.23995638 -0.15600899 0.15391009 -0.061750717 -0.32099783 -0.2493833
0.08231665 0.0943774 -0.13385513 -0.13025135 -0.041563813 0.037094954 -0.11084803 -0.093182795
0.07395904 0.15454413 0.2445494 0.0023620764 0.12695599 0.07025317 0.029782727 -0.09615844
-0.011552233 0.042331416 -0.04618835 0.10070565 -0.048660107 -0.011876172 -0.022233127 -0.0033233322
-0.3709768 -0.29512668 -0.110434465 0.118271865 -0.21722993 -0.13009639 -0.0061337613 -0.0351014
-0.008381336 0.05026758 0.18004969 0.0636893 -0.11399938 -0.005583359 0.11522131 -0.00044015714
0.12705052 0.048479676 0.11484962 0.11877131 0.08433257 -0.009123924 0.07590402 0.07177736
-0.0101769725 -0.0004807243 -0.013140819 -0.1620182 -0.021604663 -0.0047331117 0.017569914 0.08759167
-0.080235146 -0.007520733 -0.0029464262 -0.026809424 0.02087116 0.056285806 0.049876023 0.1999635
-0.087637894 -0.07192611 -0.014979378 0.028080532 -0.086811654 0.073947 0.08299593 -0.06916307
0.08315055 0.095308386 0.055591684 0.09196287 0.107339896 -0.04584152 0.014601229 -0.018020047
0.016863748 -0.08269858 0.0151315285 0.013626118 -0.10377694 0.024221158 0.083309166 -0.014423226
-0.22090575 -0.11739813 0.05878195 0.04927229 0.11263105 0.124469176 0.101939894 -0.10662544
-0.05148521 -0.07359443 -0.0319654 -0.02865295 -0.04108667 0.093051724 0.07433512 -0.09226903
0.12287044 0.074568175 0.021933502 0.320043 0.024026453 0.11002403 -0.016411697 0.022289075
-0.13256283 -0.06954071 -0.053863 -0.07403769 0.067872435 0.08557279 0.0915305 0.020297363
0.23901609 0.10124603 -0.13731627 -0.25232396 0.028619887 0.015239282 -0.008692785 -0.1369485
0.1306897 0.016726434 -0.15331893 -0.12270101 0.049407758 0.054067004 -0.07583992 -0.081004724
-0.16049027 -0.27417687 -0.20237719 0.0058153444 -0.0022933073 0.042554114 0.29716593 0.18712138
0.13258943 0.043664526 0.058682468 0.1524531 0.048714224 -0.0139557915 -0.06368657 -0.014234268
-0.09297462 0.054907512 0.23806912 0.28045228 0.06242723 -0.036091067 0.08766756 0.108135
0.0024919698 0.09326844 -0.056895167 -0.083651125 -0.1205014 -0.15949076 -0.019810995 0.10795085
-0.33381584 -0.47490007 -0.24945882 0.068918884 -0.13725011 -0.10528319 -0.093164764 -0.075124346
-0.13172212 -0.18752415 0.0518665 -0.016363017 0.11446378 0.10182469 -0.0054329424 -0.057679664
-0.15221673 -0.095075734 -0.1461539 0.07192347 -0.037581287 0.029880306 0.025916748 -0.022483932
-0.02783857 0.07327034 -0.048200384 -0.044424087 -0.024083514 0.09160217 0.10976172 -0.0461406
-0.038427837 -0.18712783 -0.148326 0.06336093 0.029547792 -0.012325933 0.019753015 0.12308325
0.024836134 0.19062515 -0.063394554 -0.04879245 0.124270506 0.17421043 0.03215066 -0.22040892
0.01298426 0.05110986 0.067347325 -0.028535888 0.0089591155 -0.042034637 -0.0030778178 0.042109616
0.012300801 0.05327352 0.017544659 0.0038153646 0.035939634 0.00014519885 -0.0037235545 -0.011428961
00000000: 8b31 e43d 36a3 813e 5510 583d 5b02 73bc
00000010: 6bb9 6c3d b20b 693d cec4 b5bd cabb c13c
00000020: 491d c03d 2498 363d 6b0a 0dbe 13e3 d33d
00000030: b8f2 e3bd e88f 613c c97b d9bc 8b73 e23d
00000040: c5a4 873e 1ef8 6b3d 20b7 75be d2c0 1fbe
00000050: 9b9a 1d3e 52ee 7cbd d459 a4be 565e 7fbe
00000060: a295 a83d f048 c13d 5211 09be 9c60 05be
00000070: d13e 2abd e1f0 173d 4b04 e3bd 9fd6 bebd
00000080: d677 973d d140 1e3e 286b 7a3e 11cd 1a3b
00000090: c000 023e e5e0 8f3d e8fa f33c b7ee c4bd
000000a0: 9445 3dbc b563 2d3d ff2f 3dbd c43e ce3d
000000b0: d24f 47bd 4794 42bc 3f22 b6bc 43cc 59bb
000000c0: acf0 bdbe d81a 97be 772b e2bd 8538 f23d
000000d0: 8671 5ebe fd37 05be b8fd c8bb 7cc6 0fbd
000000e0: df51 09bc 61e5 4d3d f25e 383e 896f 823d
000000f0: 8278 e9bd 9cf4 b6bb 26f9 eb3d e4c4 e6b9
00000100: 8819 023e a092 463d 4736 eb3d 5f3e f33d
00000110: 8eb6 ac3d 837c 15bc 9173 9b3d 0200 933d
00000120: 51bd 26bc b909 fcb9 974c 57bc 19e8 25be
00000130: 43fc b0bc 3818 9bbb c8ee 8f3c 4363 b33d
00000140: 5352 a4bd 7b70 f6bb d418 41bb 709f dbbc
00000150: fff9 aa3c f28b 663d cd4a 4c3d 3bc3 4c3e
00000160: 7f7b b3bd ff4d 93bd 116c 75bc 2509 e63c
00000170: 4fca b1bd 8671 973d c5f9 a93d 5ea5 8dbd
00000180: d64a aa3d 0b31 c33d 1bb4 633d 0757 bc3d
00000190: 05d5 db3d 51c4 3bbd fe39 6f3c c79e 93bc
000001a0: d825 8a3c e05d a9bd 3bea 773c 1540 5f3c
000001b0: 0189 d4bd 736b c63c ff9d aa3d 654f 6cbc
000001c0: 1e35 62be 6e6e f0bd 58c5 703d bed1 493d
000001d0: 1cab e63d b2e9 fe3d ddc5 d03d 705e dabd
000001e0: 28e2 52bd adb8 96bd 27ee 02bd 97b9 eabc
000001f0: 7f4a 28bd e791 be3d 033d 983d 8cf7 bcbd
00000200: 7fa3 fb3d 33b7 983d e3ad b33c addc a33e
00000210: 20d3 c43c 4754 e13d d371 86bc 9497 b63c
00000220: 8dbe 07be 5c6b 8ebd 739f 5cbd 13a1 97bd
00000230: b400 8b3d c940 af3d 5874 bb3d a846 a63c
00000240: a2c0 743e 145a cf3d a39c 0cbe 9b30 81be
00000250: 4174 ea3c 2eae 793c 2f6c 0ebc 3a3c 0cbe
00000260: 85d3 053e e005 893c a3ff 1cbe ab4a fbbd
00000270: ca5f 4a3d 5d75 5d3d f651 9bbd cee5 a5bd
00000280: 9057 24be e960 8cbe f73b 4fbe a58e be3b
00000290: 504b 16bb 394d 2e3d 2226 983e bf9c 3f3e
000002a0: 86c5 073e 93d9 323d 075d 703d aa1c 1c3e
000002b0: 9188 473d d5a6 64bc 1b6e 82bd d936 69bc
000002c0: 7a69 bebd b3e6 603d 64c8 733e 7197 8f3e
000002d0: b2b3 7f3d 3ad4 13bd 0d8b b33d e275 dd3d
000002e0: 5150 233b 8603 bf3d e80a 69bd 4851 abbd
000002f0: 70c9 f6bd 8c51 23be ab4a a2bc 5615 dd3d
00000300: e9e9 aabe 1a26 f3be 2272 7fbe 5825 8d3d
00000310: 4b8b 0cbe b79e d7bd 2bcd bebd cbda 99bd
00000320: 2ae2 06be 5506 40be f871 543d bc0b 86bc
00000330: fc6b ea3d 7789 d03d d306 b2bb 8341 6cbd
00000340: b4de 1bbe 11b7 c2bd 5ea9 15be 9d4c 933d
00000350: d6ee 19bd 8bc7 f43c 5c4f d43c 3930 b8bc
00000360: b60d e4bc c30e 963d c46d 45bd 08f6 35bd
00000370: ca4a c5bc eb99 bb3d c1ca e03d edfd 3cbd
00000380: 8266 1dbd 709e 3fbe c5e2 17be 60c3 813d
00000390: 360e f23c b6f2 49bc 13d1 a13c 1213 fc3d
000003a0: 2675 cb3c 3d33 433e 01d5 81bd 98da 47bd
000003b0: 8981 fe3d 3864 323e 69b0 033d e0b2 61be
000003c0: efbb 543c 9358 513d 65ed 893d 18c4 e9bc
000003d0: 41c9 123c 832c 2cbd 37b5 49bb 227b 2c3d
000003e0: 4d89 493c 5635 5a3d d1b9 8f3c 320b 7a3b
000003f0: 7035 133d 8540 1839 e106 74bb 8940 3bbc

fc1.bias f4 [128]
0.07323754 -0.04090319 0.023108518 -0.015355341 0.009488543 0.066141896 0.032736424 -0.05300485
0.07236422 -0.08562299 -0.0902895 -0.08399759 -0.011201346 -0.0009524129 0.036712922 -0.05538899
-0.08419539 0.11755549 0.08972898 0.036620803 -0.036646284 -0.02636655 -0.09126363 0.0995293
0.08373205 -0.010621389 0.10653104 0.05310305 -0.058441613 -0.0046879463 0.0036548602 0.016909542
-0.06449615 -0.093121156 -0.03060296 -0.056906246 -0.037318457 0.06930282 -0.03370854 -0.08546589
0.0035929845 0.119917534 0.035851967 0.027797252 0.0800226 -0.057280447 0.058479447 -0.023615388
-0.04436268 -0.013646924 -0.05424019 0.015975853 -0.034962617 0.008842127 -0.046463855 0.008678596
0.02841736 0.027084624 -0.13175142 -0.055183295 -0.04372206 0.0104507515 -0.042229388 -0.008840521
-0.06970935 -0.063454024 0.06631107 -0.10961986 0.0037772555 -0.08506179 -0.045749903 -0.06759406
-0.023882797 -0.03733708 0.028508602 0.03497372 -0.03334598 -0.031923607 -0.009411062 -0.02548525
-9.495369e-05 -0.007054112 -0.08649359 0.026984518 -0.011371602 -0.054459605 -0.026061699 -0.012137781
0.018753972 -0.008759446 0.023696218 -0.02964781 -0.028364476 -0.05397428 0.004530899 0.015409757
-0.03169018 -0.042760503 0.03727526 -0.08213014 0.033416897 0.01073029 0.068531364 0.034180984
-0.012519586 0.028469218 -0.0070611797 -0.079055786 -0.08416147 0.016465731 -0.055656753 0.0048958245
-0.03823971 0.0009406394 -0.040693186 -0.094570115 -0.092684545 -0.04599481 0.0126263825 0.1312258
-0.003923449 -0.02877859 0.027842227 0.018847333 0.09572817 0.0419124 -0.098138385 0.10724508
00000000: 90fd 953d 1a8a 27bd 134e bd3c f894 7bbc
00000010: d575 1b3c 6775 873d a116 063d 9d1b 59bd
00000020: b133 943d 1b5b afbd b4e9 b8bd ee06 acbd
00000030: da85 37bc 59ab 79ba 4a60 163d 91df 62bd
00000040: a26e acbd efc0 f03d d4c3 b73d b2ff 153d
00000050: 6a1a 16bd aafe d7bc 6de8 babd 05d6 cb3d
00000060: b67b ab3d 5605 2ebc f22c da3d 9582 593d
00000070: 7960 6fbd 589d 99bb 6186 6f3b e185 8a3c
00000080: 8f16 84bd 4eb6 bebd 0fb3 fabc 8616 69bd
00000090: 3ddb 18bd a3ee 8d3d f711 0abd be08 afbd
000000a0: 4778 6b3b 5397 f53d 83d9 123d 10b7 e33c
000000b0: e4e2 a33d e79e 6abd 2588 6f3d 0f75 c1bc
000000c0: a4b5 35bd 5997 5fbc f62a 5ebd cbdf 823c
000000d0: f634 0fbd 92de 103c e250 3ebd ab30 0e3c
000000e0: 86cb e83c 93e0 dd3c d8e9 06be e107 62bd
000000f0: e715 33bd a139 2b3c b9f8 2cbd d5d7 10bc
00000100: c7c3 8ebd 2ff4 81bd 19ce 873d 6180 e0bd
00000110: d58b 773b e034 aebd 4064 3bbd c16e 8abd
00000120: dba5 c3bc c4ee 18bd df8a e93c 9a40 0f3d
00000130: cb95 08bd 54c2 02bd db30 1abc 71c6 d0bc
00000140: e021 c7b8 2e26 e7bb 8d23 b1bd a30e dd3c
00000150: f54f 3abc 0911 5fbd 587f d5bc 8bdd 46bc
00000160: eea1 993c c883 0fbc 921e c23c f7df f2bc
00000170: 9e5c e8bc 2214 5dbd f077 943b 3579 7c3c
00000180: 90cd 01bd a325 2fbd f1ad 183d d933 a8bd
00000190: 28e0 083d 19ce 2f3c 2c5a 8c3d 5c01 0c3d
000001a0: f31e 4dbc 4738 e93c 7861 e7bb 00e8 a1bd
000001b0: d95c acbd 24e3 863c 56f8 63bd 276d a03b
000001c0: 3ea1 1cbd 3e95 763a e6ad 26bd faad c1bd
000001d0: 65d1 bdbd 0e65 3cbd e3de 4e3c 0e60 063e
000001e0: 4790 80bb 14c1 ebbc 6215 e43c b965 9a3c
000001f0: 210d c43d 56ac 2b3d c7fc c8bd 4fa3 db3d

fc2.weight f4 [128, 128]
0.12693441 -0.017886251 -0.071721844 0.03939032 -0.0041299756 -0.10228743 0.03984668 -0.089310125
-0.15453236 0.3481706 0.14674017 -0.12408032 0.017281564 -0.06501475 0.11188237 0.06156388
0.2729558 0.030474402 -0.08256079 0.14801317 0.038148943 0.19745223 0.161025 -0.056799002
-0.08211365 0.11281038 -0.1203624 0.08328832 0.12839723 0.03870292 0.13138498 0.059567768
-0.04130717 0.09531025 0.018920595 -0.0019245623 0.175595 0.023087336 -0.044020824 -0.060391467
-0.029243601 0.00697119 -0.06006547 -0.06586823 0.092758946 0.06922278 -0.054311607 -0.0008856423
0.021792578 -0.013003685 0.05434533 -0.053792942 -0.06815914 -0.010799599 0.015646072 -0.1025216
0.06323767 -0.0054716864 0.19858405 0.25481996 -0.018304737 -0.031583928 -0.012017671 0.2102805
0.31207094 -0.060922056 -0.11851384 0.07947233 0.18141866 -0.08791799 -0.016704414 -0.071805656
-0.027855692 0.16655105 -0.22509964 0.044312436 0.2930039 0.21362543 0.031891875 -0.09998929
-0.08032091 -0.024533778 0.043458715 0.20647609 0.04955959 0.05750445 -0.039547313 0.107889585
0.058814652 -0.033363882 -0.06836464 -0.027973054 -0.082300134 0.22735284 0.15076616 0.080137685
-0.0010429724 0.1396281 0.08261768 -0.022142496 -0.17856708 0.023267878 0.01008783 0.07370643
-0.0673461 -0.21854527 -0.014544655 0.08031994 -0.06705949 -0.0053240894 -0.08943733 0.22112185
-0.10767237 0.046692688 -0.08143472 0.061847292 -0.015101809 0.04315411 -0.013018884 -0.068604246
-0.059836 0.027567538 0.17476937 -0.080230966 0.19550619 0.12168618 0.037693154 0.13651425
-0.020664148 0.10319005 0.09784099 0.06284559 0.2053777 0.08022645 0.038814273 -0.062973
0.23042479 -0.20996644 -0.050236378 -0.011316209 0.2057424 -0.09528486 -0.08341463 0.10308643
-0.2390482 0.10699026 -0.026775584 -0.0739399 -0.008852634 -0.042347025 -0.117475316 0.021870373
0.02834261 0.011632728 0.11074249 0.03628525 -0.091561474 0.04979484 0.07612658 -0.016593572
0.06668747 -0.10755479 0.049904246 -0.056837577 -0.2568527 -0.015071814 0.046189155 0.17714009
-0.050083503 -0.13106747 -0.009837747 0.061871547 0.052842043 0.010830134 0.07324368 -0.08329202
0.07993359 -0.04014916 -0.042805582 0.049401414 -0.082714416 0.050221864 0.034227233 0.2854503
0.01635013 0.12541085 -0.06316994 -0.18268226 0.046295065 0.06279493 0.07706066 -0.14470579
-0.061350327 0.13902344 0.21802086 -0.015656581 -0.15137039 0.21069425 0.029753624 0.10287013
0.19653395 0.029698256 -0.06576828 0.16348979 -0.32566923 -0.016583381 -0.07060108 0.061464313
-0.014993868 -0.08461473 -0.0495585 -0.16858788 -0.019694638 0.04823025 0.06585631 -0.052440044
-0.1148357 -0.046809427 0.057611294 -0.084639676 0.028224157 -0.24946208 -0.14735769 0.13737711
-0.06466518 -0.019869227 -0.0075729946 -0.040110487 0.27566212 0.103736594 0.07546282 -0.04948745
0.09390755 -0.17796606 0.16558425 0.07434743 0.012392376 0.014416087 0.10022338 -0.38592607
-0.1531048 -0.112629995 -0.077023216 0.05376153 0.051851735 -0.06821601 0.031111037 0.09361939
0.042142406 0.05802702 -0.11646966 0.14681548 -0.14616795 0.002989923 -0.042527165 -0.053412993
00000000: 18fb 013e 3086 92bc e7e2 92bd bf57 213d
00000010: bf54 87bb 127c d1bd 4636 233d 3ae8 b6bd
00000020: bb3d 1ebe 6b43 b23e 0e43 163e d31d febd
00000030: 1192 8d3c 7426 85bd 9622 e53d 682a 7c3d
00000040: ddc0 8b3e 74a5 f93c a215 a9bd c490 173e
00000050: 1142 1c3d eb30 4a3e bde3 243e 12a6 68bd
00000060: 342b a8bd 2109 e73d 9080 f6bd 1193 aa3d
00000070: 907a 033e f486 1e3d c989 063e 55fd 733d
00000080: b531 29bd 0532 c33d 5dff 9a3c 9841 fcba
00000090: 2dcf 333e a721 bd3c 2e4f 34bd 0b5d 77bd
000000a0: 4790 efbc 956e e43b 3607 76bd ece5 86bd
000000b0: 67f8 bd3d acc4 8d3d d975 5ebd 732a 68ba
000000c0: 5986 b23c 680d 55bc 3599 5e3d fd55 5cbd
000000d0: 0597 8bbd cdf0 30bc 312c 803c d8f6 d1bd
000000e0: c082 813d d54b b3bb 9e59 4b3e c377 823e
000000f0: d1f3 95bc 265e 01bd c4e5 44bc c553 573e
00000100: c3c7 9f3e 6889 79bd 62b7 f2bd 64c2 a23d
00000110: d0c5 393e 590e b4bd b2d7 88bc d80e 93bd
00000120: 9f31 e4bc 5c8c 2a3e 8580 66be f580 353d
00000130: 9b04 963e a0c0 5a3e 0ea1 023d 2fc7 ccbd
00000140: 4a7f a4bd 10fb c8bc c401 323d 786e 533e
00000150: fffe 4a3d c989 6b3d 5dfc 21bd 37f5 dc3d
00000160: a2e7 703d 91a8 08bd c302 8cbd bf27 e5bc
00000170: f98c a8bd 2fcf 683e 7262 1a3e 3a1f a43d
00000180: 59b4 88ba abfa 0e3e 7533 a93d 2e64 b5bc
00000190: 4ada 36be 479c be3c 6d47 253c 66f3 963d
000001a0: c1ec 89bd 55ca 5fbe b44c 6ebc c87e a43d
000001b0: 7c56 89bd b375 aebb eb2a b7bd c46d 623e
000001c0: 5583 dcbd d540 3f3d 3fc7 a6bd 9653 7d3d
000001d0: 946d 77bc 5dc2 303d 284d 55bc 6280 8cbd
000001e0: 9816 75bd 51d5 e13c bef6 323e 2250 a4bd
000001f0: c632 483e 9b36 f93d 2364 1a3d 64ca 0b3e
00000200: dc47 a9bc 4e55 d33d db60 c83d 30b5 803d
00000210: 884e 523e c44d a43d b7fb 1e3d fdf7 80bd
00000220: 7af4 6b3e 7101 57be a9c4 4dbd 9f67 39bc
00000230: 23ae 523e b524 c3bd 4ad5 aabd fa1e d33d
00000240: 0dc9 74be b61d db3d 7858 dbbc cd6d 97bd
00000250: a30a 11bc 1374 2dbd e696 f0bd 7f29 b33c
00000260: c32e e83c 3397 3e3c f5cc e23d d89f 143d
00000270: 9584 bbbd adf5 4b3d 41e8 9b3d 3eef 87bc
00000280: 7193 883d b045 dcbd 6568 4c3d 85ce 68bd
00000290: 3282 83be c5ef 76bc d730 3d3d 3664 353e
000002a0: 5c24 4dbd 8d36 06be 802e 21bc 056d 7d3d
000002b0: e670 583d e070 313c c800 963d 0295 aabd
000002c0: 39b4 a33d 7273 24bd e854 2fbd 2359 4a3d
000002d0: 2d66 a9bd 71b5 4d3d db31 0c3d 8b26 923e
000002e0: b5f0 853c b46b 003e 3e5f 81bd 0f11 3bbe
000002f0: e59f 3d3d a19a 803d fbd1 9d3d c12d 14be
00000300: 7b4a 7bbd 295c 0e3e dc40 5f3e 3b42 80bc
00000310: d700 1bbe 3cc0 573e dfbd f33c 93ad d23d
00000320: 3240 493e c249 f33c 85b1 86bd de69 273e
00000330: 1ebe a6be dfd9 87bc 4d97 90bd 01c2 7b3d
00000340: d7a8 75bc 7d4a adbd dbfd 4abd 4da2 2cbe
00000350: a656 a1bc 158d 453d acdf 863d 5fcb 56bd
00000360: fb2e ebbd 3ebb 3fbd d2f9 6b3d 9157 adbd
00000370: 5936 e73c fd72 7fbe efe4 16be 96ac 0c3e
00000380: 2e6f 84bd cac4 a2bc e226 f8bb e54a 24bd
00000390: 9623 8d3e da73 d43d 408c 9a3d 5ab3 4abd
000003a0: 9a52 c03d bc3c 36be eb8e 293e 7743 983d
000003b0: 6409 4b3c 7431 6c3c ea41 cd3d 1a98 c5be
000003c0: 81c7 1cbe 8eaa e6bd 59be 9dbd 0d35 5c3d
000003d0: 7c62 543d d6b4 8bbd 93dc fe3c 86bb bf3d
000003e0: 849d 2c3d bead 6d3d a587 eebd cc56 163e
000003f0: 0dad 15be 96f2 433b f730 2ebd 95c7 5abd

fc2.bias f4 [128]
-0.094374016 0.011340129 0.144658 0.07784842 -0.018666727 -0.12762071 0.12091576 -0.005148585
0.12556438 -0.010340975 -0.13403659 0.06867233 -0.06800116 -0.08370415 -0.08956932 -0.026330512
-0.057105158 0.1453608 -0.046900485 0.097910546 0.07527067 -0.13218628 0.054512043 0.10628474
0.008742696 -0.0068309773 -0.0833257 0.15908787 0.039138556 -0.1121788 -0.03739192 -0.03010467
0.032520533 0.020663721 -0.05344983 0.068133794 -0.063356824 -0.008811553 -0.008526868 -0.08915674
-0.10254178 0.017335985 0.16559045 -0.08498583 0.16128357 -0.11851101 0.078762904 -0.028602157
-0.105154924 0.07154 0.072590254 -0.0264618 -0.033025064 -0.03800878 0.14238067 -0.12606378
0.05386359 -0.1358643 0.012024655 0.041940775 -0.051535785 0.0040609455 0.05875082 -0.02513442
-0.058976084 -0.05735165 -0.034215216 0.025650345 -0.109218374 0.033749837 -0.032733668 -0.07688167
-0.08000065 -0.12916988 0.17065851 0.012541696 -0.030076195 -0.03757574 -0.049170807 0.02799256
0.07492618 -0.10975277 -0.07264106 -0.044065062 0.09599465 0.044392098 0.13836144 -0.0052087037
0.047329407 0.0988762 0.038461346 -0.11751317 -0.05034434 0.067035936 0.062921576 0.091200255
-0.016204743 -0.08648587 -0.04056211 -0.0346252 -0.04411148 0.06734965 -0.05315647 0.010502095
-0.111778915 -0.010394687 0.007905058 0.09897841 -0.0005632325 -0.045490522 0.0057563256 -0.032149184
-0.09540976 0.030042542 -0.048877046 -0.13023978 0.075775675 -0.009932255 -0.06149073 0.0184596
0.033597812 0.03911943 0.1850704 0.04199373 -0.01468062 -0.0076028006 -0.03473559 0.10815957
00000000: 2a47 c1bd f3cb 393c 3a21 143e fe6e 9f3d
00000010: f7ea 98bc 01af 02be afa2 f73d 76b5 a8bb
00000020: f393 003e 316d 29bc e340 09be 14a4 8c3d
00000030: 3144 8bbd 156d abbd 1f70 b7bd 16b3 d7bc
00000040: 19e7 69bd 76d9 143e b91a 40bd 5385 c83d
00000050: 8227 9a3d d75b 07be 0548 5f3d d0ab d93d
00000060: 863d 0f3c 64d6 dfbb aaa6 aabd eee7 223e
00000070: c04f 203d 00be e5bd 4528 19bd 129e f6bc
00000080: 4034 053d f746 a93c 35ee 5abd bb89 8b3d
00000090: 39c1 81bd 555e 10bc 47b4 0bbc cf97 b6bd
000000a0: 6d01 d2bd 3204 8e3c 8b90 293e 0d0d aebd
000000b0: 8527 253e e7b5 f2bd 724e a13d 124f eabc
000000c0: 775b d7bd 9083 923d 33aa 943d 6bc6 d8bc
000000d0: 4a45 07bd 18af 1bbd 3dcc 113e dd16 01be
000000e0: 11a0 5c3d 0320 0bbe 0f03 453c 17ca 2b3d
000000f0: 3017 53bd ae11 853b b3a4 703d b3e6 cdbc
00000100: e890 71bd 90e9 6abd 4125 0cbd ac20 d23c
00000110: e2ad dfbd 453d 0a3d bd13 06bd 2374 9dbd
00000120: 61d7 a3bd 1c45 04be 1bc1 2e3e b07b 4d3c
00000130: 5a62 f6bc 05e9 19bd 5467 49bd a750 e53c
00000140: e672 993d 0fc6 e0bd d6c4 94bd 917d 34bd
00000150: d898 c43d 7dd4 353d 9fae 0d3e c6ad aabb
00000160: 7bdc 413d 9b7f ca3d a589 1d3d bfaa f0bd
00000170: de35 4ebd 234a 893d 07dd 803d 33c7 ba3d
00000180: cfbf 84bc 811f b1bd 7424 26bd 27d3 0dbd
00000190: 3dae 34bd 9dee 893d 99ba 59bd fb10 2c3c
000001a0: 58ec e4bd 7a4e 2abc 3784 013c 31b5 ca3d
000001b0: e5a5 13ba 4554 3abd 8f9f bc3b ddae 03bd
000001c0: 3166 c3bd c71b f63c 4c33 48bd 945d 05be
000001d0: 4730 9b3d e6ba 22bc b4dd 7bbd 9638 973c
000001e0: dc9d 093d b23b 203d 1883 3d3e 9e01 2c3d
000001f0: fc86 70bc ea20 f9bb e846 0ebd c482 dd3d

output_layer.weight f4 [10, 128]
-0.11664037 0.10986223 -0.15382077 0.062624335 0.013701644 0.08773357 0.09128499 -0.22076131
0.022082709 -0.11836382 -0.10945192 0.11163391 -0.078232184 0.005271741 0.02453323 -0.26129094
0.023284614 0.11376367 -0.035689812 -0.11825474 -0.25908193 -0.026073817 -0.086770706 -0.18211345
-0.28824422 0.13298711 0.09348991 -0.20162383 -0.14240526 -0.051753268 -0.035668354 0.069300435
-0.099868596 0.0872686 0.024710923 -0.19011104 -0.10332847 0.18710603 -0.17178755 0.0057181604
-0.037724666 0.19761227 -0.0996187 0.06763194 0.11810697 -0.007851796 0.012204168 0.17489508
-0.12098436 0.10861037 0.08183006 -0.19929616 -0.07579524 -0.0353476 0.16112807 -0.30869523
-0.046451557 0.010478528 -0.15939295 -0.0758251 -0.15455182 -0.035837267 0.10105858 -0.024891904
0.11358719 -0.22403795 -0.035059907 -0.37827206 -0.011133618 -0.15359516 0.05464613 -0.020518769
-0.085875615 -0.115483396 -0.31742963 0.14038219 0.17225099 -0.10834688 -0.0008792653 0.08707876
0.052650176 -0.0059733833 -0.0057426402 0.011252617 0.009590321 0.026362268 -0.24079892 -0.050652694
-0.17681925 0.11814825 -0.0825381 -0.04212639 -0.07981673 -0.2173321 0.13748582 -0.12636554
0.06330679 -0.18138245 0.022864312 -0.09630204 -0.1385817 0.033658408 -0.0474412 0.0681955
0.021631302 -0.18277338 -0.19852313 -0.031853694 0.08342762 -0.3001625 0.14618349 -0.01851873
-0.03752412 0.11767837 0.111643285 0.15729803 -0.005858451 0.14716691 -0.0016989883 0.10291493
0.010850503 -0.08638021 -0.026144182 0.11694966 0.1423541 -0.033851314 0.001717321 0.27579272
0.1724468 -0.08256815 -0.008169016 0.056425735 -0.005851445 -0.2263833 -0.23114944 0.16779146
-0.034378365 0.19107567 -0.034335487 -0.3511719 -0.20096932 -0.05399997 0.06714953 0.14527047
0.07440566 0.08782656 -0.105220675 0.14149617 0.1335432 -0.011397184 0.03830828 -0.24131985
-0.13042794 -0.35065407 0.108037315 -0.14847687 0.04332491 0.107935816 0.006095072 -0.039410174
-0.29468164 -0.17811836 0.1435398 0.07216575 -0.27174062 -0.31692728 -0.0363908 -0.035119046
-0.03881166 0.015724847 -0.096349806 0.14271174 -0.26785445 -0.02974736 -0.32945207 -0.22359997
-0.15504485 0.21747749 -0.060063213 -0.044353116 -0.08833627 -0.190126 -0.15950245 0.014298515
-0.024245236 -0.006072401 0.034263015 0.006245918 0.12091399 -0.06495818 -0.10977185 0.10327034
-0.04944756 0.14868076 -0.07124785 -0.2340667 -0.009315178 0.018424751 -0.01676452 -0.0058614025
-0.21887806 0.010363944 0.13039397 -0.19003937 -0.06165345 -0.042282283 -0.018231317 0.14042671
-0.12110792 0.027905567 -0.014421349 -0.056094922 -0.18033032 0.09512102 -0.15853453 0.044028163
0.056357812 0.09057251 -0.056525 -0.02490572 0.013243131 -0.10865205 -0.26242352 -0.12584987
0.091096215 0.06978248 -0.054503497 0.1510608 0.14590144 -0.27529538 -0.054850783 0.1130487
0.017350817 -0.0805747 -0.33004323 0.17772196 0.033950664 0.06699764 0.031977657 0.15310545
-0.08203164 -0.08421731 -0.22669545 0.108759 0.2498862 -0.26799658 -0.065711945 0.14241675
-0.15413111 -0.1450325 -0.1797151 0.05883257 0.0029134753 -0.063014 -0.33878222 0.14760412
00000000: 25e1 eebd 73ff e03d 3183 1dbe 3041 803d
00000010: dc7c 603c a8ad b33d a0f3 ba3d 410f 62be
00000020: cce6 b43c bb68 f2bd 5428 e0bd 52a0 e43d
00000030: 3238 a0bd 92be ac3b eaf9 c83c edc7 85be
00000040: 60bf be3c edfc e83d 7b2f 12bd 8b2f f2bd
00000050: 63a6 84be c298 d5bc d7b4 b1bd f37b 3abe
00000060: bf94 93be c62d 083e a377 bf3d 7a76 4ebe
00000070: afd2 11be 3cfb 53bd fb18 12bd 63ed 8d3d
00000080: e887 ccbd e1b9 b23d 906e ca3c 78ac 42be
00000090: e09d d3bd b998 3f3e 13e9 2fbe 685f bb3b
000000a0: 2e85 1abd df5a 4a3e e404 ccbd 9d82 8a3d
000000b0: 11e2 f13d d2a4 00bc fef3 473c b217 333e
000000c0: a6c6 f7bd 1d6f de3d 8596 a73d 4b14 4cbe
000000d0: 893a 9bbd a5c8 10bd c2fe 243e 4d0d 9ebe
000000e0: fd43 3ebd 22ae 2b3c e837 23be 314a 9bbd
000000f0: d542 1ebe 19ca 12bd cdf7 ce3d 1bea cbbc
00000100: 67a0 e83d 346a 65be fa9a 0fbd e0ac c1be
00000110: c769 36bc 0d48 1dbe 9fd4 5f3d fa16 a8bc
00000120: 8edf afbd 8f82 ecbd 2386 a2be 59c0 0f3e
00000130: 9062 303e f8e4 ddbd 7f7e 66ba 5956 b23d
00000140: b6a7 573d 5fbc c3bb c22c bcbb e65c 383c
00000150: b920 1d3c aff5 d73c fe93 76be 3379 4fbd
00000160: 1b10 35be b6f7 f13d bc09 a9bd b98c 2cbd
00000170: f476 a3bd 4e8c 5ebe 15c9 0c3e f865 01be
00000180: fea6 813d 52bc 39be f04d bb3c 013a c5bd
00000190: 5ce8 0dbe 66dd 093d b451 42bd 15aa 8b3d
000001a0: 2134 b13c f228 3bbe a649 4bbe 0579 02bd
000001b0: 1adc aa3d e6ae 99be 20b1 153e 97b4 97bc
000001c0: e4b2 19bd 5b01 f13d 3ca5 e43d bc12 213e
000001d0: 40f8 bfbb ecb2 163e 96b0 deba 10c5 d23d
000001e0: 4fc6 313c 1ce8 b0bd 532c d6bc 4e83 ef3d
000001f0: 46c5 113e ada7 0abd bb17 e13a b434 8d3e
00000200: e595 303e 7d19 a9bd 56d7 05bc ac1e 673d
00000210: 7abd bfbb 06d1 67be 70b2 6cbe 86d1 2b3e
00000220: 54d0 0cbd 57a9 433e 5ea3 0cbd cecc b3be
00000230: e7ca 4dbe 132f 5dbd b185 893d c8c1 143e
00000240: ff61 983d 69de b33d f07d d7bd 5fe4 103e
00000250: 8cbf 083e 41bb 3abc 25e9 1c3d 8d1c 77be
00000260: e78e 05be ee88 b3be ab42 dd3d 520a 18be
00000270: 7675 313d 740d dd3d 2bb9 c73b 906c 21bd
00000280: 83e0 96be a964 36be 19fc 123e a3cb 933d
00000290: 9621 8bbe 4b44 a2be 850e 15bd fdd8 0fbd
000002a0: faf8 1ebd 65d1 803c 0c53 c5bd 0723 123e
000002b0: 3824 89be bcb0 f3bc f1ad a8be 64f7 64be
000002c0: 14c4 1ebe 6bb2 5e3e d804 76bd 9dab 35bd
000002d0: a5e9 b4bd 64b0 42be 9c54 23be 5244 6a3c
000002e0: f29d c6bc fefa c6bb 6057 0c3d 8faa cc3b
000002f0: c1a1 f73d cb08 85bd 10d0 e0bd 667f d33d
00000300: 8689 4abd c53f 183e 65ea 91bd 2eaf 6fbe
00000310: b09e 18bc 81ef 963c bf55 89bc 0211 c0bb
00000320: 9221 60be 88cd 293c ff85 053e ae99 42be
00000330: 5488 7cbd 3030 2dbd d859 95bc 05cc 0f3e
00000340: 6e07 f8bd 379a e43c 8647 6cbc cac3 65bd
00000350: 83a8 38be cfce c23d e056 22be e056 343d
00000360: 73d7 663d 157e b93d c286 67bd 1507 ccbc
00000370: b8f9 583c f784 debd 605c 86be cade 00be
00000380: a790 ba3d 1eea 8e3d 0f3f 5fbd afaf 1a3e
00000390: 3067 153e 84f3 8cbe 37ab 60bd 1486 e73d
000003a0: 4d23 8e3c 5904 a5bd 6dfb a8be bffc 353e
000003b0: da0f 0b3d 0f36 893d 01fb 023d adc7 1c3e
000003c0: 3400 a8bd 207a acbd da22 68be 0abd de3d
000003d0: 2be2 7f3e d936 89be fc93 86bd b2d5 113e
000003e0: 8cd4 1dbe 6683 14be 3c07 38be 6cfa 703d
000003f0: 01f0 3e3b 7c0d 81bd dd74 adbe 8925 173e

output_layer.bias f4 [10]
0.015062968 0.054824766 -0.006327899 -0.08077239 -0.050551098 -0.067317255 0.0014373767 0.012518629
0.15284693 0.021318939
00000000: abca 763c ef8f 603d 445a cfbb ff6b a5bd
00000010: ab0e 4fbd a1dd 89bd 5c66 bc3a f01a 4d3c
00000020: e883 1c3e 0ea5 ae3c
