TicTacToe/ai_resources/trained_ai_models/tic_tac_toe_nn.pth (torch, 86414 bytes, 6 tensors)

hidden_layer.weight f4 [135, 9]
3.794636 1.3399128 -0.44786063 1.3026408 -1.6521306 -1.6998591 -0.94133806 -2.2001405
0.77331805 3.1976407 3.8681216 -1.1351196 -1.03979 -3.313548 -1.9294274 1.5433707
-1.1959946 0.37001082 -2.8413956 2.5881135 3.3091874 0.182991 -3.1509914 1.2113255
-0.22958192 -2.340682 -0.21026753 2.2150033 -0.12322517 1.4427656 -4.465958 1.5039113
-2.765931 2.8203332 -1.2105423 0.36324796 1.1712924 4.079381 -3.0549595 -0.8420099
0.03651308 1.6676091 -2.5525484 -1.2316939 0.9518087 1.8600022 -0.39734286 3.561973
0.3293568 0.5017724 -1.853165 -6.496862 -0.38361534 1.3220885 -1.6589744 -1.1799705
-2.5567703 2.6167548 -0.3225693 0.9623686 0.13606727 0.80260676 1.9675852 -2.8827214
1.2224803 -2.4034536 -0.48368242 1.2081908 1.3956453 -3.115612 2.6241903 2.1785803
-0.6467958 4.167623 1.422364 -2.5797281 2.2060854 -3.3336937 -1.8959022 -0.20087668
0.20878337 1.4343756 1.9907718 -0.7844741 -1.8776791 2.1318603 -2.9413981 2.0453677
-3.8209634 1.1669939 1.3537275 1.1642126 1.3796644 0.75709784 1.1559047 0.7987153
0.9389936 -11.861305 1.324305 3.1296697 -1.3757786 -0.4182958 3.961871 -0.8521002
0.500919 -3.446562 -2.066334 -0.10777227 -3.5898771 1.5022392 -1.0230684 2.2842727
0.1261599 0.013077345 2.1039946 -2.603607 1.1629404 -0.7034193 -1.3365344 3.1803226
-3.2464888 -0.6186582 2.6907628 1.1528023 -1.7753472 0.54315466 -1.8314713 1.4649816
-1.3548294 2.5945091 0.277781 -1.8033774 1.8860232 -1.8631825 0.628298 0.34542155
-2.0611968 2.902931 -1.8673271 3.9242258 1.3928709 -1.9468647 -2.6712356 1.6551638
-0.65842474 -1.2115357 -0.033443738 3.1891842 -2.3500137 1.4767008 0.4027998 -0.29497644
-0.20586838 0.6649656 -2.0274231 1.0296634 -2.1537993 -3.457147 1.2109178 1.6385841
1.197164 1.7559899 2.972219 0.86378914 1.407968 0.7440705 1.96813 -3.28936
-1.0186641 -2.320162 -1.9300193 1.4024822 0.20651302 0.9042517 2.289752 -0.1986027
-0.77603066 0.034220826 0.59924996 -4.9806814 0.721693 2.3332322 -2.0629833 -1.5619432
-1.353115 -1.2477196 -2.7479458 2.0726213 2.9215446 0.38700202 1.3630441 -2.5482867
4.226025 -1.7215527 -2.6019003 -1.1738272 2.9460614 -0.41325197 -0.72805804 2.7367952
1.9684572 -0.71665186 -3.2962604 -0.4031947 0.7902151 -1.7783697 1.0411975 -1.3444712
-1.1687788 1.8031167 -0.49045223 3.6113014 -3.167924 -0.7611219 1.1497083 1.5686442
-0.97387904 -1.5145416 2.4166114 2.8644981 3.561531 -1.2110679 -1.4538196 -0.74704075
-1.8775938 0.5742392 3.6027002 -1.1279325 -0.40876892 -2.986761 -1.4321718 -0.43578053
2.5522976 -0.54964966 2.4487226 -0.6421208 -4.641622 0.61623806 3.1944103 -0.12261049
-1.4744587 1.1445721 -0.2041026 -4.9376054 -0.7155368 1.4319855 1.1817087 -2.7986424
-0.6247714 0.25317273 2.6478083 2.9287977 0.5489987 -2.0780554 0.17805658 -0.82166946
00000000: 51db 7240 4382 ab3f fd4d e5be efbc a63f
00000010: 0479 d3bf fc94 d9bf 88fb 70bf 1acf 0cc0
00000020: 2cf8 453f 25a6 4c40 4e8f 7740 994b 91bf
00000030: d717 85bf 2c11 54c0 7af7 f6bf 2c8d c53f
00000040: 5a16 99bf 0f72 bd3e 6dd9 35c0 a7a3 2540
00000050: bac9 5340 fe61 3b3e d8a9 49c0 b70c 9b3f
00000060: 8617 6bbe bccd 15c0 5f50 57be 9dc2 0d40
00000070: 7a5d fcbd 8bac b83f 21e9 8ec0 2a80 c03f
00000080: 0305 31c0 5780 3440 0df3 9abf a3fb b93e
00000090: e9ec 953f 4a8a 8240 7584 43c0 f68d 57bf
000000a0: bd8e 153d 3774 d53f f45c 23c0 25a8 9dbf
000000b0: bca9 733f 8d14 ee3f 8670 cbbe 5ef7 6340
000000c0: 74a1 a83e 2874 003f 8334 edbf 4be6 cfc0
000000d0: 3b69 c4be 323a a93f 4659 d4bf 4609 97bf
000000e0: 20a2 23c0 e978 2740 ce27 a5be ca5d 763f
000000f0: 3855 0b3e a377 4d3f d5d9 fb3f 827e 38c0
00000100: 3c7a 9c3f 2fd2 19c0 39a5 f7be ffa5 9a3f
00000110: 81a4 b23f 3066 47c0 bcf2 2740 dc6d 0b40
00000120: 6994 25bf 2b5d 8540 0610 b63f 441a 25c0
00000130: 8130 0d40 3d5b 55c0 ecac f2bf 9eb2 4dbe
00000140: 4fcb 553e 9f99 b73f 9cd1 fe3f 4bd3 48bf
00000150: ca57 f0bf 6670 0840 de3f 3cc0 4ee7 0240
00000160: aa8a 74c0 0e60 953f f146 ad3f eb04 953f
00000170: d898 b03f 2ad1 413f aff4 933f 9b78 4c3f
00000180: e261 703f e8c7 3dc1 d482 a93f 824c 4840
00000190: 8319 b0bf de2a d6be 4b8f 7d40 3d23 5abf
000001a0: 3a3c 003f 7994 5cc0 d13e 04c0 b5b7 dcbd
000001b0: 8cc0 65c0 6049 c03f e8f3 82bf 8631 1240
000001c0: 1030 013e 5c42 563c d9a7 0640 7fa1 26c0
000001d0: 3bdb 943f 4a13 34bf 8f13 abbf 688a 4b40
000001e0: 79c6 4fc0 6260 1ebf 7535 2c40 078f 933f
000001f0: 943e e3bf 2f0c 0b3f a76d eabf 8484 bb3f
00000200: 0d6b adbf 700c 2640 5039 8e3e 12d5 e6bf
00000210: 3569 f13f c47c eebf 23d8 203f 18db b03e
00000220: a6ea 03c0 9fc9 3940 9304 efbf 8426 7b40
00000230: 9849 b23f dd32 f9bf 86f5 2ac0 68dc d33f
00000240: 868e 28bf 9a13 9bbf 4dfc 08bd 981b 4c40
00000250: a066 16c0 8804 bd3f c63b ce3e 2707 97be
00000260: 29cf 52be 303b 2a3f 4dc1 01c0 03cc 833f
00000270: d9d7 09c0 e541 5dc0 5bff 9a3f 20bd d13f
00000280: ac3c 993f 47c4 e03f d638 3e40 4921 5d3f
00000290: 4c38 b43f 677b 3e3f afeb fb3f e084 52c0
000002a0: 9663 82bf 897d 14c0 df0a f7bf 8984 b33f
000002b0: 2678 533e 0a7d 673f 4c8b 1240 825e 4bbe
000002c0: f2a9 46bf 232b 0c3d 7268 193f be61 9fc0
000002d0: dfc0 383f ad53 1540 eb07 04c0 c1ed c7bf
000002e0: df32 adbf 47b5 9fbf 58de 2fc0 d4a5 0440
000002f0: 96fa 3a40 2125 c63e 3b78 ae3f 2117 23c0
00000300: 993b 8740 d75b dcbf 8985 26c0 f83f 96bf
00000310: 458c 3c40 c395 d3be 0362 3abf a727 2f40
00000320: 68f6 fb3f 7f76 37bf eef5 52c0 896f cebe
00000330: 894b 4a3f 9ea1 e3bf f645 853f a217 acbf
00000340: 8b9a 95bf 87cc e63f 8e1c fbbe 901f 6740
00000350: 44bf 4ac0 e3d8 42bf a429 933f 55c9 c83f
00000360: 2350 79bf 80dc c1bf c3a9 1a40 f053 3740
00000370: 20f0 6340 4604 9bbf c316 babf 103e 3fbf
00000380: fe54 f0bf 5701 133f a492 6640 1860 90bf
00000390: 294a d1be 1827 3fc0 6851 b7bf a01e dfbe
000003a0: d858 2340 d7b5 0cbf dfb7 1c40 0762 24bf
000003b0: 2b88 94c0 c7c1 1d3f 3871 4c40 351b fbbd
000003c0: 10bb bcbf 5781 923f 4600 51be dd00 9ec0
000003d0: 6b2d 37bf 4d4b b73f 3b42 973f f51c 33c0
000003e0: 05f1 1fbf db9f 813e b175 2940 6c71 3b40
000003f0: 2e8b 0c3f dcfe 04c0 7754 363e ee58 52bf

hidden_layer.bias f4 [135]
3.3622403 -1.3411775 -0.92609835 -0.1026992 -0.89415437 -0.96119946 4.0734215 2.5532014
-0.42079955 -1.355208 6.2653527 2.3445039 -1.0944834 -3.360023 3.2726882 0.99117553
-3.9097362 -3.197287 2.5554898 3.178544 3.2181282 1.1768628 2.7533827 -2.4616227
1.8320409 2.5024197 2.6732092 1.4335968 -0.93629974 1.1833012 -1.7715609 0.6227271
-3.4110594 -3.9348152 -1.1575553 0.6220012 -2.762443 -0.4762731 -4.672426 2.7625039
-0.9808116 0.2605669 1.3189322 -1.3909099 1.469465 0.22565225 2.8621454 2.1894941
2.9230108 1.2187363 -1.2076883 -0.326866 -3.1771162 2.4626365 -2.8154259 -0.19277386
2.4695914 -0.23817791 -2.553873 -3.7782311 -2.2046187 0.38862547 -2.9149036 2.3541157
4.6150017 1.477277 -1.241176 1.4052027 3.8297594 -2.4173748 -4.1137133 0.2636681
-0.45155916 1.5583632 -0.7204169 -0.5128974 1.8887297 0.87907594 -4.367157 3.3432426
0.32342783 -0.42827928 2.552754 -1.9679002 7.640774 1.2227123 -2.0901356 -0.010706602
-0.9490227 -0.7410857 3.4773479 3.6014814 0.29747063 -1.4331923 1.3157429 -2.8733053
-2.6593091 1.3237177 4.323329 0.8483029 1.5066601 -4.0810323 -0.04557735 -0.30309108
-2.3045163 3.557314 -4.3479357 1.4684932 -0.25687695 -0.7293805 -3.840377 1.8503993
3.0827115 3.295709 -1.9388685 -2.6726315 -1.1019688 2.3459194 1.4616574 0.8579656
1.6150508 -0.26624134 -2.6216767 3.1988342 0.63962674 2.7384324 3.3955033 -2.581878
2.5825157 -0.76966196 -2.2696826 3.788902 2.4083428 2.6511102 1.633305
00000000: f22e 5740 b4ab abbf c814 6dbf f553 d2bd
00000010: 4de7 64bf 2b11 76bf 7859 8240 a767 2340
00000020: 0a73 d7be 7577 adbf c57d c840 5a0c 1640
00000030: 0818 8cbf 9e0a 57c0 b973 5140 aebd 7d3f
00000040: 1e39 7ac0 5aa0 4cc0 258d 2340 446d 4b40
00000050: d0f5 4d40 71a3 963f 6c37 3040 3a8b 1dc0
00000060: 5180 ea3f a527 2040 dc15 2b40 1a80 b73f
00000070: 57b1 6fbf 6a76 973f 82c2 e2bf 0b6b 1f3f
00000080: cc4e 5ac0 03d4 7bc0 c62a 94bf 783b 1f3f
00000090: decb 30c0 11da f3be 8484 95c0 ddcc 3040
000000a0: 7816 7bbf 0669 853e c5d2 a83f 5609 b2bf
000000b0: 6e17 bc3f 6211 673e 642d 3740 ac20 0c40
000000c0: 9c12 3b40 8dff 9b3f 8895 9abf fb5a a7be
000000d0: df55 4bc0 d69b 1d40 f02f 34c0 8366 45be
000000e0: c90d 1e40 e9e4 73be a872 23c0 8ace 71c0
000000f0: 7918 0dc0 ebf9 c63e c88d 3ac0 d5a9 1640
00000100: 18ae 9340 6a17 bd3f dbde 9ebf afdd b33f
00000110: c71a 7540 45b6 1ac0 8aa3 83c0 81ff 863e
00000120: c332 e7be 7278 c73f 3e6d 38bf 3e4d 03bf
00000130: e5c1 f13f 1f0b 613f c0bf 8bc0 b0f7 5540
00000140: 5598 a53e 6c47 dbbe 5260 2340 27e4 fbbf
00000150: 3881 f440 d681 9c3f c8c4 05c0 be6a 2fbc
00000160: 27f3 72bf cbb7 3dbf de8c 5e40 ac7e 6640
00000170: 124e 983e d872 b7bf 436a a83f 3ce4 37c0
00000180: 1f32 2ac0 956f a93f b658 8a40 612a 593f
00000190: 3dda c03f d197 82c0 51af 3abd c12e 9bbe
000001a0: 327d 13c0 08ab 6340 4a22 8bc0 96f7 bb3f
000001b0: 6085 83be aeb8 3abf bdc8 75c0 e2d9 ec3f
000001c0: 254b 4540 e5ec 5240 d82c f8bf 650c 2bc0
000001d0: 500d 8dbf 8b23 1640 9717 bb3f a2a3 5b3f
000001e0: fcb9 ce3f c950 88be 8dc9 27c0 b3b9 4c40
000001f0: 94be 233f 7a42 2f40 ed4f 5940 7d3d 25c0
00000200: f047 2540 9108 45bf 7b42 11c0 5f7d 7240
00000210: 4a22 1a40 caab 2940 2310 d13f

hidden_layer2.weight f4 [135, 135]
-0.9096588 0.7054345 2.1135082 3.390457 -0.32235047 0.8665083 -2.7442756 -1.6554303
2.8448265 2.1687253 1.9612842 0.8392283 0.80573696 4.746183 -2.417593 1.8062266
0.3500191 1.4860337 -0.62591046 -1.787738 -3.653309 -2.0557818 -0.26721585 -1.4185859
0.47360367 -3.069852 -7.382139 0.63205713 -1.2791833 0.64609426 0.822767 -3.3844914
1.4653553 -0.86254066 -1.7199185 1.6207427 0.57814264 -0.005525819 2.3247669 0.3025652
1.6262599 -3.0732481 -2.4976478 0.45247933 2.686797 1.7073354 -0.7088857 -0.55747086
-1.3990098 -0.27283975 -1.2587962 -1.3724092 -0.24446888 0.39691183 1.146852 -0.34569472
-0.6181317 0.41431656 -0.24516377 0.17292419 2.5361433 -0.37440678 2.6831996 -1.316848
-0.6454095 -0.4413714 -0.50391626 -1.3249409 -0.90670335 0.7493469 -1.7907029 0.78141135
3.8028517 0.79809135 -1.745925 1.3460238 -3.7289767 -4.1895833 -0.46072486 0.22746506
2.9867 0.05404948 0.99213856 1.1847169 -1.750367 -0.7365638 -1.0565573 -0.5933398
2.2367053 -1.0985054 -0.21734142 0.51312864 -3.3439898 0.5980748 -3.2171977 1.2547858
0.07361989 -5.033646 -1.6006606 -0.8094287 -0.42495748 0.8321727 -0.006498346 2.070305
0.40433362 -2.8469827 0.45779622 -2.1668801 0.6215012 0.43908417 1.7624228 0.05466628
-2.379518 -1.4930665 0.8125748 -0.15160325 2.5590868 0.3825066 -0.25323114 0.085041866
-0.73300314 -1.0578183 4.1465926 -0.5013993 -1.4696301 0.6417383 -0.4352319 -0.08659707
-2.7069042 3.151921 -0.2753663 0.7139058 -1.3394815 -1.9515716 -0.28548095 2.4242086
1.1883624 2.6944485 1.1915661 -2.4903643 0.7432855 -1.5843971 -2.151204 -0.6101543
2.0456002 1.5472494 -0.8008914 1.1850768 3.0895352 0.034321953 0.94058686 0.020416155
-0.22283433 -1.382249 1.1676016 0.28077114 -0.69497895 2.7198477 -1.8828773 3.2988286
1.3973657 -3.63672 -0.58380425 1.9376245 -0.6357514 0.91397697 -1.734514 0.12367898
-1.4707843 -1.8229475 0.98567885 -2.7798448 -0.31742537 -0.45443758 0.29390734 2.318239
-0.49515378 0.0884174 0.017691715 -1.0259216 0.9288691 0.4779521 1.0449787 2.202472
-1.247026 2.1415246 -0.7994718 0.680127 3.990996 1.3920449 1.2250336 2.3418267
-0.21321207 -0.6349274 2.5750186 0.6583658 -1.3552912 -1.202019 0.4127263 -2.0708737
-2.290637 0.7089284 -1.9982892 -1.9352999 -3.5106187 -1.3401572 1.9619789 4.83285
1.4958546 1.5474865 3.3456788 -1.5823444 -2.937518 -4.1211257 0.34993693 -1.1103724
-4.096012 0.42164108 -8.176827 0.5838241 2.5914633 -2.5309536 2.0109966 2.031709
-0.5799339 0.09228279 0.8357875 -4.517326 0.8607466 -2.736965 -0.13715044 -2.037698
-1.3028003 -2.3419633 0.41941625 0.39563236 0.0059224637 0.77566004 0.6014854 1.0111117
0.5190082 -1.737875 1.2556002 1.7261537 0.20439415 -0.20764469 0.81352043 0.55034566
-0.7862223 -0.5565896 -0.60102886 1.8006885 -0.27703014 -0.8096859 1.7909732 -1.5796791
00000000: 66df 68bf 5b97 343f b843 0740 3ffd 5840
00000010: 1f0b a5be 7dd3 5d3f 36a2 2fc0 24e5 d3bf
00000020: a311 3640 65cc 0a40 5c0b fb3f aad7 563f
00000030: c744 4e3f bbe0 9740 d8b9 1ac0 6f32 e73f
00000040: b435 b33e 5a36 be3f ab3b 20bf 99d4 e4bf
00000050: d1cf 69c0 ee91 03c0 84d0 88be 3994 b5bf
00000060: 2e7c f23e 7578 44c0 7c3a ecc0 7fce 213f
00000070: 47bc a3bf 6f66 253f dca0 523f 829b 58c0
00000080: c390 bb3f 77cf 5cbf 4a26 dcbf 7f74 cf3f
00000090: 2801 143f ee11 b5bb fbc8 1440 d3e9 9a3e
000000a0: 4929 d03f 19b0 44c0 76d9 1fc0 5fab e73e
000000b0: 7bf4 2b40 f789 da3f 8979 35bf 69b6 0ebf
000000c0: c112 b3bf a7b1 8bbe 3c20 a1bf 1bab afbf
000000d0: 0d56 7abe 0738 cb3e 0ccc 923f e6fe b0be
000000e0: e13d 1ebf 4d21 d43e 360c 7bbe 0a13 313e
000000f0: 2c50 2240 3fb2 bfbe 8bb9 2b40 7a8e a8bf
00000100: 8f39 25bf 6ffb e1be a800 01bf aa97 a9bf
00000110: b61d 68bf 33d5 3f3f c135 e5bf 930a 483f
00000120: ec61 7340 b74f 4c3f 787a dfbf 824a ac3f
00000130: 8ea7 6ec0 1111 86c0 21e4 ebbe 9aec 683e
00000140: 1826 3f40 fd62 5d3d cbfc 7d3f cea4 973f
00000150: 070c e0bf 728f 3cbf 453d 87bf 1ee5 17bf
00000160: 2e26 0f40 d39b 8cbf c08e 5ebe 665c 033f
00000170: ee03 56c0 6e1b 193f 91e6 4dc0 d29c a03f
00000180: 06c6 963d a113 a1c0 72e2 ccbf b836 4fbf
00000190: 0794 d9be 4509 553f 14f0 d4bb e17f 0440
000001a0: d104 cf3e f734 36c0 4464 ea3e 2aae 0ac0
000001b0: b41a 1f3f a4cf e03e 1297 e13f c0e9 5f3d
000001c0: 064a 18c0 ce1c bfbf e704 503f e23d 1bbe
000001d0: 14c8 2340 e8d7 c33e 83a7 81be 6e2a ae3d
000001e0: 18a6 3bbf 9766 87bf e3b0 8440 b45b 00bf
000001f0: d71c bcbf f648 243f b7d6 debe ce59 b1bd
00000200: eb3d 2dc0 13b9 4940 d0fc 8cbe 88c2 363f
00000210: 2174 abbf 19cd f9bf 8f2a 92be 3c26 1b40
00000220: 421c 983f d871 2c40 3d85 983f 2162 1fc0
00000230: f547 3e3f 86cd cabf 54ad 09c0 1233 1cbf
00000240: 1deb 0240 450c c63f 3807 4dbf 99b0 973f
00000250: f2ba 4540 2d95 0c3d 4dca 703f c83f a73c
00000260: af2e 64be 89ed b0bf f873 953f 3cc1 8f3e
00000270: 24ea 31bf fc11 2e40 2002 f1bf 0220 5340
00000280: e1dc b23f 05c0 68c0 3274 15bf 1404 f83f
00000290: 9bc0 22bf 65fa 693f 8e04 debf 684b fd3d
000002a0: a942 bcbf 5856 e9bf 7355 7c3f fae8 31c0
000002b0: 9485 a2be 0bac e8be 067b 963e 075e 1440
000002c0: cc84 fdbe 2f14 b53d 37ee 903c 6651 83bf
000002d0: 5eca 6d3f 23b6 f43e ddc1 853f 4df5 0c40
000002e0: 8c9e 9fbf bd0e 0940 2faa 4cbf ce1c 2e3f
000002f0: 7a6c 7f40 872e b23f e7cd 9c3f 7de0 1540
00000300: 4454 5abe 9a8a 22bf 1bcd 2440 a98a 283f
00000310: 2f7a adbf c2db 99bf dd50 d33e 3289 04c0
00000320: cc99 12c0 557c 353f f1c7 ffbf e8b7 f7bf
00000330: faad 60c0 458a abbf 2022 fb3f b5a6 9a40
00000340: 2a78 bf3f 0a14 c63f 9a1f 5640 438a cabf
00000350: 4b00 3cc0 43e0 83c0 ef2a b33e af20 8ebf
00000360: 8812 83c0 57e1 d73e 49d4 02c1 7f75 153f
00000370: 89da 2540 25fb 21c0 2bb4 0040 8507 0240
00000380: 8c76 14bf c2fe bc3d 2bf6 553f ef8d 90c0
00000390: e459 5c3f 6f2a 2fc0 2a71 0cbe a569 02c0
000003a0: 29c2 a6bf bae2 15c0 babd d63e 5390 ca3e
000003b0: 3a11 c23b a891 463f f2fa 193f 1c6c 813f
000003c0: b9dd 043f b072 debf 82b7 a03f 9bf2 dc3f
000003d0: b34c 513e cfa0 54be e042 503f 74e3 0c3f
000003e0: dd45 49bf a87c 0ebf 07dd 19bf f67c e63f
000003f0: e5d6 8dbe 9347 4fbf 9c3e e53f ed32 cabf

hidden_layer2.bias f4 [135]
-1.4905704 0.79513735 2.261473 1.0067205 -1.2026259 0.79464686 0.37415507 2.0096803
0.41830862 -3.51169 -1.4788624 -0.98236275 -2.5564094 0.9592644 0.66995645 1.3019844
1.6245153 0.84073454 1.6905332 -0.6259582 -0.74392086 -0.7476878 -3.151794 -1.9560475
1.6271386 -2.8018591 -2.1997445 0.95990855 -1.2265297 -1.8894918 2.1556108 -2.520847
-1.0175958 2.2879002 0.1798998 1.934388 1.7709708 -1.8771259 -0.72868496 -2.4908657
-3.9350588 -2.5691686 2.9313035 1.5680373 3.0980272 -1.0734462 1.9174908 -1.7824551
1.5860013 -0.44017833 -1.692637 1.5425681 1.5107013 1.38801 -1.7165183 -0.65973717
-1.6221364 2.4965034 3.0462098 2.8635983 2.2279575 -1.4351972 -2.5127532 -2.2941463
2.1199067 -1.9493955 -2.4121852 -2.90186 1.9772542 -3.1947103 0.7736515 3.286211
-1.3628689 -2.0245304 1.6594963 -0.16254911 0.3413719 1.8150009 0.46638992 2.4951973
-1.0268568 -2.2958703 -1.5381594 1.5595745 -3.5992785 1.5682625 -2.8147023 2.5156004
1.5712934 -0.0060846447 -2.3104727 -3.3362927 1.9265907 1.5685569 -2.3993492 -1.3106542
0.026020072 -1.8982178 -0.87039244 0.77056336 2.5443463 -2.7111614 1.4749769 -1.8419166
-2.7568774 -2.0918424 0.23312865 1.4899768 -3.4510446 1.3137224 -2.3090582 2.0499732
2.0450125 -0.9461204 2.076664 -2.053384 2.1307237 -0.944094 0.038110487 -1.5189459
0.09733572 -2.0511975 -1.4115068 2.6859562 -2.0353606 -2.3675117 0.17587969 -2.0258617
-1.2892357 -0.09563467 0.6068342 0.884845 1.6262511 -0.55612874 1.6126246
00000000: 03cb bebf 1f8e 4b3f f9bb 1040 38dc 803f
00000010: a5ef 99bf fa6d 4b3f 4191 bf3e 9a9e 0040
00000020: 8c2c d63e 87bf 60c0 5d4b bdbf 207c 7bbf
00000030: 369c 23c0 5a92 753f 4482 2b3f 6da7 a63f
00000040: 1ef0 cf3f 613a 573f 6463 d83f cc3e 20bf
00000050: 9971 3ebf 7868 3fbf feb6 49c0 c45f fabf
00000060: 1446 d03f a951 33c0 9dc8 0cc0 91bc 753f
00000070: edfe 9cbf deda f1bf 87f5 0940 8f55 21c0
00000080: 9440 82bf f56c 1240 a737 383e 079a f73f
00000090: 2caf e23f a945 f0bf 198b 3abf 586a 1fc0
000000a0: 01d8 7bc0 426d 24c0 7a9a 3b40 72b5 c83f
000000b0: 1446 4640 af66 89bf 5770 f53f 7d27 e4bf
000000c0: 1702 cb3f 0e5f e1be 54a8 d8bf df72 c53f
000000d0: a95e c13f 50aa b13f dfb6 dbbf 89e4 28bf
000000e0: 2aa2 cfbf b6c6 1f40 1af5 4240 3245 3740
000000f0: db96 0e40 8bb4 b7bf f3d0 20c0 4bd3 12c0
00000100: 8dac 0740 cb85 f9bf 3e61 1ac0 13b8 39c0
00000110: aa16 fd3f 2276 4cc0 060e 463f 4851 5240
00000120: 7d72 aebf e891 01c0 606a d43f 4673 26be
00000130: 4cc8 ae3e f351 e83f a9ca ee3e 50b1 1f40
00000140: 0b70 83bf 8aef 12c0 68e2 c4bf 23a0 c73f
00000150: 945a 66c0 d3bc c83f 1524 34c0 99ff 2040
00000160: 2420 c93f b361 c7bb c9de 13c0 d285 55c0
00000170: 869a f63f 79c6 c83f f08e 19c0 84c3 a7bf
00000180: 0c28 d53c cdf8 f2bf 0ad2 5ebf a443 453f
00000190: 92d6 2240 ab83 2dc0 0bcc bc3f ecc3 ebbf
000001a0: ae70 30c0 bfe0 05c0 47b9 6e3e 8fb7 be3f
000001b0: eadd 5cc0 0e28 a83f 9cc7 13c0 c332 0340
000001c0: 7ce1 0240 f234 72bf 10e8 0440 a56a 03c0
000001d0: c75d 0840 25b0 71bf be19 1c3d d26c c2bf
000001e0: f357 c73d d246 03c0 41ac b4bf b5e6 2b40
000001f0: 5943 02c0 5085 17c0 ce19 343e b8a7 01c0
00000200: ad05 a5bf 1cdc c3bd 7c59 1b3f 3485 623f
00000210: ff28 d03f 745e 0ebf 7c6a ce3f

output_layer.weight f4 [9, 135]
1.3608904 -1.0600988 -0.13367534 1.265122 3.3307738 -0.39954734 1.3095486 -4.305156
-0.9566686 2.318347 -0.08829451 -1.1836157 -1.0597377 -2.3341227 0.9714715 -1.3613813
1.2518388 -1.281019 -2.3642983 0.26511836 1.3442111 0.5397431 -0.14094087 0.19093108
0.856339 -0.36919674 -4.1878805 -1.7763767 -1.6759665 0.43885863 12.669114 2.3800313
0.1705189 -1.5767105 0.67960674 -2.0456953 2.7453084 -0.36030638 1.1250423 2.432633
-1.4297695 0.19584192 2.3797746 0.4935947 -1.3246205 2.042481 4.3112283 0.90973425
-1.9511743 1.0012275 -14.080207 -0.29192927 -3.2537 1.5317073 2.3492799 1.7552398
-0.8083066 3.1086607 -2.3052964 3.1130667 1.7796069 1.9934009 -0.70679814 0.13044211
1.8374476 -1.398347 -0.77184904 3.0308597 -2.1341136 -0.15154067 1.6901156 -3.095272
-0.06920861 0.28404227 -2.4780731 0.037438903 -2.2406595 -1.2532222 1.2777907 -2.8922665
1.5279242 0.145603 -3.1855888 -2.015502 1.2790041 -2.7057571 6.26709 -0.14016977
-0.8451138 -1.4191524 -0.856015 -0.82831866 -1.5792782 0.12117283 4.14572 4.41121
-0.94454545 2.1424837 3.078483 -1.8664687 1.7321336 -2.5088089 -0.65374327 -2.25567
-8.687808 0.5464523 -1.207652 -2.099111 -2.3884664 0.87823063 -2.826772 1.8486105
0.78874487 2.2807252 1.1480991 0.27138442 -1.670614 -0.20087115 1.0736096 -0.8326579
0.688257 -8.339625 -3.7796776 -1.1621258 1.4007912 2.3702648 0.26824623 2.967472
-0.14745554 -0.022959618 0.60610455 1.2003084 -1.6094812 -2.107851 -0.7246224 0.16777378
-0.28132826 -1.1069125 1.0803037 -2.1181738 -0.9126036 -0.6377091 -2.8510187 -0.39006516
-3.8760598 0.76360196 0.092510305 -0.2743772 0.1649174 -0.42235327 -0.14603782 -1.9118695
0.9041323 13.326643 1.3572336 3.8096008 -0.09193265 -3.3549895 0.85118157 -0.3810984
-0.15415329 1.9621123 -3.4789944 0.47624838 0.7547896 -2.5634415 0.18263073 1.3331445
-1.9939507 -0.29970086 -2.8732822 -1.8687589 -1.0358113 0.58301896 -0.10618492 -2.7742836
0.44506806 -0.53551275 0.9089422 0.22948954 4.00201 -2.3446164 0.714858 10.506376
2.1729217 3.678853 -0.65672714 -2.9295933 -2.1978335 2.2537143 1.9540226 -0.26820529
1.3232138 18.469818 -1.2222687 1.0421872 -1.014124 0.67605734 1.3028995 2.0625856
0.0076554925 -1.6684674 0.6013638 1.0487442 2.0387485 -1.7491257 -1.7642509 -0.8853302
0.18580602 0.13867956 1.11866 -2.4982827 -1.7525083 1.4304236 -0.13102514 -0.5519553
1.055723 1.742166 3.0374362 -0.69815075 -1.7638358 -3.7298617 -1.6773148 -1.1479849
-1.5828272 1.182697 -0.45341793 -0.6014453 3.6247423 -0.5028435 1.156467 -3.5876572
0.36395627 0.09356158 -0.84969413 -0.70703775 -3.6610882 -1.3440717 -1.5790321 0.2860464
-1.4484742 -0.043199405 -0.1619606 2.3560405 0.80035937 2.6072292 -0.9950789 0.14844617
1.7044697 2.6678748 0.5216134 0.48298037 0.92343456 -0.09749754 0.41696262 0.43006584
00000000: a831 ae3f 51b1 87bf 30e2 08be 85ef a13f
00000010: 662b 5540 7891 ccbe 4a9f a73f d7c3 89c0
00000020: 3ce8 74bf cc5f 1440 c1d3 b4bd b880 97bf
00000030: 7ca5 87bf 4462 15c0 5bb2 783f be41 aebf
00000040: 413c a03f 6ef8 a3bf aa50 17c0 98bd 873e
00000050: 1c0f ac3f 9b2c 0a3f ce52 10be 7083 433e
00000060: 0839 5b3f 5b07 bdbe 1e03 86c0 5060 e3bf
00000070: 1286 d6bf 14b2 e03e b1b4 4a41 6f52 1840
00000080: 829c 2e3e a6d1 c9bf b5fa 2d3f acec 02c0
00000090: 22b3 2f40 147a b8be 6301 903f 42b0 1b40
000000a0: b002 b7bf c98a 483e 3a4e 1840 72b8 fc3e
000000b0: 2a8d a9bf 02b8 0240 95f5 8940 58e4 683f
000000c0: 14c0 f9bf 3928 803f 8748 61c1 c177 95be
000000d0: 9f3c 50c0 fc0e c43f 9a5a 1640 b3ab e03f
000000e0: 2eed 4ebf 4cf4 4640 fa89 13c0 7c3c 4740
000000f0: 29ca e33f c327 ff3f b9f0 34bf 9e92 053e
00000100: 7c31 eb3f 09fd b2bf e697 45bf 9bf9 4140
00000110: 5195 08c0 7a2d 1bbe b555 d83f f018 46c0
00000120: 3ebd 8dbd fd6d 913e c098 1ec0 8959 193d
00000130: f766 0fc0 9669 a0bf a58e a33f e51a 39c0
00000140: 0593 c33f f418 153e b0e0 4bc0 fcfd 00c0
00000150: 68b6 a33f 202b 2dc0 008c c840 aa88 0fbe
00000160: 6159 58bf c9a6 b5bf cd23 5bbf b10c 54bf
00000170: ca25 cabf 7629 f83d bda9 8440 a228 8d40
00000180: bbcd 71bf 741e 0940 de05 4540 72e8 eebf
00000190: 8eb6 dd3f 5390 20c0 b85b 27bf e65c 10c0
000001a0: 4301 0bc1 4ce4 0b3f 5794 9abf d657 06c0
000001b0: a2dc 18c0 b9d3 603f d5e9 34c0 459f ec3f
000001c0: 2feb 493f 67f7 1140 e9f4 923f e6f2 8a3e
000001d0: aed6 d5bf 2bb1 4dbe 0a6c 893f 1129 55bf
000001e0: 9c31 303f 1b6f 05c1 3de6 71c0 8ac0 94bf
000001f0: 204d b33f 6bb2 1740 9257 893e 10eb 3d40
00000200: 96fe 16be cf15 bcbc ab29 1b3f b5a3 993f
00000210: 7b03 cebf 08e7 06c0 db80 39bf e4cc 2b3e
00000220: 420a 90be 4faf 8dbf 6447 8a3f 2990 07c0
00000230: 64a0 69bf e740 23bf 1777 36c0 9fb6 c7be
00000240: 5d11 78c0 6b7b 433f 0b76 bd3d 2b7b 8cbe
00000250: 1be0 283e b03e d8be f08a 15be 24b8 f4bf
00000260: 3775 673f ee39 5541 d5b9 ad3f 80d0 7340
00000270: 2f47 bcbd 26b8 56c0 09e7 593f 541f c3be
00000280: 5cda 1dbe 7f26 fb3f d8a7 5ec0 d4d6 f33e
00000290: e439 413f 6d0f 24c0 8d03 3b3e 7ba4 aa3f
000002a0: c739 ffbf 6472 99be dbe3 37c0 7e33 efbf
000002b0: 7795 84bf bb40 153f 7b77 d9bd dd8d 31c0
000002c0: f6df e33e 5d17 09bf 70b0 683f 4eff 6a3e
000002d0: 7710 8040 320e 16c0 ef00 373f 1e1a 2841
000002e0: 2611 0b40 5472 6b40 451f 28bf 757e 3bc0
000002f0: 4ea9 0cc0 db3c 1040 6a1d fa3f 3452 89be
00000300: 125f a93f 30c2 9341 4d73 9cbf 6466 853f
00000310: d1ce 81bf 1812 2d3f 69c5 a63f 6701 0440
00000320: edda fa3b 5790 d5bf faf2 193f 403d 863f
00000330: db7a 0240 5ae3 dfbf f9d2 e1bf 00a5 62bf
00000340: ef43 3e3e 0402 0e3e 4030 8f3f dde3 1fc0
00000350: 3152 e0bf 1f18 b73f 742b 06be f14c 0dbf
00000360: ee21 873f 4cff de3f 5b65 4240 02ba 32bf
00000370: 5fc5 e1bf 0eb6 6ec0 40b2 d6bf 2bf1 92bf
00000380: 159a cabf 9e62 973f 6526 e8be 52f8 19bf
00000390: c7fb 6740 5aba 00bf 1c07 943f 2d9c 65c0
000003a0: 7a58 ba3e 379d bf3d 8e85 59bf 6d00 35bf
000003b0: 454f 6ac0 8b0a acbf b91d cabf ac74 923e
000003c0: 9a67 b9bf dcf1 30bd 00d9 25be 5ec9 1640
000003d0: 5ae4 4c3f d8dc 2640 7ebd 7ebf 4602 183e
000003e0: 102c da3f 76be 2a40 7588 053f 3449 f73e
000003f0: 3566 6c3f caac c7bd 207c d53e 9731 dc3e

output_layer.bias f4 [9]
0.59322333 2.5249088 0.64473337 1.3626136 -1.8106211 1.6152449 0.5716241 -2.4912915
-1.722561
00000000: 7cdd 173f 1b98 2140 3f0d 253f 1f6a ae3f
00000010: 6fc2 e7bf 58c0 ce3f f555 123f 5271 1fc0
00000020: e17c dcbf
