TicTacToe/ai_resources/trained_ai_models/tic_tac_toe_nn.pth (torch, 24320 bytes, 6 tensors)

hidden_layer.weight f4 [64, 9]
000000 0d cf ef 3e e9 b9 69 3e df be 82 3d 96 fa 2f 3e
       0.46837655 0.22824825 0.06384062 0.17185435
000010 da ab f5 3e 53 3c 4b 3e 44 d1 7d be 21 77 84 bd
       0.47982675 0.1984723 -0.2478686 -0.064680345
000020 51 fc c4 be 52 b0 b9 be d8 06 7c 3f d7 7d 88 3e
       -0.38473752 -0.36267334 0.9844794 0.26658508
000030 5c 2f 0e 3e 8b c8 e4 bd f0 21 9d bd 6b 1c 9c be
       0.13885254 -0.11171063 -0.07672489 -0.3049043
000040 63 f6 2f 3e 49 c1 06 3e 60 8c f9 be b7 ed fd bc
       0.17183833 0.1315967 -0.4873991 -0.03099714
000050 4a 1e 02 bf f9 5c 64 bd 1a b4 1b 3f 21 39 06 be
       -0.5082747 -0.055752728 0.6082169 -0.1310773
000060 48 48 2b be c2 0f 9a 3d 9e 77 f2 be c2 4b 9a 3d
       -0.16726792 0.07522537 -0.47356886 0.07533981
000070 7c 6f df be ce ef a8 bd 14 45 ea bd 87 5d 13 3f
       -0.43639743 -0.08248864 -0.11438957 0.57564586
000080 a7 b6 04 3f 2f d7 54 bf 19 f8 83 3b 6d 10 54 3e
       0.51841205 -0.83140844 0.0040273783 0.20709391
000090 f3 55 ef be f2 ab cb 3e 64 86 3b bf 1a 2b 15 3e
       -0.46745262 0.3977962 -0.7325194 0.14567223
0000a0 bc ec 83 bd 0c 4a 15 bf b5 ca 7b 3d f4 03 90 be
       -0.06441638 -0.5831611 0.061472613 -0.28128016
0000b0 99 fb db bd 77 f0 c4 be f2 23 a4 3e a9 a2 32 3f
       -0.10741348 -0.3846471 0.32058674 0.6977945
0000c0 76 92 f2 3e bb d2 59 3e 0b 2b d0 be 2d 7c 16 3d
       0.47377366 0.21271794 -0.4065784 0.036739517
0000d0 51 93 67 3e ff 23 6c 3e 39 30 56 3b ae f6 16 3f
       0.2261479 0.23060606 0.0032682552 0.58970153
0000e0 9d 08 3c be 70 4c 09 3e a9 51 bc 3e c9 d1 db be
       -0.1836266 0.13408065 0.36781052 -0.4293349
0000f0 f8 51 f7 bd 0d 3e 02 3e 29 26 94 be db 1a 8a 3d
       -0.12076181 0.12718983 -0.28935364 0.067434035
000100 2c 15 b8 be f9 e9 b2 3e cc ea 78 bf b8 0c 04 3f
       -0.35953653 0.34944132 -0.9723327 0.5158191
000110 c3 e9 80 be 04 69 09 3e 8a 11 52 3e 11 35 07 3f
       -0.25178346 0.13418967 0.20514503 0.5281535
000120 a5 4a 7a 3f 8e 0d 14 3f 67 7b d6 bd fd c0 b1 bd
       0.9777015 0.5783318 -0.10472756 -0.08679388
000130 93 85 08 3e 84 30 14 3d a0 53 1f be 03 85 7d 3e
       0.13332205 0.03617908 -0.15559244 0.24757771
000140 03 92 06 3d dd 30 f7 3e d7 f9 79 be c6 cb a1 3e
       0.03285409 0.48279467 -0.24411713 0.3160078
000150 65 7b 85 be 68 1d fb be 52 7b 19 3c a5 3b b7 bd
       -0.26070705 -0.49045873 0.009367781 -0.08946923
000160 0d 99 cc be 02 f5 2b bf 7e b5 ac be ed a5 c1 be
       -0.39960518 -0.6717073 -0.33732218 -0.37821904
000170 7e 7b 9d bf ec db a5 3e 7b c0 1f 3f d0 8b 04 3e
       -1.2303312 0.3239435 0.62403077 0.12943959
000180 61 5b 6c 3f b7 22 a5 3d f4 fc 80 3e 87 70 a9 3e
       0.92326933 0.08063262 0.25192988 0.33093664
000190 be 3e 47 3e 35 81 83 be 4e c6 b4 3d 3f f0 1e 3f
       0.19457528 -0.25684515 0.08826886 0.62085336
0001a0 6a f0 b2 be ab a4 10 be 90 6f 57 be bf f7 53 3d
       -0.34949046 -0.14125316 -0.21038651 0.05174994
0001b0 11 81 1a 3e 51 f4 e5 3e e3 a6 14 bf 51 55 1a 3e
       0.15088297 0.4491296 -0.5806715 0.15071608
0001c0 15 d7 c7 3c bb ad 92 be da 8e 61 be 4e 9c 57 3d
       0.024394551 -0.2864817 -0.2202715 0.0526393
0001d0 ba c8 00 3f 4a 36 45 be 75 4d 89 bd 00 32 26 bf
       0.50306284 -0.19258991 -0.06704227 -0.64920044
0001e0 5b 4f d0 3d 7d cc 77 3e 86 c1 3e 3e 7d 0c b5 bd
       0.10171386 0.241991 0.18628511 -0.088402726
0001f0 e8 0b 53 3e 39 d8 8b bd 20 24 ad be 52 38 0e bf
       0.2061001 -0.068283506 -0.33816624 -0.5555469
000200 e4 08 19 bf e3 4c 0c 3f 75 35 aa 3e b4 62 56 3e
       -0.5977919 0.5480482 0.3324391 0.2093609
000210 c1 f0 73 bf 8b a8 d6 3e 18 8c 73 3e e7 1a d3 3e
       -0.95289236 0.41925463 0.2378391 0.41231462
000220 ff 47 13 3e fd ef 9d 3e dc 9a 8d 3e 92 8b 82 3d
       0.14382933 0.3084716 0.2765721 0.06374277
000230 29 99 f1 3e a9 33 b3 3e 85 96 ff be 44 cb d6 3e
       0.47187164 0.3500035 -0.49919525 0.41951954
000240 c2 a6 fa bd 65 23 03 bf 94 31 c4 3e 85 93 eb 3e
       -0.12238838 -0.5122588 0.38319075 0.46010986
000250 2a 26 8f 3f 14 e6 fb be 70 89 be bc 4f 5d 6e be
       1.1183522 -0.49198973 -0.023258895 -0.23277782
000260 03 b0 0a be ae 4e a6 be 5f 10 19 3e ce 58 20 bf
       -0.13543706 -0.32481903 0.14947651 -0.62635505
000270 91 ae 64 be 2b 7d de 3c 62 90 9c be b1 69 2d 3f
       -0.22332217 0.027159294 -0.30578905 0.677394
000280 c6 bf 13 3f 74 e6 74 3e d2 88 5d bd 5e ea 6d 3e
       0.577145 0.23916036 -0.05408556 0.23233935
000290 7e d3 29 3f d1 9d 01 3e 8d aa d7 3e 9a 4f b5 bd
       0.66338336 0.12657858 0.42122307 -0.088530734
0002a0 af ad 39 be ae 73 d7 bd b8 78 03 bd 58 1a 7b 3e
       -0.18132661 -0.10520111 -0.03209755 0.24521768
0002b0 d2 f1 f0 3e a6 de d3 3d 9e 3e 42 3d 4d 8a 92 bd
       0.47059494 0.10345201 0.047422998 -0.07155285
0002c0 96 d7 33 3f cd 04 4a be e0 ef 25 3d 0c 54 a4 3e
       0.70250833 -0.19728394 0.040511966 0.32095373
0002d0 29 37 9e 3e 80 be c0 3a 72 78 d1 be 1b ae f1 be
       0.3090146 0.0014705211 -0.40912205 -0.47203144
0002e0 c7 1b 60 3e 38 55 45 bf 62 61 1f bc 48 7c ca bb
       0.21885596 -0.7708316 -0.009727808 -0.0061793663
0002f0 0f 1f 10 3d e3 58 14 bf 89 6c b1 bd 11 31 d3 bd
       0.03518587 -0.5794813 -0.086632796 -0.10312093
000300 19 b9 02 bf 52 68 62 3d ec e8 61 be 3f 7d fe bd
       -0.51063687 0.05527527 -0.22061509 -0.124262325
000310 d1 7f 64 3f 48 66 54 bd e3 07 2b 3f 9f a4 b7 3c
       0.8925753 -0.051855356 0.6680891 0.022417365
000320 d9 b3 8e be 1a 85 1a 3d 80 d7 6f 3f 09 25 7e bd
       -0.27871588 0.03772459 0.936882 -0.06204704
000330 4f ec 8f 3e 33 b3 ad be b4 79 92 be 49 ff 28 3e
       0.28109977 -0.3392578 -0.28608477 0.16503634
000340 d5 91 d4 3c ac 5f bd 3e 6a 84 4c 3e 42 05 5b 3f
       0.025948444 0.36987054 0.19972387 0.855549
000350 f3 46 f8 3e fd 1b 7b 3e 71 f9 0f bf f5 e5 55 3e
       0.4849163 0.24522395 -0.5623999 0.20888503
000360 85 79 e0 3e 79 56 96 bc 4c 7b e1 3e 16 a9 80 bf
       0.43842712 -0.01835178 0.4403938 -1.0051601
000370 64 33 86 3e 9d 3c b4 3e b6 20 de bd 81 5e b4 3d
       0.26211083 0.35202494 -0.10846083 0.08807088
000380 2a 56 a3 be a0 92 9d be c2 3a 8d be 9f ae b1 be
       -0.31901675 -0.30775928 -0.2758389 -0.34703538
000390 61 72 90 3e 7d 71 b5 be f3 43 db 3e 0f ec 96 3e
       0.28212264 -0.35438147 0.4282528 0.29476973
0003a0 1f c6 a3 be 65 a1 4f be 57 54 96 3e d5 27 6f bd
       -0.31987092 -0.20276411 0.2936122 -0.058387596
0003b0 39 79 31 3e 2a 76 22 3e 63 88 8b be aa e5 73 bf
       0.17331399 0.15865389 -0.27252492 -0.95272315
0003c0 f9 d9 09 bc 91 82 03 be 47 e8 15 be 13 3d 43 be
       -0.008413785 -0.12842776 -0.14639388 -0.19066267
0003d0 9c 61 39 3f b9 63 7d 3e 9c 04 b3 bd 46 58 bc 3d
       0.72414565 0.24745072 -0.087411135 0.09196524
0003e0 d1 c4 b5 be 28 52 29 3e 67 8e 47 be 7c a9 a8 be
       -0.35501722 0.16535246 -0.19487916 -0.32941806
0003f0 9b 09 2d bf 63 bf 60 3e 35 d9 1a bf 88 a2 66 be
       -0.6759278 0.21948008 -0.6048768 -0.22522938

hidden_layer.bias f4 [64]
000000 73 2d 1b 3f 58 b2 07 3b 32 bb d2 3c 3f 79 b9 be
       0.60616225 0.0020705666 0.025724027 -0.36225316
000010 66 8d e2 3c 88 ea 98 bc 35 33 bd be 4a 10 4c 3e
       0.027655315 -0.01866652 -0.3695313 0.19928089
000020 30 3d 07 3f 33 03 9b be cb bb dd 3e e1 4e 90 be
       0.5282774 -0.30275878 0.43307337 -0.2818518
000030 b5 91 e1 3e 8a a7 a5 be 5e 18 ed 3e 7d 0f 00 3f
       0.44056478 -0.32354385 0.46307653 0.50023633
000040 38 a3 47 3e 30 0c 49 bf 01 f0 5a bc d9 df 3a 3e
       0.19495857 -0.7853422 -0.013362885 0.18249454
000050 e6 a4 32 3f 93 0d 53 bf 7d 7c 82 be 07 69 0c bd
       0.69782865 -0.8244259 -0.25485602 -0.03427985
000060 33 bc 08 bf 88 18 3b bf a1 e9 ba 3e 4d 2c dd be
       -0.5341217 -0.73084307 0.3650637 -0.4319786
000070 ed 46 87 3d 85 51 20 3e 64 a7 c9 bd 88 cc ae bc
       0.06605325 0.15656097 -0.0984638 -0.021337762
000080 71 5f 87 bd 39 23 86 be b3 b1 0f 3f 62 df 01 bf
       -0.06610001 -0.26198748 0.5613052 -0.5073148
000090 6e fc db 3c 4d dd 48 bf a4 c8 7e bf 7d 50 d3 3e
       0.026853766 -0.7846268 -0.99524903 0.41272345
0000a0 cd 2a d3 be 3f 89 ca be 32 21 bf be 60 88 35 3e
       -0.41243592 -0.39557835 -0.37330014 0.17727804
0000b0 c7 57 c7 3e d7 c1 13 bf c7 0d d5 be 47 7d 1c bf
       0.38934156 -0.5771765 -0.41612074 -0.6112866
0000c0 07 46 9c 3e 28 a5 03 bf 07 ee 99 be b6 31 34 3f
       0.30522177 -0.51423883 -0.30064413 0.7038835
0000d0 4a 74 11 3f 76 95 10 3e c0 15 25 bf 13 81 a3 be
       0.5681807 0.14119515 -0.6448631 -0.31934413
0000e0 85 47 2f 3c 26 15 6b 3e 7d a1 8e 3e ac 30 16 bf
       0.010698204 0.22957286 0.2785758 -0.5866802
0000f0 ce fd 9a be 78 b3 23 3f 06 2e 04 3f f6 c0 7e bd
       -0.30271763 0.6394572 0.51632726 -0.06219574

hidden_layer2.weight f4 [64, 64]
000000 d7 92 20 3e ee 8c b1 3f bb e5 b3 3e 74 12 28 3e
       0.15681015 1.3871133 0.35136208 0.1641329
000010 ff 90 19 3e 24 e9 be 3d aa 3c 12 3f b4 bf 0f 3f
       0.14996718 0.09321812 0.57123816 0.5615189
000020 d9 25 e7 3d 93 4b 9e 3d 96 36 08 be 53 e3 03 3f
       0.11286516 0.077292584 -0.13302073 0.51518744
000030 d1 a3 d5 3e 42 85 9a 3e f2 de 6f be 26 72 61 bf
       0.41726544 0.30179793 -0.2342489 -0.880648
000040 fc 01 45 be c2 ee 4b 3e 3d 83 2f 3f a5 e7 ca 3e
       -0.19239038 0.19915298 0.6855963 0.39629856
000050 04 c6 1f bf 74 67 87 3e cb 91 a9 3e 73 e7 48 be
       -0.6241152 0.26446116 0.33119044 -0.19619541
000060 76 f7 a4 bb 49 12 fb 3d 6d 39 d7 be cb e7 5f 3f
       -0.0050343825 0.12259347 -0.42036 0.87463063
000070 ca 90 22 3e 98 71 8c 3e 8d 4b ba be a5 8c f4 3e
       0.15875545 0.27430415 -0.36385766 0.47763553
000080 f6 ee e6 3d f0 d2 59 bd 45 a3 ac bd 15 9b 4d bd
       0.11276047 -0.05317968 -0.08429579 -0.050196726
000090 38 4d 10 be 76 07 49 3e b1 32 49 be 07 0f 2c be
       -0.14091957 0.19631752 -0.19648243 -0.16802607
0000a0 c5 05 b2 bd f2 11 2f bd 1c bd ad 3e e8 8f de 3d
       -0.08692507 -0.042741723 0.33933342 0.10867292
0000b0 8d 41 2e be b3 6b 63 3c 7e 43 8e 3e 88 8f 24 3d
       -0.17017193 0.013880658 0.27785867 0.040175945
0000c0 0c 68 0f be 45 7b ba bd 4f 9e 83 be 09 31 5b 3f
       -0.14004534 -0.09105543 -0.25706717 0.85621697
0000d0 8e 8c f1 3e e7 e3 ea 3d 29 3e cc be 30 53 97 3e
       0.47177547 0.1146925 -0.39891174 0.29555655
0000e0 ac 52 42 3e eb 8f bd 3d 57 37 87 be 1b fc fd 3e
       0.1897685 0.09255966 -0.26409408 0.49606404
0000f0 64 54 81 3e 76 11 8a be df 7a ae 3d 07 50 4f be
       0.25259697 -0.26966447 0.085195296 -0.20245372
000100 b4 34 2a bc f9 0e b8 3e 21 bb af bd 37 7e 82 3e
       -0.010388542 0.35948923 -0.08580614 0.2548692
000110 09 85 1c bf ee 23 51 be 0a 0d 91 be 19 49 12 3f
       -0.61140496 -0.20423862 -0.2833026 0.5714279
000120 7a a0 46 3e 02 30 a9 3e d2 a7 f4 be 40 bc be 3c
       0.19397154 0.3304444 -0.47784287 0.023283124
000130 72 ac 76 be 22 d9 51 bd 19 61 3a be 9f 41 3e bf
       -0.2408922 -0.051232465 -0.18201102 -0.7431888
000140 b7 74 05 3e 20 e5 82 be 9b ca 1f 3f 8d b0 3d 3e
       0.13032804 -0.25565434 0.62418526 0.1852438
000150 ba 0a e4 bd 0c 6f 96 be fb 58 0b be 7c c9 da bc
       -0.111348584 -0.29381597 -0.13608162 -0.026707403
000160 9a 99 5f 3f fe f0 00 bf 4a e9 0b 3e 9c 63 ed 3e
       0.8734375 -0.50367725 0.13663211 0.46365058
000170 5d c6 4f be 5d 26 39 bf 00 d2 d0 3d 28 61 65 be
       -0.20290513 -0.7232416 0.10196304 -0.22400343
000180 85 43 13 be 5e d1 9c be 78 d9 60 bd de f2 d0 be
       -0.14381225 -0.30628484 -0.054894894 -0.40810293
000190 e1 63 d8 3d 99 c7 6e 3e c5 21 0b 3e c9 fa 12 3f
       0.105659254 0.23318328 0.13587101 0.5741392
0001a0 9e 6a eb bd 72 49 8e 3e 79 1d 88 3e 71 a6 d4 bd
       -0.11494945 0.2779041 0.26584986 -0.10383309
0001b0 2e a8 4f bf fb 77 0d 3d 67 d9 d0 3d 67 3b cb be
       -0.81115997 0.03453825 0.10197716 -0.39693758
0001c0 c2 97 1d bf a4 4c e0 3e 8d 3c 09 bf 36 7b ab 3c
       -0.6155969 0.43808472 -0.5360802 0.020932775
0001d0 18 45 63 bf 5c 4a 67 be f2 45 2e be 0c 0a 01 be
       -0.88777304 -0.2258696 -0.1701887 -0.12601489
0001e0 96 a4 65 bd d5 a1 bb 3e dd c5 ee bd ee 51 51 be
       -0.056065165 0.36646906 -0.11658833 -0.2044141
0001f0 df f7 97 3e be 87 9e be 85 5d 17 bd c4 bd 3f bf
       0.29681298 -0.30962938 -0.03695442 -0.74898934
000200 dd 80 94 3e 7f 2b c7 3d 52 de 03 3e 0f 4c d8 be
       0.29004565 0.09725093 0.12877777 -0.42245528
000210 70 ba 63 be 53 48 3a 3f b6 20 c7 3d f5 65 14 bf
       -0.22239089 0.7276661 0.09723036 -0.57968074
000220 37 41 3f bd 46 61 88 be 06 53 aa be a4 e2 02 3e
       -0.046693053 -0.26636714 -0.33266467 0.12781769
000230 c8 54 37 3d 2a b0 81 be a5 0d d9 be 22 07 7f 3e
       0.044758588 -0.25329715 -0.42393222 0.24905065
000240 af a5 ce 3e 21 1a 0e 3e 41 c0 98 3e 21 ab b3 3e
       0.40360782 0.13877155 0.29834178 0.35091498
000250 2d 57 23 bf b1 9d 9c be 3c cc 84 3e e9 95 9f 3e
       -0.63804895 -0.3058906 0.25937068 0.3116906
000260 2d e4 0a be d8 a2 e8 3e 96 64 cc be cb 7f ee 3e
       -0.13563605 0.4543674 -0.3992049 0.46581873
000270 65 40 c3 3d d6 14 86 3e 8e 19 19 3f 22 17 2e 3e
       0.09533767 0.26187772 0.5980462 0.17001012
000280 8a c2 65 bd c0 15 51 3f 8d 48 ef 3d 27 70 22 bf
       -0.05609373 0.8167381 0.1168376 -0.6345238
000290 37 36 58 3d c8 09 95 be c5 9b 83 3f 39 54 8e bd
       0.05278608 -0.29109025 1.0281912 -0.06949658
0002a0 47 1e 2b 3f 78 a9 ba 3e 71 74 16 bf 8c 7e 29 bf
       0.66843075 0.3645742 -0.58771425 -0.6620872
0002b0 e5 80 ae be 68 4b 75 3e c7 6d 71 3e b2 5e 21 bf
       -0.34082714 0.23954546 0.23577033 -0.6303512
0002c0 7d 26 4b 3e d2 1a 71 3e f7 0a b3 bd 76 5d ce be
       0.19838901 0.23545387 -0.08742326 -0.4030568
0002d0 23 aa 16 be 89 65 99 be f1 f3 a8 3e c5 fb a3 3e
       -0.1471334 -0.29960278 0.32998613 0.32028022
0002e0 73 59 2d bf e4 2a 89 3e 54 d4 00 bf f9 9f 43 be
       -0.67714614 0.26790535 -0.50323987 -0.19103993
0002f0 2e ba a8 3d 36 3a 03 be 16 ad ae be 02 4b 4e 3e
       0.08238636 -0.12815174 -0.3411643 0.201458
000300 7a 18 f2 be 7a 6f 63 be be ca 35 be c3 aa 27 be
       -0.472843 -0.22210494 -0.17753121 -0.16373734
000310 ad 8f 95 be eb 4e 96 bc bb 1f 84 3e 14 55 84 3e
       -0.29211178 -0.018348178 0.25805458 0.2584616
000320 a8 68 75 be de 79 4c 3e 35 5f 2c bd cd 79 27 3e
       -0.23965704 0.19968364 -0.042082984 0.16355057
000330 38 b6 7c 3f ee e8 82 bd bf 71 45 3e 15 3b bf 3e
       0.98715544 -0.06392084 0.19281672 0.37349764
000340 5c b5 05 3e 16 ec e0 be 38 ae 0f bf 71 b0 b7 3e
       0.13057464 -0.4393012 -0.5612521 0.35876802
000350 ab b8 a6 bc 4b 24 26 bf 2d 22 fc 3e 80 7c 60 3e
       -0.020351728 -0.6489913 0.49244824 0.21922493
000360 a3 96 8a be 8c 14 6d be 5d 92 48 3f 5a 10 79 bd
       -0.27068052 -0.2315237 0.7834833 -0.06080661
000370 a3 73 29 bf 2f 3b 37 bf 5f c0 80 be 95 5b 68 be
       -0.6619207 -0.7157468 -0.25146767 -0.22691186
000380 78 29 62 be 0c 0a 89 bf f9 da a0 3e 8a 21 04 3f
       -0.22086132 -1.0706191 0.31417063 0.51613677
000390 bf 88 94 3e f9 20 42 bd cf 53 f1 3d 28 9f 6f 3e
       0.2901058 -0.047394726 0.11783563 0.23400557
0003a0 2b 46 83 be 6b 02 ec be f5 02 1b 3e 94 3d 2a 3e
       -0.2563947 -0.46095595 0.15137847 0.16625053
0003b0 46 23 32 3f 44 77 82 3e f8 d8 79 bd 36 a3 99 3e
       0.69585073 0.25481617 -0.060997933 0.30007333
0003c0 24 e5 64 bf e5 2d a7 3e 63 10 97 3e 43 9a 24 3f
       -0.8941214 0.32652202 0.2950469 0.64297885
0003d0 1d d0 1d 3f 02 f1 88 3f 25 50 01 be d1 e4 0d bc
       0.6164568 1.069855 -0.12628229 -0.008660511
0003e0 c8 13 32 3d b0 51 b0 be 30 a6 e0 3d 0a 06 0a be
       0.043475896 -0.34437323 0.10969198 -0.13478866
0003f0 58 99 f9 3e e6 20 44 3e 78 71 0f be 83 fc 00 be
       0.48749804 0.19153175 -0.14008129 -0.12596326

hidden_layer2.bias f4 [64]
000000 5c 83 0f bf 3f aa 39 be f9 5b 81 bd a9 fe 32 3e
       -0.56059813 -0.1813135 -0.063163705 0.17479958
000010 cf fd e1 bc 6c 2f 03 be b3 9a ac bd 5b 83 3e be
       -0.027586846 -0.12811059 -0.08427944 -0.18604796
000020 e5 ad 41 bd 07 0c 2e bd fb 64 0e 3f 83 11 32 bd
       -0.04728498 -0.04249194 0.55622834 -0.04347373
000030 dd df 1f 3e 3d 14 0d 3c 8e 54 cb 3e c4 0f ca 3d
       0.15612741 0.008610782 0.39712948 0.09866288
000040 90 bb 81 be 9b e3 20 be bf d9 ce 3e 4e 7a 67 be
       -0.2533841 -0.15711825 0.40400502 -0.2260525
000050 a4 27 bd 3c 31 e0 9a be 52 ec da be f8 14 b3 39
       0.023090191 -0.3024917 -0.42758423 0.00034157163
000060 85 61 2d 3e 5a 12 8b be 5c 4c 6f 3e 28 9c ca be
       0.16931732 -0.2716244 0.23368973 -0.39572263
000070 68 52 41 be 7f 53 08 3f d1 23 44 3b 1a 83 aa 3e
       -0.18879092 0.53252405 0.0029928575 0.33303148
000080 3b 5f 96 3e 96 36 76 be 49 a0 8a be 2c 35 12 3f
       0.2936953 -0.2404426 -0.27075413 0.57112384
000090 8a b7 ea bd a1 e5 bc bb fe 2a 12 bf bc 68 c7 3e
       -0.114607885 -0.0057646786 -0.5709685 0.38947093
0000a0 0a 40 28 3d f5 dd 12 3e 26 21 7c bd 00 a6 5f 3e
       0.041076697 0.14342482 -0.06155505 0.21840668
0000b0 86 31 49 3e f3 96 08 3e f9 10 06 be 8e fe 1e 3f
       0.19647798 0.13338833 -0.13092412 0.6210717
0000c0 9a 9b ef 3d 37 67 38 3e 02 21 37 bf 6f ba 0f 3e
       0.116996005 0.18008123 -0.7153474 0.14035963
0000d0 11 8e 0e 3e 78 2e d4 3e 22 f7 4a 3e 83 64 8e 3e
       0.13921382 0.41441703 0.19820836 0.2781106
0000e0 00 d6 81 3e 11 47 46 be d8 12 aa 3e 6c 89 4e 3d
       0.25358582 -0.19363047 0.33217502 0.050424024
0000f0 5a 12 16 bf 18 eb 29 bf 9c ad b2 be 57 51 8b 3d
       -0.5862175 -0.6637435 -0.34898078 0.06802624

output_layer.weight f4 [9, 64]
000000 c1 a3 db be 38 6d bd bf 5c 9a c5 be d7 52 d4 bd
       -0.42898372 -1.4798956 -0.3859433 -0.10367363
000010 a7 bd 53 bc a9 f4 3a bf 32 29 8c 3d ea 4f 76 3e
       -0.012923635 -0.7302957 0.06843795 0.24053922
000020 96 ad e5 be 33 cb 60 40 ab 9c c7 bf cb 47 1f bf
       -0.44858998 3.5124023 -1.5594686 -0.6221892
000030 0d c3 f9 3f 95 7f e3 be 54 67 3e bf ce 43 9d 3e
       1.951265 -0.44433275 -0.74376416 0.30715793
000040 bb af 24 bf b6 8d ee be 55 f0 9f bf d1 08 3c 3f
       -0.64330643 -0.46592492 -1.2495219 0.7345095
000050 ab 18 a8 be dc 8d bc bf d3 0c 00 40 13 7c 75 bf
       -0.3283132 -1.4730792 2.0007827 -0.9589245
000060 06 11 d1 bf 52 91 16 bf 90 0a f9 3d 68 fc 5b 3f
       -1.633332 -0.5881549 0.12160218 0.85932016
000070 e0 3d 26 bf f2 a1 8e bf 3b 56 a7 3e ff 55 8c c0
       -0.64938164 -1.1143172 0.32682976 -4.3854976
000080 86 50 1f bd 8f 76 97 bf d9 fc 02 bf c3 6b 8c 3d
       -0.038895153 -1.1833056 -0.51167065 0.068564914
000090 20 fb 67 bf ea 1a a0 3f 5f cd 66 bf 31 ba 3a 40
       -0.9061756 1.2508214 -0.9015712 2.9176142
0000a0 35 d6 f6 be c3 dd ee be 61 d6 f2 3f 34 b3 47 3c
       -0.48210302 -0.46653566 1.8971673 0.012188721
0000b0 78 64 2e 40 73 0f 57 3f e8 4b a0 3f 61 9e 25 3f
       2.7248821 0.8400795 1.2523165 0.6469479
0000c0 dd 93 16 c0 ca f6 1d 3e bf f8 4e be 1e 44 c1 3e
       -2.3527749 0.15426174 -0.20212077 0.37747282
0000d0 ef 68 29 3e 00 5e bf bf 30 00 b0 be 09 3e 29 3f
       0.16543935 -1.4950562 -0.34375143 0.66110283
0000e0 39 72 38 3f 5c 69 a2 be 5a 0e 01 3f 5c a0 4b 3e
       0.7204929 -0.31721008 0.50412524 0.19885391
0000f0 16 75 09 40 95 71 cd bf 09 b3 0a bf 13 fa b2 bf
       2.1477714 -1.6050287 -0.54179436 -1.3982567
000100 9f 15 c1 3e 5c 58 3b bd cc 00 ce 3e de fe fd bf
       0.37711808 -0.045738563 0.40234983 -1.9843404
000110 b4 86 a9 bf 80 48 00 bf 62 e7 86 bf b3 ea 93 3e
       -1.3244233 -0.50110626 -1.0539362 0.2889
000120 e9 9b 1f bf 0b 6d ab 3f f5 27 0f 40 20 c5 18 bf
       -0.62347275 1.3392652 2.2368138 -0.5967579
000130 cc 82 5f 3f a1 a0 0b bf 71 49 45 3e 51 04 08 40
       0.87308955 -0.54541975 0.19266297 2.1252635
000140 fe b3 9e 3f 49 7d ee be f3 ab 39 40 c9 37 cf bf
       1.2398679 -0.4657996 2.90112 -1.6188899
000150 67 86 e0 3e 82 c6 9d bf a2 2c 27 c0 e5 d5 b4 bd
       0.4385254 -1.2326205 -2.6120992 -0.0882986
000160 21 e8 ce 3e 70 f1 05 3d e7 42 20 be 2e 77 25 bf
       0.40411475 0.032700956 -0.15650521 -0.6463498
000170 0f e3 49 40 b0 58 0b 3f 21 67 93 3e 0f 8f af bf
       3.1544836 0.544322 0.2878962 -1.3715533
000180 4a 34 6c 3f 1b fb 12 bf 08 7f c9 bf f2 c7 a5 3e
       0.92267287 -0.57414407 -1.5741892 0.3237911
000190 43 e3 7c c0 85 00 6c be 14 19 0e 3f b3 89 98 3e
       -3.951371 -0.23047073 0.55507016 0.29792556
0001a0 ee 9b d9 3f 7a 1a c3 3d fa 2e a1 bf b6 2a 4a 3d
       1.7000711 0.095265344 -1.2592461 0.04935714
0001b0 a7 ce 07 3e 6f b2 6a bf 54 e6 af be f8 21 12 40
       0.13262425 -0.9167852 -0.34355414 2.2833233
0001c0 98 20 98 bc ac 46 da be ac 34 8f 3e 09 61 4e 3d
       -0.01857023 -0.42632043 0.27969873 0.05038551
0001d0 bb 39 a2 bf cd 0b 17 c0 c2 d4 5b bf cf f2 b6 bf
       -1.2673868 -2.3600953 -0.8587152 -1.4292849
0001e0 d0 74 be bd 30 de 58 bf 70 e9 c8 bf 74 39 ea 3e
       -0.09299624 -0.8471403 -1.569624 0.45746958
0001f0 b5 26 ff be d2 2b a3 3f d2 ae 28 3f 48 e1 1c bf
       -0.4983422 1.2747748 0.65891755 -0.6128125
000200 54 82 cb be 74 da cc 3d d1 e8 82 bf a4 ca 1f be
       -0.3974787 0.10002604 -1.02273 -0.15604645
000210 6c e0 76 be c5 c5 55 3e d3 61 a2 bf ae 7b 04 3e
       -0.24109048 0.20876224 -1.2686104 0.12937805
000220 b7 8c 1d bf 8e 2e bf bf f0 e8 05 40 c3 13 7a bf
       -0.6154284 -1.4936082 2.0923424 -0.97686404
000230 ab da bb 3f 29 d7 37 3f 86 81 39 3f c7 67 b1 be
       1.4676107 0.71812683 0.7246326 -0.34649488
000240 95 b4 9b be bf ad e4 3e ba 27 3b bf e8 7d 90 bf
       -0.3041121 0.44663808 -0.7310749 -1.1288424
000250 5d 94 0d 3f 40 ab f0 be e5 d8 92 c0 7f 74 7d 3e
       0.5530451 -0.47005653 -4.5889764 0.24751471
000260 44 6a 6f bf 26 b5 8d be f2 37 ef 3e b9 0b 06 3f
       -0.93521523 -0.27677268 0.4672237 0.5236164
000270 24 d8 08 c0 30 38 0a c0 86 41 6b be b4 4f 14 c0
       -2.1381922 -2.1596794 -0.22974214 -2.3173647
000280 8c 50 e8 3e 4e 94 37 c0 b2 2b 4a bf 97 be d0 3f
       0.45373952 -2.8684268 -0.78972924 1.6308163
000290 4a 64 43 3f 55 48 f3 3e cc 06 84 be 57 a5 38 be
       0.76324904 0.47516122 -0.25786436 -0.18031822
0002a0 9b 6b 7e bf aa b0 14 3e e3 67 3a 3f 10 16 26 3f
       -0.9938294 0.14520517 0.7281477 0.64877415
0002b0 48 03 37 bb 2c 11 8a 3f d5 1f 75 bf 2f 9d 82 40
       -0.002792554 1.078649 -0.95751697 4.0816875
0002c0 cc 59 39 3e bb f6 f8 3e c8 1b c6 be f7 b3 d8 3f
       0.18100661 0.4862574 -0.3869307 1.6929921
0002d0 53 65 e1 3f 4c 5b 6b 3f 00 0d 48 3f 93 76 7d be
       1.7609047 0.9193618 0.78144836 -0.24752264
0002e0 96 07 9e be 67 1c 45 3e fe 22 00 bf 51 13 d1 be
       -0.30865163 0.19249116 -0.50053394 -0.4083505
0002f0 2f 4b 04 bf c9 e5 6c 3e 0d d8 3d bf 28 04 f7 bc
       -0.5167722 0.23134531 -0.7415779 -0.030153349
000300 93 79 5d bf bc 8b 62 bf aa f4 8b bf 8c e9 0a 40
       -0.8651363 -0.8849447 -1.093404 2.1705046
000310 94 e7 15 c0 2e cc ca be 0b 96 13 3f 93 de d5 bf
       -2.3422594 -0.39608902 0.5765082 -1.6708549
000320 4e 6e ca 3e 69 69 83 bf f3 36 50 3c 4e f8 42 bf
       0.3953728 -1.0266544 0.012708413 -0.7616013
000330 ea d9 bc 3d f9 a6 82 bf 75 12 9d bf 61 02 05 bf
       0.09221251 -1.0207206 -1.2271258 -0.51956755
000340 5e 9c cb 3e 30 65 00 bf 87 49 8b be b9 27 f7 bf
       0.39767736 -0.501544 -0.27204534 -1.9308997
000350 17 3e 10 bf 2d 96 c4 be 5a 9a af 3f 41 af 13 40
       -0.5634474 -0.38395825 1.3718979 2.3075716
000360 21 30 e4 3f c3 ec a2 3e 1a 4e ed 3e 91 78 b3 bf
       1.7827188 0.3182126 0.4634865 -1.4021169
000370 0c fd d4 bf 2c 06 af be 2b ec 80 be cb 47 5a 3f
       -1.6639724 -0.34184396 -0.25180182 0.852658
000380 56 6a 23 bf 0d 76 63 bf 8a 8d bb bf c8 f5 f4 be
       -0.6383413 -0.88852006 -1.4652569 -0.47843766
000390 e8 b3 50 be 42 14 a9 be 70 6e fc 3f 42 57 b6 bf
       -0.20381129 -0.33023268 1.9721203 -1.4245379
0003a0 f5 cf 23 bf 21 4a 77 3f 8d de 7f bd 7e e2 65 3b
       -0.6398919 0.96597487 -0.0624681 0.0035077627
0003b0 41 36 a3 bf d2 e1 04 c0 7f cc 23 3d 5e 81 bc 3f
       -1.2750932 -2.076283 0.039989945 1.472698
0003c0 e8 55 01 40 52 cb 1a bf dc 1a 58 3e 3a f8 6c be
       2.0208683 -0.6046649 0.21103996 -0.23141566
0003d0 21 7e 8a 3f 9e 0b 2f 40 c6 b6 13 bf e5 21 af 3e
       1.0819741 2.735084 -0.57700765 0.34205547
0003e0 d9 27 8c 3e d4 9a 9e bf a6 18 35 40 7c bf 23 3f
       0.2737415 -1.2391 2.8296294 0.63964057
0003f0 46 2f 9f bd 4a 66 91 3f 23 e6 dd be 7c 0a c4 bf
       -0.077726886 1.1359341 -0.43339643 -1.53157

output_layer.bias f4 [9]
000000 fb b6 86 bf 1b a3 36 3e f6 21 da 3e 57 7f 50 3f
       -1.0524591 0.17835657 0.42604035 0.81444305
000010 5f f3 9e bf d8 08 4f be 46 14 2c bf c7 7a 69 3f
       -1.2418021 -0.20218217 -0.67218435 0.9120297
000020 e2 d8 00 be
       -0.12582734
