TicTacToe/ai_resources/trained_ai_models/tic_tac_toe_nn_3.pth (torch, 86414 bytes, 6 tensors)

hidden_layer.weight f4 [135, 9]
000000 95 2f 6a bf 72 54 89 be a7 5c 24 c0 9a 14 f8 be
       -0.91478854 -0.2682224 -2.568155 -0.48453218
000010 37 89 c5 3f 31 8c 20 3f c3 93 36 c0 af 1d 2c 40
       1.54325 0.62713915 -2.8527687 2.6893117
000020 78 74 df 3f c6 ca 3c c0 de a2 ce 3f e3 ed ae bf
       1.7457418 -2.9498763 1.6143453 -1.3666347
000030 3d 39 6c 3f 76 0e da 3f fe 8b c1 bf 9d eb 9b 3d
       0.9227484 1.7035663 -1.5120847 0.07613299
000040 52 0f 51 3e 3f 82 c5 3f 01 ba 38 be 0a 04 be 3f
       0.20416 1.5430373 -0.18039705 1.4844983
000050 b7 f0 d5 3f da bd 56 bf b1 db 05 40 75 16 8b bc
       1.6714085 -0.8388344 2.091534 -0.016978482
000060 33 3d 50 c0 9f 34 82 3e 0c 1a 80 bf ff 9a e7 3f
       -3.2537353 0.25430772 -1.0007949 1.8094176
000070 b2 ed 0d c0 c1 ff 16 c0 46 9d b6 be 7f f1 c2 3f
       -2.2176328 -2.35936 -0.35666865 1.5229949
000080 df cb 6d bf 32 fc 0d 40 43 2f 82 bf 8e ee f1 3f
       -0.9288921 2.2185178 -1.0170673 1.8900926
000090 ae 38 84 3e 13 ac 89 bd a6 61 e4 3f d4 7e 26 c0
       0.25824493 -0.06722274 1.78423 -2.601491
0000a0 de 63 95 bf 75 d0 86 3f 25 71 4c bd c4 c1 83 3f
       -1.1671102 1.0532366 -0.04991259 1.0293508
0000b0 46 3f 89 3e e9 b7 e4 be 81 d1 13 3f 30 96 96 bf
       0.26806086 -0.44671562 0.5774155 -1.1764584
0000c0 b3 cf 1e c0 37 1b 09 40 ea 27 a1 bf 80 8c 00 40
       -2.481427 2.142286 -1.2590306 2.0085754
0000d0 92 81 e2 3f 53 7e e0 bf fc c0 65 bf f3 dd bb bf
       1.7695792 -1.7538551 -0.89747596 -1.4677109
0000e0 6c 53 42 bf 1c 0f 9a 3f 53 67 c8 3f fc dc 2f be
       -0.7590854 1.2035861 1.5656532 -0.17174143
0000f0 ce 98 3d bc 37 03 bb 3f 60 2b c6 3d 19 03 15 bf
       -0.011572076 1.4610356 0.09676242 -0.5820785
000100 07 c4 4e bf 22 c5 13 bf f5 2e 45 bf a2 21 8b bf
       -0.80767864 -0.57722676 -0.77024776 -1.0869639
000110 16 82 94 bf d6 ef ce 3f c1 29 05 40 54 0e ed 3f
       -1.1602199 1.6166942 2.0806735 1.8519998
000120 e5 2e 74 3f fe 75 4b be 88 43 e2 3f 53 22 99 3f
       0.95384055 -0.19869229 1.7676859 1.19636
000130 b2 4b 1b c0 52 c4 be bf 34 0c 2b 40 69 1a ee 3e
       -2.426495 -1.4903662 2.6726198 0.46504524
000140 c5 17 33 c0 c0 4c 68 3f 97 6a 68 3d 88 4c 85 3f
       -2.7983258 0.9074211 0.056742277 1.041398
000150 de d6 6e 3f ec 00 d8 c0 5a 0d 37 3e ef 34 53 3e
       0.9329661 -6.7501125 0.17876187 0.20625661
000160 ba 3d 8b 3f 6d fe e1 3e da e3 3a 3f 57 8c 53 3f
       1.0878212 0.44139424 0.73003924 0.82636017
000170 ac eb 36 c0 92 55 89 bf 38 ae a4 bf 35 52 e9 bf
       -2.8581343 -1.0729239 -1.2865667 -1.8228213
000180 54 76 5c 40 8a e2 14 40 e4 93 f6 3e e5 98 79 3f
       3.4447222 2.3263268 0.48159707 0.97498924
000190 bc 11 29 3e 21 f6 19 40 22 c3 1c 3f 8c 98 0f c0
       0.16510671 2.4056475 0.6123525 -2.2436857
0001a0 88 fd 79 bf 3a 53 12 40 01 7d 87 bf 82 5f 29 c0
       -0.97652483 2.2863297 -1.0585023 -2.6464543
0001b0 24 9e 38 bf 68 13 66 3e 27 58 ac bf 92 cf 14 3e
       -0.72116303 0.2246834 -1.3464402 0.14532307
0001c0 88 cb 6f c0 19 c1 d5 3f e2 a7 85 3f 64 21 e9 3e
       -3.7467976 1.6699554 1.0441859 0.45533288
0001d0 43 ec 74 3f 4b 99 0e 3f 34 55 e4 3e cc 9c 54 3f
       0.95673007 0.55702657 0.44596255 0.83051753
0001e0 7d 8a db 3e c4 01 60 c0 bc d4 b4 3e 1b a2 ec bd
       0.42879096 -3.5001078 0.35318553 -0.11554357
0001f0 3e 48 8b 3e c6 8e 54 3e cc 39 a4 b9 7e 45 7b bd
       0.27203554 0.20757589 -0.0003132358 -0.06134557
000200 2a ea a0 be 54 e3 ef bf f8 3d 56 bf 23 48 c3 bc
       -0.31428653 -1.874125 -0.83688307 -0.023838108
000210 eb 95 b3 bf 0a 17 1d 3e ab 30 83 40 ce 34 8d bd
       -1.4030126 0.1534082 4.099691 -0.06894837
000220 59 e9 25 3f fa 93 16 40 58 f3 35 bf 91 96 c4 3f
       0.64809185 2.3527818 -0.7107444 1.5358449
000230 82 fb 2a c0 31 ee 8b bf df ab 19 3f ec 6c 27 3e
       -2.6716008 -1.0932065 0.6002788 0.16350144
000240 87 a6 3f 40 c3 f5 3b bf ab cf d2 3f 83 61 51 bf
       2.994539 -0.7342188 1.6469625 -0.81789416
000250 b9 15 9e bf 05 e8 ac bf b5 bb c9 bf 17 a8 65 3f
       -1.2350379 -1.3508307 -1.5760409 0.8970961
000260 1f c0 f3 bc e9 e0 d2 3f 74 0a ab bf 91 6c 55 3e
       -0.029754696 1.6474887 -1.3362565 0.20842196
000270 ae 21 16 c0 d8 55 bf bf 36 77 0b 3e a2 4c 7e 3f
       -2.3458056 -1.4948072 0.13619694 0.9933568
000280 e9 49 1e 3e d9 a9 92 3f 08 72 44 3e de 60 01 c0
       0.15457882 1.1458083 0.19184124 -2.0215373
000290 de 09 61 40 1d 05 2e c0 81 b3 91 bf 7b 01 cc bf
       3.5162272 -2.719062 -1.1382905 -1.5937952
0002a0 18 17 fc 3f 04 e4 75 3f f2 94 bd 3f ff bb 16 3f
       1.9694548 0.9605105 1.481108 0.5888061
0002b0 49 69 a6 3e fe f1 60 3f b3 38 3b c0 14 5d 5c bf
       0.325022 0.8786925 -2.9253356 -0.86079526
0002c0 e8 5a d3 bf 87 81 db be da 82 fb 3f ad 32 03 40
       -1.6512117 -0.4287226 1.9649308 2.049968
0002d0 8a 37 e4 3f 80 9f a8 bf 54 46 90 bf e8 a8 e1 bf
       1.7829449 -1.3173676 -1.1271462 -1.7629671
0002e0 7a d2 a2 3f 24 fb dc 3f d3 c1 9b 3f 2e 77 bf bf
       1.2720482 1.7264142 1.2168525 -1.4958246
0002f0 30 dc 9a be 7e a7 f5 3f 88 c9 07 40 b1 c3 13 bf
       -0.30246115 1.919174 2.1216755 -0.57720476
000300 e8 0b a1 3f a8 0b 10 c0 b7 5d 00 c0 0d 39 5a be
       1.2581758 -2.2507114 -2.00572 -0.21310826
000310 55 36 9e 3f 15 68 d1 bf bf 27 eb bf 53 21 78 bf
       1.2360331 -1.6359888 -1.8371505 -0.9692585
000320 f3 da fb 3d ab 62 fc 3f 1a db 18 3d cc a0 ac 3f
       0.122976206 1.9717611 0.037318327 1.3486571
000330 d8 51 19 3f fc aa 37 c0 36 ea d3 3f 1f 86 80 3f
       0.5989051 -2.869811 1.655585 1.004093
000340 5b c4 f6 3f 8f 41 56 bf 76 f4 b6 3d 19 d3 ea bf
       1.9278673 -0.83693784 0.08933346 -1.8345672
000350 ab 8c d4 3f 2f 3e ba bf e9 8d 28 be d4 cd 69 bf
       1.6605428 -1.4550227 -0.16460384 -0.91329694
000360 7d f1 18 c0 39 ad 3f 3f 43 e0 2e 3f cc 8c 43 3e
       -2.3897393 0.7487369 0.68310946 0.19096678
000370 d3 f3 93 3e 6f 22 53 40 3a e5 b5 3d 10 e3 54 c0
       0.2889696 3.2989767 0.08881612 -3.3263588
000380 36 cc b3 be d3 d0 07 40 1b 0a 1e 40 bf a0 b4 3f
       -0.35116738 2.1221206 2.4693668 1.4111556
000390 7e bf cb bf 1f 80 f6 bf d1 fb 0b bf 59 e2 a4 be
       -1.5917814 -1.925785 -0.54681116 -0.3220394
0003a0 4c 34 89 3f c5 57 23 c0 a7 9d 54 be 95 38 99 3e
       1.0719085 -2.552232 -0.20763265 0.2992598
0003b0 7b cb 88 bf bf ee 5d bd 41 a3 6f be 4f f4 bb bf
       -1.0687097 -0.054182764 -0.2340212 -1.4683932
0003c0 6f ce 4d 40 e8 e1 c7 bf f5 3f 5d 3f a1 4e 33 3e
       3.2157247 -1.5615816 0.86425716 0.17510463
0003d0 2d b2 e2 bf 22 a0 00 3e bd e7 f3 be 18 a9 60 c0
       -1.7710625 0.12561086 -0.4763774 -3.5103207
0003e0 09 f6 ea 3e d6 b2 24 40 f9 90 66 3e 09 5e 11 40
       0.45890835 2.5734153 0.2251624 2.2713645
0003f0 34 48 16 c0 48 1b eb 3c 67 87 e8 3e 72 e5 b5 3e
       -2.348157 0.028699532 0.45415804 0.35526615

hidden_layer.bias f4 [135]
000000 ab 6c ec 3f c4 b8 92 bf 31 12 5b 3f 0f bf 0a be
       1.8470663 -1.1462636 0.8557463 -0.13549446
000010 7e 78 94 3f 0a 6e 1e 3f bc 22 37 40 1b 31 84 c0
       1.1599271 0.61886656 2.861495 -4.1309943
000020 f7 78 65 3f cc 1f 70 40 df f6 58 3d 3c 9e 3b 3f
       0.896377 3.7519407 0.05296981 0.7328832
000030 5e f7 bd 3f 5a 70 13 40 81 17 03 c0 7f ae d8 bf
       1.4841115 2.3037324 -2.0483096 -1.6928252
000040 47 99 4c bf f3 95 f5 bf a9 c4 36 3f f2 fa 1c 40
       -0.7992138 -1.9186386 0.7139383 2.4528165
000050 5b 99 11 40 74 0e 8a bf 37 7a 9a bf 67 39 09 40
       2.274985 -1.0785661 -1.2068547 2.1441286
000060 91 ac e7 bf 23 d8 f3 be 12 45 c7 bf d8 3b e1 bf
       -1.8099538 -0.47625837 -1.5567954 -1.7596388
000070 00 bf a1 be e6 26 82 3d df 54 96 3f a9 3e c5 3f
       -0.31591034 0.063550755 1.1744651 1.5409747
000080 66 34 92 be b3 b6 49 3f c4 73 02 40 40 3e 65 3f
       -0.28555602 0.787944 2.0383158 0.8954811
000090 d8 f9 bd 3f 37 84 91 3f cb d8 d6 3e 74 02 ba 3f
       1.4841871 1.1368474 0.41962275 1.4531999
0000a0 ef bb 6f 3f 68 e9 e6 3f 79 78 7f bf a1 d4 8c 3f
       0.9364614 1.803998 -0.997932 1.1002389
0000b0 92 86 18 3f 94 99 10 3f 23 b1 ec bf bb 35 f5 bf
       0.5958034 0.5648434 -1.8491558 -1.9157022
0000c0 9a c4 f1 bf 05 31 08 40 a4 e6 96 bf d3 a0 0e 40
       -1.8888123 2.127992 -1.1789136 2.228566
0000d0 9b 5f 36 40 83 26 d8 3f 4b 98 24 3f 0a 29 e4 3f
       2.8495853 1.6886753 0.6429488 1.7825024
0000e0 d5 0e 56 c0 ad 83 aa 3f 7e 42 51 bf cc 38 3f 40
       -3.3446553 1.3321434 -0.81742084 2.9878416
0000f0 42 cb d5 bf 7b a4 b1 3f d2 e8 b2 be 2d d4 f7 bf
       -1.6702654 1.387832 -0.34943253 -1.9361626
000100 4b ce 23 40 a1 42 00 c0 a1 fe 04 40 af ca 64 be
       2.5594661 -2.0040667 2.0780413 -0.22342943
000110 c7 a9 92 3f 81 cc db 3e ce 0a 22 c0 5c 8d 04 3f
       1.1458062 0.42929462 -2.5319095 0.517782
000120 3f 16 29 c0 8e 28 05 bf fb 72 24 3e fc 46 aa bf
       -2.6419828 -0.52015007 0.16059487 -1.3302913
000130 a8 ac 7a 3e bc 47 4d 40 9a 1d e7 3f 79 56 0d 40
       0.24479926 3.2075033 1.8055909 2.2084029
000140 32 68 8a bf 4f 88 49 bf 12 69 e0 3e c2 1f 25 40
       -1.0813048 -0.78723615 0.43830162 2.5800633
000150 9e 72 ad 3e 57 69 cf 3f ae c5 19 bf 96 60 2b 40
       0.33876508 1.6204022 -0.6006726 2.6777701
000160 22 15 59 3f 94 c5 07 40 33 d7 88 3f 70 5e 84 3f
       0.8479787 2.1214342 1.0690674 1.034132
000170 43 95 0d c0 8c 68 15 c0 c8 64 66 3f 91 86 f1 3d
       -2.2122352 -2.334506 0.8999753 0.11793245
000180 4e 3d 1b bf 16 e5 cb 3f 3f dc 2f 40 01 cc 04 3f
       -0.6064042 1.5929286 2.7478178 0.51873785
000190 71 9a a1 3f 02 1d 14 c0 af de 76 be a7 eb 1b c0
       1.2625257 -2.3142705 -0.24108385 -2.436258
0001a0 0a 4f 15 c0 7a a9 ad 3f 51 c1 e9 bf 5f b0 7b be
       -2.3329492 1.3567345 -1.826212 -0.24578999
0001b0 cd c0 23 c0 a6 be 14 c0 e0 d6 79 3f f7 98 08 c0
       -2.5586426 -2.3241363 0.975935 -2.1343362
0001c0 f9 2a a0 3f 3d 68 70 3f b3 a1 c3 3f ef 43 29 c0
       1.2513114 0.93909055 1.5283722 -2.6447713
0001d0 7b 76 02 40 1d 77 b0 be 90 81 12 40 c7 95 96 bf
       2.0384815 -0.34465876 2.2891579 -1.1764458
0001e0 c2 be c5 bf 63 12 c6 3e f5 c3 2e bf 3c 23 0b 40
       -1.544884 0.38685903 -0.68267757 2.1740255
0001f0 9b 2d 0c 40 98 d0 11 40 5b 92 18 40 a8 76 2e bd
       2.1902835 2.2783566 2.3839328 -0.04259363
000200 7a d5 14 3f f9 b3 d0 3f c8 d5 aa bd 2d 2e 77 40
       0.5813824 1.6304923 -0.08341557 3.8621933
000210 38 43 0d be 9e 3c f8 bf 33 e0 00 40
       -0.13795173 -1.9393499 2.013684

hidden_layer2.weight f4 [135, 135]
000000 30 67 0c 3f 81 ad df bf da e3 67 3f 61 aa 22 bf
       0.5484495 -1.7474824 0.9058205 -0.6354123
000010 fd 10 aa 3f 73 73 1b c0 29 c4 c9 be 77 36 ac c0
       1.3286434 -2.4289215 -0.3940747 -5.3816485
000020 bd 4c f8 bf 75 1c ba bd 76 03 02 c0 b2 24 a6 be
       -1.9398419 -0.09087459 -2.0314612 -0.3244987
000030 9b b8 6a 3f fe a1 d1 3e 11 00 f0 bd 7f 52 c9 bf
       0.91687936 0.40943903 -0.11718763 -1.5728301
000040 1a 78 cb 3e ed c7 29 be 8b e6 4b 3f eb 5d 0b 3f
       0.39740068 -0.16580172 0.79648656 0.5444018
000050 56 8c a4 3f 63 b6 da 3f 0c a9 9e 3d 8f 06 87 3f
       1.2855327 1.708691 0.07747087 1.0548877
000060 6c e8 ed bd 3d f6 04 be 5f cd d5 bf 68 12 cf be
       -0.116165966 -0.12984557 -1.6703299 -0.4044373
000070 10 4d 16 be 45 aa 66 bf 52 92 54 bf 34 40 9b 3f
       -0.14677835 -0.9010356 -0.8303577 1.2128968
000080 e3 34 38 bf b6 f4 93 3f 3f ba c3 be d7 67 10 3f
       -0.719557 1.1559055 -0.38228032 0.5640845
000090 8a d1 c4 3e b3 07 1e 3f 84 8d a1 3f 9b d4 b3 3f
       0.38441116 0.617305 1.2621312 1.4049257
0000a0 40 44 44 40 b3 b3 c9 bf 65 21 88 be c3 12 c3 3f
       3.0666656 -1.5757965 -0.26587978 1.5240101
0000b0 82 84 fb bf 67 4d c9 3e ad 7c 92 3f 5a ed a3 bd
       -1.9649813 0.39316866 1.1444298 -0.080042556
0000c0 85 5d e8 be 9c c9 4d 3f a3 30 56 bf ed 93 f4 bf
       -0.4538385 0.80385756 -0.83667964 -1.9107643
0000d0 7a a0 db be 4f 3c 0a 3e 9c 2f 9b 3f 57 a4 f8 3d
       -0.4289587 0.13499568 1.2123904 0.1214072
0000e0 63 a2 35 bf a1 78 92 3f 8c 8a 14 c0 8b ef 1a be
       -0.7095091 1.1443063 -2.3209562 -0.15130441
0000f0 88 37 55 bf fc e1 38 40 4f 1b 42 bf 7f b0 b6 3f
       -0.8328786 2.888793 -0.7582292 1.4272612
000100 6d 03 b5 3f 20 d8 81 bf a2 82 0a 3f ef e0 61 40
       1.414167 -1.0144081 0.5410558 3.5293539
000110 a9 53 e4 3f 56 e0 9c bf ba aa 11 c0 63 58 00 40
       1.7838031 -1.2255962 -2.2760453 2.0053947
000120 9f ea b1 be 38 39 f7 bd 07 40 cd be 0d 63 9d bf
       -0.34749314 -0.120714605 -0.4008791 -1.2295853
000130 f0 ab 4f bf 38 36 c4 3e b4 ed 7b bf 1a f2 cf 3f
       -0.8112173 0.38322616 -0.9840958 1.6245759
000140 1c a8 59 3e 4c a2 85 be 8a b5 11 40 cb cc e3 3f
       0.21255535 -0.26100385 2.2767053 1.7796873
000150 2f 23 ec bf e4 23 14 40 2a c2 ba 3f 6f ce 76 bf
       -1.8448237 2.3146906 1.4590504 -0.9640874
000160 05 48 45 bf 49 74 6c 3f 1c 0e 8e 3e fd fe 8c be
       -0.7706302 0.9236494 0.2774514 -0.2753829
000170 7a 11 c6 bf d8 19 c8 3e 94 c1 31 bf 39 7c 86 3f
       -1.5474083 0.39082217 -0.69436 1.050666
000180 95 df 2b 3f f7 a0 ad bd b9 e9 25 3f e4 f0 b5 3f
       0.67138034 -0.08477967 0.6480976 1.4214139
000190 30 66 ff 3e 4a 93 41 3f 38 83 02 bf 8d ae 7e 3f
       0.4988265 0.7561537 -0.50981474 0.99485093
0001a0 1e 0a 38 c0 5c 5f da 3f b7 f1 4e bf 78 00 6d 3f
       -2.8756175 1.7060351 -0.8083758 0.9257884
0001b0 16 a6 a5 3f 1d cf 3b c0 5c 09 a3 be c5 1a be bd
       1.294131 -2.9345162 -0.31843078 -0.0928245
0001c0 33 6e 20 3f 28 b6 26 40 8c b1 a3 be c1 b4 5c bf
       0.6266815 2.604868 -0.31971395 -0.8621331
0001d0 ce 26 9b 3f 6b 50 5e 3f cf 8b 8f 3f 62 4e 50 3f
       1.2121217 0.8684146 1.1214541 0.813696
0001e0 f5 7c f4 be b5 d9 c0 bf 52 9a b2 be 89 be 08 3f
       -0.47751585 -1.5066439 -0.34883362 0.53415734
0001f0 90 3a 36 3f b3 bf 6f be 81 25 cf 3f 32 91 fa bf
       0.7118311 -0.23412971 1.618332 -1.957556
000200 a6 65 7f be d8 05 ee bb 9a f3 b2 bf 93 d9 ea 3f
       -0.2494112 -0.00726388 -1.3980591 1.8347648
000210 2f 57 2e bf 41 da 3d bd 91 e3 30 3f d4 4c 69 3e
       -0.6810178 -0.04635072 0.6909724 0.22783214
000220 77 35 ee be 93 4a 2a c0 a5 cf 80 3f 12 c4 1f bf
       -0.46525165 -2.6608016 1.0063368 -0.62408555
000230 8d 6b 42 3e 3c 41 3b 3f 44 58 48 3f ca 7e 50 bf
       0.1898634 0.73146415 0.7825968 -0.81443465
000240 6f 4d 07 40 01 89 32 40 e7 64 a1 bf 9c e1 e5 3f
       2.1141012 2.789612 -1.2608918 1.7959476
000250 e0 d8 b8 3f 50 6e 07 bf 0d 8c 2e 3b 03 21 08 c0
       1.4441185 -0.529027 0.002663377 -2.1270149
000260 38 66 c3 3f fe ff b6 bf 1c 14 32 bf 1e 2a 35 3f
       1.526557 -1.4296873 -0.69561934 0.7076739
000270 6b 8f 75 3d f0 3e eb 3f 69 fa b0 bf 48 1f 84 3f
       0.059951227 1.8378582 -1.3826419 1.0322046
000280 74 d1 1a 3f 30 44 05 40 b4 ff 99 3f 41 9b d5 3e
       0.6047585 2.0822868 1.2031159 0.41720012
000290 71 7f 7d 3f 57 b0 87 40 16 e7 1d 3f e0 fd a0 bf
       0.99022585 4.240276 0.61680734 -1.2577477
0002a0 c0 84 d7 3f 6c 15 37 be 1a a7 b9 bf 02 f7 47 3f
       1.6837387 -0.17879266 -1.450412 0.7811128
0002b0 f7 a3 6c 3f 02 48 87 bf 8d 05 1d 40 dc 8b de bd
       0.9243769 -1.056885 2.4534638 -0.1086652
0002c0 f0 31 df bf 3b e0 d9 be 0e 6a ca be 96 f7 f5 3f
       -1.7437115 -0.42553887 -0.39534038 1.9216182
0002d0 c2 26 c8 be be 20 36 bd 46 22 cb be 80 05 85 be
       -0.3909207 -0.04446482 -0.39674586 -0.2598076
0002e0 f7 b2 84 3e 53 24 37 3f f9 28 86 3e eb 21 22 be
       0.2591779 0.715398 0.26203135 -0.15833251
0002f0 a7 c9 13 40 75 20 22 40 f1 c5 8f 3f 4d ef 8b bf
       2.309183 2.533231 1.1232282 -1.0932404
000300 d4 39 0b c0 ed e2 53 bf ff 30 00 40 49 6e c4 3f
       -2.1754045 -0.82768136 2.0029905 1.5346156
000310 b0 c7 70 bf 6b 7a e7 3f f1 22 c9 be 31 22 b9 3e
       -0.940547 1.8084234 -0.3928447 0.36158898
000320 b9 b5 c5 3f ae 8f 46 bf af 84 bf 3e cf 4f 5c 3f
       1.5446082 -0.7756299 0.37405917 0.8605928
000330 59 c1 8c 3f 19 af 54 bd de 58 e2 3f d9 4f ec 3e
       1.0996505 -0.0519248 1.768337 0.4615467
000340 82 0d 75 3f 1b f4 e3 3d 4e 8d 72 3f 58 8a ea bf
       0.95723736 0.11130544 0.94746864 -1.8323469
000350 d9 fa b2 3e ad af 96 3f ee 76 9f bd 56 a2 9b 3f
       0.34957007 1.1772362 -0.07786356 1.2158916
000360 a2 9b cd bf ff 51 c3 3f 05 98 5d 3f 88 56 01 bf
       -1.606312 1.5259398 0.8656009 -0.5052266
000370 7b ef 0a c0 ae c2 5e bd 27 72 eb 3e 4a db 43 40
       -2.1708667 -0.05438488 0.4598553 3.0602593
000380 77 72 c5 3f 8e 54 14 40 63 04 6d bf a9 53 31 c0
       1.5425557 2.3176608 -0.9258482 -2.7707312
000390 92 80 6d bf 67 67 ad 3e 6f 8a bc be b8 7d 95 bf
       -0.9277431 0.33867952 -0.36824366 -1.1678991
0003a0 92 7f d6 3f c2 75 5f bf bc 2e 83 be 9a 82 9f 3f
       1.6757681 -0.8728906 -0.25621593 1.2461731
0003b0 36 c2 4c bf bc dd f8 be e6 5f 31 3d 27 d6 fd be
       -0.7998384 -0.4860667 0.043304347 -0.49577448
0003c0 71 cc fb 3f c3 84 97 bf 01 94 81 bf 60 3a ad bf
       1.9671766 -1.1837391 -1.0123292 -1.353344
0003d0 38 ab 47 3f f5 65 4d 3f 01 4b b7 bf 43 dc 0d bf
       0.77995634 0.802337 -1.4319764 -0.5541422
0003e0 e9 84 c7 bf c7 50 70 bf e8 59 15 3f 38 16 8f 3e
       -1.5587436 -0.93873256 0.5834031 0.2794664
0003f0 f3 b7 8a be 65 ef 83 3f 10 91 7e 3f cd a6 bd bf
       -0.27093467 1.0307432 0.994401 -1.4816529

hidden_layer2.bias f4 [135]
000000 13 75 a8 3f 5e 1e 65 3f 70 04 a4 bf d5 b7 d3 3f
       1.3160728 0.8949946 -1.2813854 1.6540476
000010 ed 3c a7 bf 67 dc eb 3f c7 ab 90 3f c7 05 d0 3e
       -1.3065468 1.8426636 1.1302422 0.40629408
000020 1c 5b 1d c0 e4 95 f3 3f 68 49 b1 3c 99 73 77 bf
       -2.4586859 1.9030118 0.021641448 -0.96660763
000030 b6 6e 04 3f 26 62 9a 3f 8f cf 8f 3f 8c 87 a7 be
       0.5173143 1.2061203 1.1235217 -0.32720602
000040 78 7a 76 bf e3 08 ab 3d f8 98 f8 be e3 c3 d8 bf
       -0.9628062 0.083513044 -0.48554206 -1.693478
000050 86 f0 d2 3f 05 14 dc 3f 6f 89 02 3f 36 7a 3c bf
       1.6479652 1.719361 0.5099096 -0.7362398
000060 47 84 64 bf fa cf 94 3e c9 c5 be be c0 30 f7 3f
       -0.8926434 0.29064924 -0.37260273 1.9311752
000070 57 62 11 40 65 b5 b6 3f a5 ed 4a bf c8 fd 94 bf
       2.2716272 1.4274107 -0.79268867 -1.1639948
000080 98 96 62 3f 0b 66 7f bf 33 e1 99 3f 06 9c 34 3f
       0.8851104 -0.9976508 1.202185 0.7055057
000090 93 f1 bb 3f 77 41 87 bf 39 eb 3a bf 5e 7b 9a 3f
       1.4683098 -1.0566853 -0.7301517 1.2068899
0000a0 ad 7f c2 3f c5 f9 2e bf 66 a5 21 bf 89 d5 3f 3f
       1.5195214 -0.6834987 -0.63143003 0.74935204
0000b0 d6 15 d5 bf cf 20 9d 3f 1f ac 91 3f 66 25 ca 3f
       -1.6647289 1.2275637 1.1380652 1.5792663
0000c0 8a 31 82 bf f9 db 9e bf f3 1d bc bf 23 ef 5a bf
       -1.0171368 -1.241088 -1.469664 -0.85521144
0000d0 ed 41 9e 3f d6 83 ad bf 54 15 e5 bf d8 aa 89 3f
       1.2363869 -1.3555858 -1.7897134 1.0755262
0000e0 dc a7 c2 3f 03 40 cc 3f 41 e1 11 c0 37 75 75 3f
       1.5207477 1.5957035 -2.2793734 0.9588198
0000f0 47 55 e8 3f 4b 43 cf bf 23 cd 27 c0 05 b8 a1 bf
       1.8151025 -1.6192411 -2.6218956 -1.2634283
000100 ab c8 76 3f 3c 9d 0a 40 38 e7 7d bf 07 1d b4 3f
       0.96399945 2.1658468 -0.99180937 1.4071358
000110 a1 c3 6a bf 7f 4f 0f c0 67 33 d3 3f 06 64 09 c0
       -0.91704756 -2.239227 1.6500062 -2.14673
000120 4e 3a cc 3c c9 8f 99 bf e0 8f 95 be 77 09 4a bd
       0.024930146 -1.1997005 -0.2921133 -0.049325433
000130 52 bf a2 bd 01 3c a3 3f 18 4e c1 bf b9 54 a1 bf
       -0.07946648 1.2752687 -1.5101957 -1.260398
000140 6f 61 84 bc 95 b6 c2 be 0e b3 ce 3f 21 fe eb 3d
       -0.016159741 -0.38029924 1.6148393 0.115230806
000150 0b cf 32 3c 01 20 48 3e 0a 65 b8 3f 0b d4 3c 40
       0.010913621 0.19543459 1.4405835 2.950442
000160 9e 5b da 3f c6 80 03 c0 0e 8c 87 3e 30 98 58 3f
       1.7059209 -2.0547347 0.2647404 0.8460722
000170 71 ac b9 3f 69 f4 a6 3f b7 56 34 3f 5e a9 ac 3f
       1.450575 1.3043338 0.70444816 1.3489187
000180 1b f6 6d bf ac fb 82 3f 9e 52 d8 3f de 03 ca 3f
       -0.9295365 1.0233054 1.6900213 1.578243
000190 ce 25 5d bf 33 1b ad 3e 04 a3 ad 3f bb 27 e7 3f
       -0.8638581 0.33809814 1.3565373 1.8059
0001a0 69 32 d2 3e ab 2d 07 be 69 17 81 3f 15 48 76 3d
       0.41054085 -0.13201015 1.0085269 0.060127337
0001b0 4b c1 05 c0 46 49 9a 3f aa 49 19 bf a0 2a 0e 3f
       -2.0899227 1.2053611 -0.5987803 0.5553379
0001c0 12 4a 2e 3f a2 f6 c1 3f 73 98 8c 3f 66 ed 92 bf
       0.6808177 1.5153391 1.0984024 -1.1478698
0001d0 a7 ed ac bf eb d5 cd bf 2c 41 b5 3f 9f eb 93 3f
       -1.3510026 -1.6080908 1.4160514 1.1556281
0001e0 cc d2 be be 30 93 8a 3f 33 10 b8 bf f8 12 fd 3e
       -0.372702 1.0826168 -1.4379944 0.49428535
0001f0 31 20 a5 3f 92 be cb bd 5a 49 e8 bf ab 60 e3 bf
       1.2900449 -0.09948458 -1.8147385 -1.7763876
000200 17 f2 90 bf c7 f1 cb 3e fc ec bf 3f 56 0c c7 3f
       -1.132388 0.398329 1.4994197 1.555064
000210 dd 3f 99 bf e1 6d ae 3e ad ff 93 bf
       -1.1972615 0.34068206 -1.1562401

output_layer.weight f4 [9, 135]
000000 cf c8 d4 3f 61 aa 80 bf df da 00 3f 4d 3b 63 40
       1.6623782 -1.0051996 0.5033397 3.5504944
000010 6d 54 0a c0 47 c8 bc bf a1 04 5d bf 3b e4 8b bf
       -2.161403 -1.474862 -0.8633519 -1.0929025
000020 fd 2d 0c c0 ca 78 d4 bf 61 91 4b 3f 0f 91 74 3f
       -2.190307 -1.6599362 0.79518706 0.9553384
000030 f9 ba 89 be 0e 20 08 40 9d 2e ca bf f4 87 87 3f
       -0.2690046 2.1269565 -1.5795475 1.0588365
000040 68 38 02 c0 6f fb 6f 3f b7 74 ac 3f 4f cc c7 3e
       -2.0346928 0.9374303 1.3473119 0.39023063
000050 c7 c6 a9 bf 06 6a 96 bd de b0 ec bf ae 05 f1 bf
       -1.3263787 -0.07344441 -1.8491476 -1.8829858
000060 3b 09 7f 3f a6 98 0c c0 9b 41 18 40 f8 4b 39 3d
       0.9962346 -2.196817 2.3790042 0.045238465
000070 0b 0f 41 40 49 cc 45 c0 83 84 b7 c0 5b cf 55 bf
       3.0165431 -3.0905936 -5.7349257 -0.83519524
000080 6f 1d 39 bf 8c 6a 0e c0 ae 22 e1 3e 5e b4 8e bf
       -0.7231054 -2.225253 0.4397177 -1.1148794
000090 72 2b 89 3f 7b 6c 96 bf 47 2f f3 bf 0b fc 8e 3f
       1.0716383 -1.1751856 -1.8998803 1.1170667
0000a0 e0 fd 47 bf 88 f0 5f bd 59 e6 7f bf ce 81 4b bf
       -0.7812176 -0.054672748 -0.9996086 -0.7949494
0000b0 dc 03 02 c0 b5 1b 70 be 63 e8 8e 3f bf e6 95 bf
       -2.0314856 -0.2344807 1.1164669 -1.1711043
0000c0 f2 04 9a bf 4b d9 17 be 12 38 af 3f 69 e1 aa 3f
       -1.2032759 -0.14828984 1.3688986 1.335004
0000d0 ab 85 5f 3f 20 8e 99 3f a6 0a 99 3f d4 ae bc bf
       0.87313336 1.1996498 1.1956375 -1.4740853
0000e0 e0 5e 66 bf d8 16 f5 3e c2 c5 43 3e e4 b2 24 3f
       -0.8998852 0.4786899 0.19118407 0.64335465
0000f0 d2 4f 73 3f 6e 29 92 bf 4e 3b 0f c0 07 5c cc c0
       0.9504367 -1.1418893 -2.2379947 -6.386234
000100 92 47 7c 40 42 ed 8d be 93 3f e7 c0 4f dc fc bf
       3.9418683 -0.27720076 -7.2265105 -1.9754733
000110 eb be 62 3e 7d 61 98 40 66 51 81 3f ec 8d a9 3f
       0.22143142 4.7619004 1.0102966 1.3246436
000120 e5 8e 4a bf 2e 79 e6 3e b5 76 c0 bd ac 50 f2 bf
       -0.7912429 0.45014328 -0.093976416 -1.8930869
000130 9c ff 90 bf eb 88 8f 3e 54 e4 01 bb 47 88 83 3f
       -1.1328006 0.28034148 -0.0019819932 1.0275964
000140 ed db 47 bf 83 02 97 3e 46 e0 84 bf fd f7 24 bd
       -0.78069955 0.29494104 -1.0380943 -0.040275563
000150 ee 92 25 bc c2 d3 7a 3f df 23 7c bf e8 42 fc 3f
       -0.010105832 0.97979367 -0.98492235 1.9707918
000160 82 db 9e 3f 59 46 b3 3f 86 f5 c8 bf 03 61 d7 40
       1.2410738 1.4005843 -1.5699928 6.7305923
000170 16 5b ca bd 64 83 9c bf ac 06 4d bf 34 ad cf bf
       -0.098806545 -1.2227597 -0.80088305 -1.6224732
000180 63 df 55 40 18 01 57 bf 41 49 ae bf d3 d6 cc 3f
       3.3417594 -0.83986044 -1.3616105 1.6003059
000190 4b ee ca 3e bb 7e c9 be d5 39 ba 3e 76 e9 16 c0
       0.39634928 -0.393545 0.36372247 -2.3579993
0001a0 9c b5 09 bf 17 ca bd 3e 57 ae aa 3e 4f af c6 3e
       -0.5379274 0.37068245 0.33336136 0.38805625
0001b0 51 5a e8 be c0 49 13 bf 69 7a 6e 3f 20 82 50 40
       -0.45381406 -0.5753441 0.93155533 3.2579422
0001c0 dc 6a 21 bf 43 f0 fc 3f 5e 86 41 bf 32 7a 32 40
       -0.6305368 1.9760822 -0.75595653 2.7887082
0001d0 5b 90 10 3f b2 d7 f1 3f d5 8f ce bd 62 23 52 3f
       0.5647027 1.889395 -0.100860275 0.8208524
0001e0 f7 d0 93 3f 87 42 96 c0 0d 59 b0 bf 61 b0 c7 bf
       1.1548146 -4.695621 -1.3777176 -1.5600702
0001f0 14 4d 19 c0 39 32 66 bf 4e cf c8 3f 45 5c e5 bf
       -2.3953295 -0.89920384 1.5688264 -1.7918783
000200 5d 35 26 40 c3 20 0e c0 6c 13 98 bf 75 9c e9 3e
       2.597007 -2.2207496 -1.1880927 0.4562718
000210 62 15 02 40 aa c6 7a 3e 3d 28 c6 c0 d0 fb b6 be
       2.032555 0.24489847 -6.192412 -0.35738993
000220 04 8d d9 bf b7 a1 05 40 19 cc 65 c0 0a 5f 45 3f
       -1.699616 2.0879953 -3.5905821 0.77098143
000230 35 a5 67 c0 30 2d 09 3e dd 11 86 be 28 d8 86 3e
       -3.6194584 0.13396144 -0.26185504 0.2633679
000240 46 83 39 bf e6 d0 08 c0 3f 60 4d 3f 25 de 12 be
       -0.7246593 -2.1377501 0.80224985 -0.14342554
000250 c9 13 bb 3f 6c 85 0c bf 81 d0 09 bf 21 a1 c4 3e
       1.4615413 -0.54891086 -0.53833777 0.38404182
000260 51 9d be 3e 70 53 7b 40 3a 49 9f be 70 24 9e bf
       0.37229398 3.9269676 -0.31110555 -1.235487
000270 26 61 17 bf 50 bf 7f bf e7 2f e0 3d e7 ef 6f 40
       -0.5913261 -0.99901295 0.10946637 3.7490175
000280 01 39 d6 bf 34 af 17 3f 62 18 59 bf b2 82 e4 bd
       -1.6736146 0.59251714 -0.8480283 -0.11157741
000290 3e d8 07 bf 11 7b ec 3e e6 69 b6 3e 05 f1 62 bf
       -0.53064334 0.46187642 0.3562767 -0.88649017
0002a0 e7 08 4e bf 14 85 28 c1 dd 12 92 bf bf f3 50 40
       -0.80482334 -10.53249 -1.1412007 3.264877
0002b0 a7 c5 31 3f a0 73 07 3f 7f 52 28 3f 25 92 42 40
       0.6944222 0.52910805 0.6575088 3.04017
0002c0 bf a6 5e be 82 ef b4 bf c9 6a ff bf 3c f2 c0 be
       -0.21743296 -1.4135592 -1.9954463 -0.3768481
0002d0 d6 13 47 c0 37 de 7d be df c9 96 bf 78 51 93 3e
       -3.1105857 -0.247918 -1.1780356 0.28773093
0002e0 d8 d7 d5 3f 0c 35 3c 3f a0 7d 76 3f 86 66 65 3e
       1.6706495 0.73518443 0.9628544 0.22402391
0002f0 7c 49 bf 3c ea f6 07 3f 54 ba 38 bf 52 0c bc bf
       0.02335047 0.53111136 -0.72159314 -1.469126
000300 d4 1e 31 bf f1 96 98 3d 6d 0e 9a 3e 49 3c ac bf
       -0.69187665 0.07450665 0.3008913 -1.3455898
000310 8a c2 de 3f d2 f5 63 bf a7 2d 29 3e b8 59 36 40
       1.7403119 -0.8904697 0.16521321 2.849226
000320 73 0d 78 bf 7d 85 49 3e b4 97 1b c0 26 73 8a 40
       -0.9689552 0.19679828 -2.4311342 4.326556
000330 68 b4 c6 40 d2 8c 1f c0 c1 ad 14 40 36 29 f8 bf
       6.2095222 -2.49297 2.323105 -1.9387577
000340 23 aa ea be c5 cc 6b 40 ff 7c 18 bf 6b 06 c0 be
       -0.4583293 3.6843731 -0.5956573 -0.37504897
000350 b2 e4 db 3d 05 33 54 3f c8 88 35 be 86 57 63 be
       0.107369795 0.8289035 -0.17727959 -0.22201356
000360 eb 57 73 3d 88 36 ba bf a2 7a 14 bf a9 e3 de bf
       0.059410017 -1.4547892 -0.5799962 -1.7413226
000370 b2 68 49 c1 b7 2c 90 3e b7 ed 8d 3f e5 dc bb 3f
       -12.58806 0.28159115 1.108817 1.4676787
000380 c9 91 11 40 2c fe 55 c1 b4 a9 1a be a6 72 c6 3f
       2.274523 -13.374554 -0.15103799 1.5503738
000390 66 45 85 3f 0c ea 71 bf b0 25 20 bf a4 a0 77 3f
       1.0411804 -0.9449775 -0.62557507 0.96729493
0003a0 a8 35 16 bf 8c 2f ee 3f b2 99 ce 3e c4 92 7e bf
       -0.5867562 1.860826 0.40351635 -0.99442697
0003b0 13 ef be be dd a0 68 3e 72 9d 7a bf a4 25 5a bf
       -0.37291774 0.22717614 -0.9789649 -0.85213685
0003c0 f9 7d 4e 40 e8 3e 89 3e 14 56 0a 40 40 de 42 c0
       3.2264388 0.26805806 2.1615038 -3.044815
0003d0 fb f4 af 3e e7 4b 14 40 ee 1d a1 be 08 5f 4b c0
       0.34366593 2.3171327 -0.31468147 -3.1776752
0003e0 1c 84 01 3d fc 90 de bf 39 a0 a8 3f 3d 3a 1d 3f
       0.03162013 -1.7387996 1.3173896 0.6141699
0003f0 b8 34 14 40 fb ea d0 bf 83 91 ef 3e 29 90 59 3f
       2.3157177 -1.632171 0.46790704 0.84985596

output_layer.bias f4 [9]
000000 e0 66 bc 3e 52 22 7f be e3 35 ba 3f 3b 89 a0 3e
       0.36797237 -0.24915436 1.4547695 0.313547
000010 e8 87 7d bf ed e8 e0 3f d6 05 ee bf b4 84 15 bf
       -0.990355 1.7571083 -1.8595531 -0.58405614
000020 14 6b 32 3f
       0.6969464
