TicTacToe/ai_resources/trained_ai_models/tic_tac_toe_nn_2.pth (torch, 86414 bytes, 6 tensors)

hidden_layer.weight f4 [135, 9]
-0.9876115 -0.06462981 -2.486231 -0.39054227 1.455851 0.67208505 -2.9204047 2.5729332
1.8210925 -2.8279486 1.6974721 -1.4047606 0.91221637 1.7597407 -1.5725926 0.038863055
0.19009522 1.5023298 -0.14460747 1.3601241 1.6562802 -0.81024766 2.1124263 -0.0448276
-3.2476451 0.23936315 -0.9991905 1.7295601 -2.3610744 -2.339243 -0.41169277 1.5281156
-0.9066919 2.2671146 -1.0090479 1.9094666 0.27285025 -0.03625488 1.7862294 -2.6141775
-1.1921307 1.0604125 0.03052736 0.99939895 0.22483219 -0.50164014 0.58824164 -1.1685454
-2.397161 2.0451212 -1.2997952 2.0321152 1.7856218 -1.7392573 -0.8876769 -1.5029781
-0.7879106 1.2021371 1.582592 -0.17986628 0.028659675 1.4825512 0.040895794 -0.5390516
-0.96914816 -0.54069316 -0.76324266 -1.1377677 -1.1284733 1.6217468 2.0208836 1.8217772
0.8892925 -0.3634605 1.7761815 1.1805252 -2.3360915 -1.4942791 2.70444 0.48480707
-2.8214788 0.95398587 0.10169521 1.0791062 0.91080177 -6.740295 0.15808907 0.17212941
1.1044136 0.38906765 0.72729 0.92886484 -2.8118637 -1.1382436 -1.2362568 -1.7971442
3.423788 2.3340483 0.37560758 0.9894635 0.1930245 2.3959103 0.5887368 -2.206757
-1.018104 2.2873638 -0.98722696 -2.6819084 -0.7232442 -0.1340997 -1.3304697 0.1327495
-3.7445922 1.702284 1.0356464 0.41967034 0.97250515 0.56331116 0.3494532 0.84530985
0.42409563 -3.4698987 0.39462498 -0.13141882 0.22028199 0.19127302 -0.044032723 0.14695477
-0.37169537 -1.8511192 -0.83518094 -0.0009036076 -1.36937 0.102201924 4.1615615 -0.059174147
0.72447395 2.3526006 -0.6798587 1.5288687 -2.6896493 -1.0540242 0.5914406 0.15390836
2.979901 -0.77615285 1.653613 -0.7923135 -1.2509416 -1.2780973 -1.5247414 0.8437957
0.0003749208 1.7546748 -1.3784261 0.2954664 -2.2313216 -1.5415006 0.19213487 0.9056407
0.05601537 1.0564675 0.15869896 -1.8488419 3.5518827 -2.675186 -1.1514235 -1.569014
1.9710227 0.92566925 1.5188547 0.5849582 0.47115567 0.9157994 -2.9047306 -0.9015512
-1.6159184 -0.4539967 1.988216 2.0262277 1.7862475 -1.3036653 -1.1168426 -1.7878287
1.3281767 1.6832155 1.144978 -1.4566059 -0.30476066 1.9097208 2.1189291 -0.6171401
1.2711729 -2.2016487 -2.0796895 -0.13428098 1.2325828 -1.6717579 -1.8406632 -0.9293311
0.05568706 1.975141 -0.010717007 1.3417704 0.610769 -2.847088 1.7203621 0.952322
1.9072906 -0.85711807 0.10310743 -1.8589312 1.6389213 -1.43974 -0.16452356 -0.8792908
-2.386162 0.582921 0.6755939 0.18351594 0.31174827 3.297172 0.11817714 -3.3126962
-0.40298074 2.1226888 2.4966877 1.4490713 -1.5817329 -1.9054629 -0.55216074 -0.31435934
1.0832478 -2.5938277 -0.21197116 0.23106876 -1.0648777 -0.045605797 -0.23848274 -1.4702055
3.1889482 -1.5929632 0.8761324 0.19493864 -1.8916779 0.10696447 -0.4986494 -3.4810047
0.44703352 2.5436406 0.19425108 2.2587373 -2.282646 -0.0645489 0.42985255 0.3479566
00000000: 1bd4 7cbf a25c 84bd 691e 1fc0 28f5 c7be
00000010: 5359 ba3f c40d 2c3f e9e7 3ac0 f0aa 2440
00000020: 8f19 e93f 1cfd 34c0 c446 d93f 32cf b3bf
00000030: 0387 693f 2f3f e13f b74a c9bf de2e 1f3d
00000040: 52a8 423e 584c c03f fb13 14be 8c18 ae3f
00000050: fd00 d43f 646c 4fbf fe31 0740 259d 37bd
00000060: 6bd9 4fc0 9d1b 753e f3ca 7fbf 3a62 dd3f
00000070: d81b 17c0 28b6 15c0 65c9 d2be 4b99 c33f
00000080: f61c 68bf 6818 1140 7b28 81bf 6769 f43f
00000090: 07b3 8b3e ff7f 14bd 2aa3 e43f af4e 27c0
000000a0: bd97 98bf 99bb 873f 8414 fa3c 9cd8 7f3f
000000b0: 693a 663e 7d6b 00bf 0197 163f e592 95bf
000000c0: 166b 19c0 44e3 0240 b05f a6bf 2d0e 0240
000000d0: 418f e43f fc9f debf cb3e 63bf 9661 c0bf
000000e0: 82b4 49bf a1df 993f 6092 ca3f de2e 38be
000000f0: b2c7 ea3c 3dc4 bd3f 5982 273d 49ff 09bf
00000100: 181a 78bf de6a 0abf df63 43bf 5fa2 91bf
00000110: d071 90bf 6695 cf3f 2856 0140 ff2f e93f
00000120: aca8 633f 7f17 babe ea59 e33f 731b 973f
00000130: 8682 15c0 8a44 bfbf 8c15 2d40 a238 f83e
00000140: 1c93 34c0 6b38 743f 9445 d03d 2720 8a3f
00000150: 4e2a 693f 7fb0 d7c0 1ae2 213e b142 303e
00000160: 6d5d 8d3f e033 c73e ad2f 3a3f 16ca 6d3f
00000170: 93f5 33c0 f7b1 91bf aa3d 9ebf d208 e6bf
00000180: 581f 5b40 0c61 1540 a34f c03e 7b4d 7d3f
00000190: 37a8 453e 9856 1940 74b7 163f 823b 0dc0
000001a0: 3b51 82bf 2b64 1240 e8ba 7cbf 63a4 2bc0
000001b0: 8826 39bf 6f51 09be d54c aabf 7cef 073e
000001c0: 66a7 6fc0 71e4 d93f 1090 843f 08df d63e
000001d0: 19f6 783f 2935 103f 88eb b23e 3a66 583f
000001e0: 1023 d93e d212 5ec0 490c ca3e a892 06be
000001f0: 9a91 613e 13dd 433e a85b 34bd 507b 163e
00000200: db4e bebe 79f1 ecbf 6bce 55bf 14e0 6cba
00000210: 8447 afbf 3e4f d13d 832b 8540 9760 72bd
00000220: 2077 393f 0291 1640 380b 2ebf f8b1 c33f
00000230: 3723 2cc0 44ea 86bf a768 173f 279a 1d3e
00000240: b3b6 3e40 f4b1 46bf 97a9 d33f 0fd5 4abf
00000250: db1e a0bf b198 a3bf ba2a c3bf ff02 583f
00000260: 0591 c439 2f99 e03f 4470 b0bf 5f47 973e
00000270: f9cd 0ec0 e44f c5bf 01bf 443e 12d8 673f
00000280: 5f70 653d 543a 873f fb81 223e daa6 ecbf
00000290: 0c52 6340 3f36 2bc0 d861 93bf 73d5 c8bf
000002a0: 794a fc3f a9f8 6c3f d569 c23f d2bf 153f
000002b0: 513b f13e d471 6a3f 1be7 39c0 0fcc 66bf
000002c0: 6ad6 cebf 4172 e8be dd7d fe3f b7ad 0140
000002d0: c2a3 e43f 81de a6bf b3f4 8ebf 92d7 e4bf
000002e0: b201 aa3f 9b73 d73f a48e 923f 1072 babf
000002f0: 9709 9cbe bb71 f43f 899c 0740 e5fc 1dbf
00000300: cbb5 a23f d0e7 0cc0 a219 05c0 f480 09be
00000310: 46c5 9d3f 2afc d5bf da9a ebbf a5e8 6dbf
00000320: 1d18 643d 6cd1 fc3f 6396 2fbc 22bf ab3f
00000330: 5b5b 1c3f b136 36c0 d334 dc3f 60cb 733f
00000340: 1922 f43f 176c 5bbf fd29 d33d 75f1 edbf
00000350: 2cc8 d13f 6649 b8bf dd78 28be 3419 61bf
00000360: e1b6 18c0 503a 153f b9f3 2c3f 9aeb 3b3e
00000370: 789d 9f3e de04 5340 db06 f23d 3703 54c0
00000380: 7e53 cebe 22da 0740 bbc9 1f40 2b7b b93f
00000390: 3976 cabf 35e6 f3bf 685a 0dbf b5f3 a0be
000003a0: dda7 8a3f 4601 26c0 f80e 59be 4a9d 6c3e
000003b0: ea4d 88bf 25cd 3abd d234 74be b22f bcbf
000003c0: ba17 4c40 38e6 cbbf 374a 603f ff9d 473e
000003d0: 8022 f2bf 3010 db3d f94e ffbe c8c8 5ec0
000003e0: 94e1 e43e 02cb 2240 c1e9 463e 278f 1040
000003f0: df16 12c0 3732 84bd a215 dc3e 5e27 b23e

hidden_layer.bias f4 [135]
1.9079617 -1.1792278 0.82626545 -0.054910246 1.158061 0.68225116 2.8374176 -4.168682
0.90248597 3.725995 0.029129965 0.74033946 1.4937586 2.2901883 -2.0597584 -1.6975597
-0.8226201 -1.9922029 0.7308451 2.419618 2.3031526 -1.0904555 -1.1784812 2.1474175
-1.787627 -0.4660944 -1.5731819 -1.7739904 -0.33920524 0.06194992 1.1548629 1.5308831
-0.35750186 0.78139967 2.0357013 0.8299239 1.4690135 1.0801121 0.42514825 1.4493763
0.9506707 1.7522439 -0.9755938 1.0536785 0.7055162 0.56404555 -1.816087 -1.8956697
-1.8719178 2.1973944 -1.1935709 2.2235498 2.8398314 1.6307683 0.6532263 1.7638893
-3.2800055 1.3320507 -0.82426685 2.972013 -1.6486757 1.399997 -0.28688094 -1.9452833
2.5443418 -1.9726253 2.096772 -0.25812757 1.1582053 0.38506657 -2.5514185 0.45220444
-2.6783082 -0.5406213 0.11018414 -1.2634118 0.21331711 3.2152245 1.7557449 2.2429235
-1.1172012 -0.81210864 0.4028372 2.6020381 0.3005949 1.5815458 -0.57152665 2.675785
0.843136 2.1433487 1.1464225 1.0015937 -2.2345994 -2.3256483 0.9652089 0.13208432
-0.5909672 1.6251954 2.7594278 0.5334553 1.2683558 -2.328584 -0.27065998 -2.400761
-2.2862947 1.3692046 -1.9263303 -0.27329054 -2.5384462 -2.286575 0.9992876 -2.1594748
1.2722994 0.9352404 1.5260224 -2.6478636 2.0003405 -0.33373952 2.3340404 -1.1829038
-1.5389974 0.38764083 -0.7122143 2.173602 2.228609 2.242181 2.3609855 -0.061130725
0.61803526 1.629158 -0.049268812 3.8432734 -0.15592878 -1.891399 2.0213997
00000000: 1738 f43f f0f0 96bf 2286 533f 91e9 60bd
00000010: 583b 943f 03a8 2e3f 4098 3540 d865 85c0
00000020: 5209 673f b476 6e40 f7a1 ee3c e386 3d3f
00000030: 7b33 bf3f 7292 1240 15d3 03c0 a349 d9bf
00000040: 3b97 52bf 8100 ffbf aa18 3b3f 05db 1a40
00000050: da66 1340 0c94 8bbf 79d8 96bf 4a6f 0940
00000060: f6d0 e4bf eda3 eebe 065e c9bf 1e12 e3bf
00000070: 4fac adbe 33bf 7d3d 8cd2 933f faf3 c33f
00000080: 7c0a b7be cf09 483f ee48 0240 e575 543f
00000090: a208 bc3f 1d41 8a3f 08ad d93e 2a85 b93f
000000a0: 285f 733f 8749 e03f 84c0 79bf f0de 863f
000000b0: b69c 343f 4a65 103f 8a75 e8bf 4ea5 f2bf
000000c0: 019b efbf 1ca2 0c40 eec6 98bf a44e 0e40
000000d0: ccbf 3540 04bd d03f d739 273f 20c7 e13f
000000e0: 9ceb 51c0 a380 aa3f 2703 53bf 7635 3e40
000000f0: ce07 d3bf 1a33 b33f 0fe2 92be 0bff f8bf
00000100: 7fd6 2240 fc7e fcbf 8331 0640 4c29 84be
00000110: 1240 943f 7227 c53e 714a 23c0 5787 e73e
00000120: 6769 2bc0 2866 0abf 39a8 e13d 7ab7 a1bf
00000130: cd6f 5a3e 3dc6 4d40 40bc e03f 0f8c 0f40
00000140: 7300 8fbf 5ae6 4fbf ad40 ce3e cb87 2640
00000150: 93e7 993e 1870 ca3f 924f 12bf 1040 2b40
00000160: c3d7 573f a02c 0940 f9bd 923f 3934 803f
00000170: ad03 0fc0 6cd7 14c0 ee17 773f 1d41 073e
00000180: a049 17bf 6706 d03f 779a 3040 8790 083f
00000190: 7c59 a23f 8507 15c0 f293 8abe 11a6 19c0
000001a0: a752 12c0 1942 af3f fe91 f6bf bdec 8bbe
000001b0: e775 22c0 3f57 12c0 50d1 7f3f d634 0ac0
000001c0: b5da a23f ea6b 6f3f b454 c33f 9976 29c0
000001d0: 9405 0040 e8df aabe eb60 1540 6469 97bf
000001e0: defd c4bf dc78 c63e ad53 36bf 4c1c 0b40
000001f0: 88a1 0e40 e57f 0f40 631a 1740 3664 7abd
00000200: 8f37 1e3f 4088 d03f 18ce 49bd 31f8 7540
00000210: cbab 1fbe 5d19 f2bf 9d5e 0140

hidden_layer2.weight f4 [135, 135]
0.57491446 -1.6838768 0.8891276 -0.69979316 1.2457979 -2.3843684 -0.35230225 -5.4003386
-1.9571208 -0.037299644 -2.0040786 -0.30457646 0.9125049 0.4622349 -0.17972004 -1.565132
0.3483941 -0.2196772 0.792459 0.5260851 1.2107576 1.7508773 0.123612955 1.0389616
-0.24156345 -0.18257491 -1.6955949 -0.48296186 -0.14034617 -0.8971067 -0.81291723 1.1737518
-0.691923 1.2007675 -0.31415287 0.5691316 0.42912015 0.65090096 1.3160717 1.4435681
3.0514293 -1.5008789 -0.24431878 1.5658416 -1.931218 0.46388748 1.1275343 -0.12591282
-0.38583642 0.864882 -0.8064218 -1.890221 -0.45357594 0.16720599 1.2172555 0.15399069
-0.73766655 1.1641724 -2.3721163 -0.117092595 -0.7933883 2.8471916 -0.7904882 1.3883579
1.4399911 -0.9345838 0.48175 3.4996672 1.7256272 -1.2546052 -2.2438037 2.0320764
-0.36177218 -0.25513273 -0.40235618 -1.2944845 -0.73785937 0.39701518 -0.94294995 1.5508165
0.27598068 -0.31993887 2.195471 1.7747943 -1.7764653 2.3438919 1.4194913 -0.93017864
-0.7403247 0.96549714 0.32405674 -0.22389391 -1.5406717 0.35103804 -0.73277766 1.1255044
0.6270398 -0.14476424 0.70364755 1.5044011 0.5617111 0.7221589 -0.47417906 0.9187255
-2.896919 1.684746 -0.842885 0.8809094 1.2320371 -2.9805875 -0.330209 -0.12459311
0.7051821 2.6148865 -0.34333885 -0.9227648 1.2613763 0.9087695 1.1105217 0.79717654
-0.5645921 -1.4269238 -0.38365024 0.5602825 0.7098635 -0.19077507 1.6345893 -2.0728924
-0.20679337 0.004291295 -1.4738625 1.8395362 -0.6936793 -0.07675139 0.8456643 0.26698396
-0.4854028 -2.650096 1.0782928 -0.58141047 0.21712594 0.71805024 0.747094 -0.8549275
2.0920713 2.7437885 -1.3046 1.7760723 1.4230525 -0.51383597 -0.16569783 -2.1487083
1.5490462 -1.3972675 -0.69281274 0.80251145 0.0037915832 1.8904984 -1.4319382 1.0906389
0.5793251 2.069619 1.187189 0.4890516 1.0573921 4.2727003 0.6151491 -1.2930164
1.6130074 -0.20135695 -1.4859459 0.8111808 0.8910246 -1.0243641 2.4677036 -0.13875423
-1.7928629 -0.4392424 -0.5337831 1.954194 -0.52360296 -0.031528477 -0.3345613 -0.28440294
0.23793921 0.72188467 0.31185994 -0.10482265 2.3767498 2.494533 1.1757181 -1.1180143
-2.1615992 -0.7971702 2.0210598 1.4736239 -0.90496963 1.7862554 -0.3861439 0.39377868
1.4140662 -0.7907024 0.37796438 0.97641665 1.111319 -0.07312564 1.6806865 0.4262277
0.9235419 0.04854053 1.000859 -1.8023803 0.3227673 1.1519842 -0.06099257 1.1012837
-1.5741216 1.5831743 0.93237984 -0.5231762 -2.1313815 -0.055264767 0.36396956 3.0680375
1.5128939 2.2864788 -0.9261079 -2.756625 -0.9412883 0.3511229 -0.33581313 -1.196444
1.6467841 -0.87603325 -0.23366043 1.228822 -0.8011325 -0.5287623 0.039373536 -0.5167314
1.949668 -1.2322688 -1.0589643 -1.3034147 0.788768 0.7481934 -1.4534609 -0.54362535
-1.5084345 -0.92843986 0.48138636 0.22018428 -0.268557 0.922306 0.94800913 -1.462948
00000000: 982d 133f 4689 d7bf de9d 633f a525 33bf
00000010: 4e76 9f3f 7e99 18c0 f660 b4be 93cf acc0
00000020: ef82 fabf 83c7 18bd d342 00c0 72f1 9bbe
00000030: ec99 693f 0eaa ec3e 8808 38be 3f56 c8bf
00000040: b660 b23e 0ff3 60be 98de 4a3f 83ad 063f
00000050: 1bfa 9a3f bf1c e03f ca28 fd3d b2fc 843f
00000060: 695c 77be ebf4 3abe 4109 d9bf c746 f7be
00000070: e8b6 0fbe c9a8 65bf 581b 50bf 803d 963f
00000080: de21 31bf c0b2 993f a5d8 a0be 9cb2 113f
00000090: a3b5 db3e 72a1 263f 0a75 a83f d7c6 b83f
000000a0: 9e4a 4340 cd1c c0bf b42e 7abe 7f6d c83f
000000b0: 2732 f7bf a982 ed3e 0b53 903f 4aef 00be
000000c0: 5a8c c5be e868 5d3f a971 4ebf c3f2 f1bf
000000d0: 1b3b e8be 0c38 2b3e 07cf 9b3f bcaf 1d3e
000000e0: b7d7 3cbf 9a03 953f c1d0 17c0 3ece efbd
000000f0: 7f1b 4bbf 6338 3640 6f5d 4abf b6b5 b13f
00000100: a151 b83f e240 6fbf f0a7 f63e 8cfa 5f40
00000110: 5ae1 dc3f e796 a0bf 7b9a 0fc0 8a0d 0240
00000120: 343a b9be c2a0 82be a101 cebe abb1 a5bf
00000130: 5ae4 3cbf 9345 cb3e 2b65 71bf 2881 c63f
00000140: 574d 8d3e 07cf a3be 9982 0c40 762c e33f
00000150: 3763 e3bf 5302 1640 e4b1 b53f 3020 6ebf
00000160: eb85 3dbf d22a 773f c4ea a53e 7244 65be
00000170: bb34 c5bf 42bb b33e 5197 3bbf 8710 903f
00000180: ae85 203f 143d 14be 3f22 343f 3790 c03f
00000190: 4ccc 0f3f 68df 383f 99c7 f2be 9831 6b3f
000001a0: 1f67 39c0 c2a5 d73f 50c7 57bf 4783 613f
000001b0: 64b3 9d3f f2c1 3ec0 2711 a9be ac2a ffbd
000001c0: d086 343f 4d5a 2740 1cca afbe 503a 6cbf
000001d0: c774 a13f 1ea5 683f 9325 8e3f c313 4c3f
000001e0: 1c89 10bf 70a5 b6bf ce6d c4be ad6e 0f3f
000001f0: 9db9 353f 8a5a 43be 393a d13f 45aa 04c0
00000200: a4c1 53be fe9d 8c3b 87a7 bcbf ec75 eb3f
00000210: f794 31bf d52f 9dbd 757d 583f 1fb2 883e
00000220: b786 f8be 2c9b 29c0 8005 8a3f 51d7 14bf
00000230: 4356 5e3e 24d2 373f 8d41 3f3f 87dc 5abf
00000240: 7fe4 0540 3b9a 2f40 22fd a6bf 5656 e33f
00000250: 9626 b63f c18a 03bf b1ac 29be 7084 09c0
00000260: 2547 c63f a9d9 b2bf 2d5c 31bf 6471 4d3f
00000270: 367c 783b dafb f13f c049 b7bf 0e9a 8b3f
00000280: a64e 143f a374 0440 cff5 973f f964 fa3e
00000290: a058 873f f6b9 8840 697a 1d3f 9081 a5bf
000002a0: 0777 ce3f 8430 4ebe 7a33 bebf 8ba9 4f3f
000002b0: 301a 643f 5d1e 83bf dbee 1d40 9715 0ebe
000002c0: 887c e5bf 61e4 e0be 02a6 08bf 0723 fa3f
000002d0: d80a 06bf 0124 01bd 9e4b abbe 439d 91be
000002e0: 56a6 733e 6fcd 383f 1bac 9f3e 42ad d6bd
000002f0: ab1c 1840 6ea6 1f40 ee7d 963f 181b 8fbf
00000300: a457 0ac0 5913 4cbf 0b59 0140 b59f bc3f
00000310: 17ac 67bf 04a4 e43f a7b4 c5be 5c9d c93e
00000320: 1f00 b53f 796b 4abf 8c84 c13e 71f6 793f
00000330: b33f 8e3f e5c2 95bd bc20 d73f 843a da3e
00000340: 3e6d 6c3f 6fd2 463d 261c 803f 66b4 e6bf
00000350: c141 a53e 3874 933f 58d3 79bd ddf6 8c3f
00000360: d17c c9bf 75a5 ca3f 72b0 6e3f e0ee 05bf
00000370: 8e68 08c0 4f5d 62bd 385a ba3e ba5a 4440
00000380: 82a6 c13f ab55 1240 6815 6dbf 8b6c 30c0
00000390: 45f8 70bf 61c6 b33e b3ef abbe 1425 99bf
000003a0: d2c9 d23f b743 60bf ae44 6fbe 0a4a 9d3f
000003b0: 0517 4dbf f75c 07bf 2546 213d 8248 04bf
000003c0: b98e f93f fcba 9dbf 248c 87bf 4bd6 a6bf
000003d0: b3ec 493f 9a89 3f3f 020b babf 082b 0bbf
000003e0: 6214 c1bf 3cae 6dbf 4678 f63e fd77 613e
000003f0: 4e80 89be 3f1c 6c3f bab0 723f e141 bbbf

hidden_layer2.bias f4 [135]
1.3445991 0.9150403 -1.2635208 1.5653028 -1.3111488 1.842825 1.1238887 0.38635296
-2.4856408 1.9434464 0.03666861 -0.9106454 0.43200392 1.2353767 1.1372054 -0.31318772
-0.96048474 0.079535365 -0.4540895 -1.7338222 1.6993985 1.728258 0.5258699 -0.78663856
-0.8762315 0.288257 -0.36848202 1.9136823 2.2169425 1.4301882 -0.8645088 -1.1360632
0.84348655 -0.9829553 1.1977882 0.7671315 1.4715711 -1.0692158 -0.757917 1.1645521
1.5165802 -0.6849064 -0.6599543 0.7945961 -1.6569167 1.1626441 1.133564 1.5864384
-1.0900705 -1.2547711 -1.4908757 -0.86308473 1.2436047 -1.3486224 -1.8052108 1.1165314
1.511874 1.5416446 -2.2764153 1.0162367 1.7674856 -1.6629245 -2.6117444 -1.2712158
0.9119691 2.2230618 -0.9916699 1.4036889 -0.93460596 -2.2281272 1.6198955 -2.1596198
-0.018026492 -1.1881986 -0.31523073 -0.0006658165 -0.1092372 1.2650024 -1.5317384 -1.2385635
0.0017234645 -0.36791477 1.6607572 0.15847024 -0.030531574 0.14156933 1.4939023 2.9304729
1.6996996 -2.0185375 0.26461262 0.8454113 1.4732907 1.3240826 0.7151107 1.3431104
-1.0053058 1.0187591 1.6985899 1.5477642 -0.8518955 0.3023538 1.3979272 1.772284
0.37063164 -0.13540284 0.9888504 0.030879099 -2.0607324 1.2045918 -0.5470234 0.5239124
0.74038243 1.5252575 1.1014229 -1.1783656 -1.3636011 -1.5736389 1.3969104 1.1495463
-0.39876354 1.0982871 -1.4794494 0.5164405 1.2912962 -0.09862964 -1.8188249 -1.736267
-1.0944068 0.4229299 1.4831005 1.5553758 -1.2059203 0.33827254 -1.1683201
00000000: d31b ac3f 1540 6a3f 0dbb a1bf d85b c83f
00000010: b9d3 a7bf b1e1 eb3f 96db 8f3f 0ed0 c53e
00000020: bd14 1fc0 dac2 f83f d331 163d 0f20 69bf
00000030: 9e2f dd3e d320 9e3f f28f 913f 245a a0be
00000040: 54e2 75bf 70e3 a23d 6b7e e8be e3ed ddbf
00000050: e485 d93f 8f37 dd3f 699f 063f 2561 49bf
00000060: b550 60bf 6c96 933e ada9 bcbe 8bf3 f43f
00000070: 63e2 0d40 6810 b73f 7350 5dbf 856a 91bf
00000080: bcee 573f f5a2 7bbf 2051 993f bb62 443f
00000090: 715c bc3f 10dc 88bf d906 42bf 0b10 953f
000000a0: 4d1f c23f 0756 2fbf c4f2 28bf a66a 4b3f
000000b0: d915 d4bf 86d1 943f a018 913f 6a10 cb3f
000000c0: 6e87 8bbf 579c a0bf 04d5 bebf 1ff3 5cbf
000000d0: 702e 9f3f a99f acbf 2611 e7bf 80ea 8e3f
000000e0: 1685 c13f 9c54 c53f cab0 11c0 0b14 823f
000000f0: f83c e23f b6da d4bf d226 27c0 33b7 a2bf
00000100: cf76 693f a546 0e40 14de 7dbf 14ac b33f
00000110: 5642 6fbf a399 0ec0 bc58 cf3f 3637 0ac0
00000120: 4bac 93bc e416 98bf ec65 a1be 308a 2eba
00000130: c1b7 dfbd 99eb a13f 0110 c4bf 4089 9ebf
00000140: dfe5 e13a 535f bcbe b193 d43f 0646 223e
00000150: 5a1d fabc 8df7 103e 3138 bf3f de8c 3b40
00000160: c28f d93f b82f 01c0 4e7b 873e e06c 583f
00000170: ca94 bc3f 8a7b a93f 7f11 373f 0beb ab3f
00000180: dcad 80bf b366 823f 656b d93f 231d c63f
00000190: d315 5abf 1ece 9a3e 47ef b23f 34da e23f
000001a0: 6ec3 bd3e 0ba7 0abe 4d25 7d3f 2af6 fc3c
000001b0: 0ae3 03c0 1030 9a3f ba09 0cbf 1f1f 063f
000001c0: b489 3d3f a33b c33f 6dfb 8c3f afd4 96bf
000001d0: 7b8a aebf 006d c9bf f6cd b23f 5524 933f
000001e0: bc2a ccbe ac94 8c3f 995e bdbf 7235 043f
000001f0: 3249 a53f 56fe c9bd 41cf e8bf ff3d debf
00000200: 8615 8cbf 458a d83e 3dd6 bd3f 8e16 c73f
00000210: 995b 9abf 0f32 ad3e 838b 95bf

output_layer.weight f4 [9, 135]
1.7312949 -0.8263794 0.4478201 3.655597 -2.074211 -1.3928577 -0.9590872 -1.0457506
-2.201638 -1.6413383 0.707369 0.90261686 -0.28714082 2.1795263 -1.504009 0.8941628
-1.9949858 0.83382094 1.3289369 0.3545434 -1.2969599 -0.14644222 -1.8394136 -1.8795459
0.9789498 -2.2055163 2.4055328 0.04967549 3.0750408 -3.0460517 -5.751807 -0.7518943
-0.65218663 -2.316069 0.40130764 -1.088561 1.0369551 -1.2056538 -1.8787524 1.0020447
-0.7935713 -0.11353275 -0.84649575 -0.76956695 -2.0734243 -0.29302225 1.0883636 -1.2250758
-1.27272 -0.12833422 1.3583086 1.3514019 0.89881253 1.2171922 1.2899779 -1.4648777
-0.98477507 0.5059142 0.21201031 0.6312263 0.9923448 -1.1078231 -2.2913146 -6.295033
3.973322 -0.35340416 -7.2433777 -1.872599 0.21276309 4.73896 1.0795552 1.3300109
-0.9367914 0.47475857 -0.034331527 -1.7749338 -1.1444046 0.42125365 -0.044299707 0.9419323
-0.77737725 0.2880968 -1.0219457 -0.06258437 0.020281633 1.0801619 -1.0163251 2.0234945
1.3066618 1.4389462 -1.5399102 6.7474604 0.010112542 -1.1116184 -0.75370055 -1.7113687
3.3407977 -0.8123127 -1.3563716 1.538332 0.5114745 -0.4711064 0.25930226 -2.3403409
-0.65207624 0.29305956 0.36467692 0.39693096 -0.4439578 -0.5099138 0.82872754 3.284555
-0.61212504 1.862845 -0.7496422 2.7249525 0.59221286 1.9426922 -0.07296235 0.896233
1.1881049 -4.745701 -1.3654323 -1.442601 -2.3923993 -1.0004407 1.6011344 -1.736637
2.5744627 -2.2411857 -1.2723421 0.5467397 2.0315812 0.2647914 -6.1058025 -0.31562147
-1.7794164 1.986185 -3.4524477 0.7369481 -3.4787676 -0.007528796 -0.2615109 0.22355658
-0.70941687 -2.0715115 0.74365157 -0.18704963 1.4659127 -0.5389496 -0.5791168 0.32653543
0.23609272 3.8177447 -0.19039826 -1.1515709 -0.5682694 -0.9863747 0.15579504 3.674335
-1.5286075 0.5677857 -0.78489435 -0.015724644 -0.5166223 0.5576286 0.26186374 -0.82522976
-0.78037566 -10.334895 -1.0922863 3.1769476 0.59866977 0.54333025 0.6111661 2.7922943
-0.18368499 -1.2180215 -1.9567032 -0.3223902 -3.1136668 -0.2928368 -1.1435957 0.19188663
1.464833 0.74267626 0.8176033 0.17912333 0.04975798 0.5371569 -0.75593436 -1.4349703
-0.7387453 -0.038340762 0.34348026 -1.3231577 1.6446608 -0.8500368 0.06934298 2.7328813
-0.87326145 0.29254934 -2.2136815 4.2460666 6.097902 -2.431454 2.2500305 -1.8655676
-0.3598369 3.59412 -0.45826486 -0.34554735 0.14173023 0.75093234 -0.1759235 -0.077306025
0.038356792 -1.4064276 -0.65620524 -1.7741129 -12.260205 0.16907014 1.0924914 1.4362319
2.2013183 -13.17716 -0.24678826 1.3666638 0.9867378 -0.89858353 -0.6461794 0.9787159
-0.6119543 1.7675827 0.44593704 -0.7936753 -0.31181777 0.06715203 -0.88105565 -0.81687677
3.2424808 0.19671111 2.0240436 -2.8038275 0.29866308 2.2192771 -0.25538042 -3.0369158
0.0033218127 -1.6225748 1.228278 0.6076232 2.0105963 -1.5957783 0.41460326 0.75661117
00000000: 129b dd3f 9a8d 53bf ad48 e53e 4df5 6940
00000010: dfbf 04c0 2949 b2bf bd86 75bf 28db 85bf
00000020: a3e7 0cc0 6017 d2bf 2316 353f e611 673f
00000030: 1f04 93be 5c7d 0b40 5e83 c0bf dae7 643f
00000040: b25b ffbf 4a75 553f 9b1a aa3f b686 b53e
00000050: c802 a6bf f3f4 15be e871 ebbf f694 f0bf
00000060: 749c 7a3f 2e27 0dc0 40f4 1940 8778 4b3d
00000070: 78cd 4440 83f2 42c0 ce0e b8c0 257c 40bf
00000080: b4f5 26bf 793a 14c0 3278 cd3e f855 8bbf
00000090: f2ba 843f dd52 9abf f57a f0bf 0043 803f
000000a0: 7d27 4bbf dc83 e8bd f2b3 58bf 5702 45bf
000000b0: fcb2 04c0 0307 96be 804f 8b3f 49cf 9cbf
000000c0: 7de8 a2bf 0c6a 03be 0edd ad3f bdfa ac3f
000000d0: 9418 663f f4cc 9b3f ff1d a53f 1d81 bbbf
000000e0: 381a 7cbf 9883 013f 3b19 593e 0c98 213f
000000f0: 4f0a 7e3f 26cd 8dbf e6a4 12c0 e970 c9c0
00000100: e84a 7e40 64f1 b4be c0c9 e7c0 53b1 efbf
00000110: 91de 593e 8fa5 9740 dd2e 8a3f cc3d aa3f
00000120: 90d1 6fbf 8e13 f33e 379f 0cbd 0831 e3bf
00000130: da7b 92bf 8fae d73e 9c73 35bd 7a22 713f
00000140: 3202 47bf 6c81 933e 1ecf 82bf 3c2c 80bd
00000150: ab25 a63c bf42 8a3f f116 82bf ef80 0140
00000160: b240 a73f 642f b83f c71b c5bf 32eb d740
00000170: 13af 253c 8349 8ebf 85f2 40bf 210e dbbf
00000180: a1cf 5540 baf3 4fbf 969d adbf 10e8 c43f
00000190: feef 023f dc34 f1be 44c3 843e 25c8 15c0
000001a0: 78ee 26bf e70b 963e efb6 ba3e 893a cb3e
000001b0: 704e e3be b689 02bf 7d27 543f 2636 5240
000001c0: 3ab4 1cbf b471 ee3f 8de8 3fbf 9f65 2e40
000001d0: 439b 173f 23aa f83f 496d 95bd 876f 653f
000001e0: d213 983f c8dc 97c0 7cc6 aebf 26a7 b8bf
000001f0: 121d 19c0 710e 80bf f9f1 cc3f 1f4a debf
00000200: ffc3 2440 966f 0fc0 1bdc a2bf 22f7 0b3f
00000210: 6d05 0240 bd92 873e bc62 c3c0 2399 a1be
00000220: ebc3 e3bf 4f3b fe3f e7f4 5cc0 a1a8 3c3f
00000230: 21a4 5ec0 1eb4 f6bb c2e4 85be 04ec 643e
00000240: 589c 35bf a593 04c0 f35f 3e3f f089 3fbe
00000250: 07a3 bb3f 9af8 09bf 0041 14bf a72f a73e
00000260: 4ac2 713e ee55 7440 c3f7 42be ad66 93bf
00000270: 1a7a 11bf 0d83 7cbf bc88 1f3e 4e28 6b40
00000280: 69a9 c3bf 675a 113f d6ee 48bf f8d0 80bc
00000290: 5c41 04bf bfc0 0e3f 0113 863e 4242 53bf
000002a0: b3c6 47bf bb5b 25c1 0ad0 8bbf 1c53 4b40
000002b0: 6c42 193f b117 0b3f 6275 1c3f f3b4 3240
000002c0: eb17 3cbe 21e8 9bbf 4075 fabf 5410 a5be
000002d0: 5146 47c0 b4ee 95be 5861 92bf ee7d 443e
000002e0: a67f bb3f 0820 3e3f 734e 513f 1b6c 373e
000002f0: 06cf 4b3d 1d83 093f ea84 41bf 1bad b7bf
00000300: 691e 3dbf 340b 1dbd a5dc af3e 3b5d a9bf
00000310: 3f84 d23f 039c 59bf b103 8e3d 87e7 2e40
00000320: 108e 5fbf 07c9 953e f5ac 0dc0 c7df 8740
00000330: 0322 c340 f19c 1bc0 8000 1040 ebca eebf
00000340: 8b3c b8be 1006 6640 b1a1 eabe 95eb b0be
00000350: bb21 113e 1a3d 403f 4a25 34be 9f52 9ebd
00000360: 031c 1d3d d205 b4bf 11fd 27bf 2216 e3bf
00000370: cd29 44c1 b920 2d3e c2d6 8b3f 72d6 b73f
00000380: 66e2 0c40 a6d5 52c1 10b6 7cbe d7ee ae3f
00000390: d99a 7c3f 9209 66bf 036c 25bf 208d 7a3f
000003a0: 09a9 1cbf 2640 e23f dc51 e43e 4e2e 4bbf
000003b0: 94a6 9fbe 0187 893d dd8c 61bf d61e 51bf
000003c0: ce84 4f40 a36e 493e ee89 0140 e971 33c0
000003d0: 5eea 983e a308 0e40 39c1 82be d45c 42c0
000003e0: c5b2 593b 88b0 cfbf 3738 9d3f 328d 1b3f
000003f0: 9cad 0040 7742 ccbf e146 d43e 45b1 413f

output_layer.bias f4 [9]
0.3872432 -0.1533027 1.3950261 0.26668262 -0.9948093 1.7752901 -1.837222 -0.58180964
0.6960644
00000000: be44 c63e 62fb 1cbe 3790 b23f a08a 883e
00000010: d3ab 7ebf b53c e33f 172a ebbf 7af1 14bf
00000020: 4731 323f
